HW4/model_state_dict.pth (torch, 946135 bytes, 16 tensors)

enc_conv1.weight f4 [32, 3, 3, 3]
000000 d9 34 01 be c9 79 51 3d 52 dd 2f 3e 41 ca 8b bc
       -0.12617816 0.051141534 0.17174271 -0.017064216
000010 c9 56 0b 3e 79 c0 1c bd 5b a3 0e 3e b9 01 14 be
       0.13607325 -0.038269494 0.13929503 -0.14453782
000020 16 03 02 bd 27 1e 2a 3e d4 64 23 be cb 9d a8 3c
       -0.031741224 0.16613065 -0.15956432 0.020583054
000030 ba 7d ae bd 72 a9 eb bd 64 31 0c 3e d5 2e ee bc
       -0.08520074 -0.115069285 0.13690716 -0.029075066
000040 d1 a0 64 bd 33 79 22 3e 3d bf 7d 3d 5e 3e 49 bb
       -0.05581743 0.15866546 0.061949957 -0.003070734
000050 e6 fb 0d 3e b2 d1 0b be c2 0f f9 3d 9f 22 d9 3d
       0.13865623 -0.13654211 0.12161209 0.106023066
000060 e6 17 2a bc 7a 57 a2 bb 23 b9 24 be fb 02 71 bd
       -0.010381674 -0.0049542757 -0.16086249 -0.058840733
000070 85 38 ff bd cf 23 b4 3c f1 2f dd bd b8 ef 0d be
       -0.12461952 0.021989731 -0.1080016 -0.13860977
000080 b1 6b bb 3d 09 6e 3e 3d 70 0c 22 3d 85 6b e5 3c
       0.091514 0.046491656 0.039562643 0.02800537
000090 f2 16 3a 3e 46 c9 0f be 43 a0 ad 3d bb fb 56 3e
       0.18172815 -0.14041623 0.08477833 0.20994465
0000a0 d8 e1 ee bd c7 bc 0c 3e 67 6a 4e 3e 8e af 58 3e
       -0.1166417 0.13743888 0.20157777 0.21160719
0000b0 8d 54 77 bc ae 0c 7b 3d 9a b9 80 bd a7 90 8e 3c
       -0.015095842 0.06129139 -0.06285401 0.01740296
0000c0 c8 3d ba bc 81 e2 fe bd bb 43 34 bd 41 f3 1d bd
       -0.022734538 -0.12445546 -0.044009905 -0.038562063
0000d0 13 4e f7 3c 69 ec f0 bd 4b 1a a4 bd f9 17 2b 3e
       0.030188596 -0.11763842 -0.080128275 0.16708364
0000e0 da 76 f0 3d ca b0 b1 bc 26 f1 ad bd 11 5b a3 3d
       0.11741419 -0.021690745 -0.08493261 0.07976354
0000f0 03 ca af bd 59 55 e4 bd 3e bb 2e 3e 35 84 ee 3d
       -0.085834526 -0.11149091 0.17063615 0.1164631
000100 7d 93 06 3c ee c3 2b be 61 c1 01 3e ca ef 98 bc
       0.008213875 -0.1677396 0.12671424 -0.018669028
000110 60 30 03 be 2c f3 01 bd 5c 3b fe 3d ac a8 23 bd
       -0.12811422 -0.031726047 0.12413666 -0.03995578
000120 bc dc f7 bc 78 ae ae 3c bd 8d 31 3e 0b eb ea bd
       -0.030256622 0.021323428 0.17339225 -0.11470612
000130 5e f9 20 3d 50 fe c6 3d a3 e6 0d be 6b 75 d3 bd
       0.039300315 0.09716475 -0.13857512 -0.1032513
000140 e7 a3 93 bb 3b 16 3a 3e 1c 68 fc bd 82 83 1b 3e
       -0.0045056227 0.18172543 -0.12324545 0.15186885
000150 6f 1a 96 3c 35 1a d9 3d 9d fc 4d bd a8 ef 38 3e
       0.018323151 0.10600702 -0.05028974 0.18060172
000160 91 d8 ee bd 6e c6 41 3e 18 a0 21 be 2e 28 2c be
       -0.116624005 0.18923351 -0.15783727 -0.16812202
000170 f7 88 0d be 82 14 40 3e 25 9c 20 be 57 e1 41 be
       -0.13821779 0.18757823 -0.15684564 -0.18933617
000180 3a a6 c7 3b ce f9 6a bd 30 82 f9 3b 71 47 42 3c
       0.006092814 -0.05736714 0.0076143965 0.011857853
000190 ed 5a 34 3c db 45 16 3e 0d 06 09 be 65 59 30 3e
       0.0110080065 0.14675085 -0.13381214 0.17221601
0001a0 20 ba e4 bd c0 d5 a1 3d b0 9b 62 3d 08 4c 26 3e
       -0.11168313 0.07902098 0.055324256 0.16239941
0001b0 ad 3a 0b 3e 1b 79 16 be cc d0 22 bd ea 9b 19 be
       0.13596602 -0.14694636 -0.039749905 -0.15000883
0001c0 e9 63 a4 3b 05 1b 4f 3d 03 f5 0e bb e9 03 3b bd
       0.005016793 0.050562877 -0.0021813519 -0.045658026
0001d0 7d 62 6a 3d 1d 67 22 3d b6 c7 38 3e 7a a5 98 bd
       0.057222832 0.039649118 0.18044934 -0.07453437
0001e0 23 45 44 3e e3 a9 20 3e 25 1a 20 3e ab 8b 68 3d
       0.19166999 0.15689807 0.15634973 0.056773823
0001f0 00 55 be 3c b4 ce 93 bd c4 1e 4e 3e 8e 34 9c 3d
       0.02323389 -0.0721716 0.20128924 0.076272115
000200 54 27 2f 3e 3c 64 a7 3c 0f 78 d2 3b 69 45 c3 3c
       0.17104846 0.020433538 0.0064230035 0.023836808
000210 4e 72 bc 3d 4f b4 9f bb fd 04 97 3d 76 75 6e bd
       0.092014894 -0.0048737894 0.07373998 -0.05821749
000220 b8 0b 27 3e bd ce 65 3d c9 21 9b 3b 21 96 a5 3d
       0.16313064 0.056105364 0.004734252 0.080852754
000230 0e a5 47 bd 21 bb 3f 3e ab 47 4d 3c 81 b8 c9 3d
       -0.048741393 0.18723728 0.012529294 0.098496445
000240 c9 c5 89 bd 47 80 d4 bd 21 34 d3 bc 5d 1f f6 3c
       -0.06727178 -0.103760295 -0.025781693 0.030044252
000250 20 fa 4f 3e 89 a2 11 3e ab 11 64 bd 11 95 ae bd
       0.20310259 0.14222158 -0.055680912 -0.08524526
000260 6c 85 8e 3b dd ae 4e 3d ff a3 10 3e 36 8c f9 3d
       0.004349401 0.05045973 0.1412506 0.12184946
000270 da 6e fb bc 28 a7 ab 3d 79 a0 30 be e0 1c 43 be
       -0.030692507 0.08381492 -0.17248715 -0.19053984
000280 66 c4 ad 3c 3b 55 9e 3d c5 e9 0e be 9b 26 27 3e
       0.021211814 0.077311 -0.13956363 0.1632332
000290 80 0e 39 bd 5b d7 fa bb 77 62 ea bd d1 68 ea bd
       -0.045179844 -0.007655067 -0.11444562 -0.114457734
0002a0 f0 6a 05 be 01 ce bd 3c 24 d2 1f 3e 59 24 fc bc
       -0.13029075 0.02316952 0.15607506 -0.03077905
0002b0 82 53 ad bd 79 bb 0a 3e 88 a3 47 3d fe 6a e2 bd
       -0.084631935 0.13548078 0.04873994 -0.110555634
0002c0 b0 ad 2d bd 17 13 b3 3d cf b4 e9 3d 7f c6 8a bd
       -0.04240197 0.087438755 0.114114396 -0.067761414
0002d0 fc e5 07 be 12 91 dd 3c c8 60 81 3d 26 f5 aa 3d
       -0.13271326 0.027046714 0.06317288 0.083475396
0002e0 44 27 9f 3c cf 58 99 3d 7f 84 fd bd 53 29 61 3e
       0.019427903 0.07487642 -0.12378787 0.2198842
0002f0 cb 43 6c 3e bc 5c 88 3e c8 63 ae 3d f1 bb 4d be
       0.23072736 0.2663325 0.085151255 -0.20091225
000300 b6 8f 17 3d 0d d0 81 3b 82 30 31 be 7f 7d 05 3d
       0.037002288 0.003961569 -0.1730366 0.032590386
000310 72 14 a7 ba 88 ca 28 bc f8 60 fa 3c 84 e2 b3 bd
       -0.0012747182 -0.010302193 0.030563816 -0.08783439
000320 ed fd 19 bd 40 ca ea 3d 64 be ac 3d 46 cf 4a be
       -0.037595678 0.114643574 0.08434752 -0.19805631
000330 84 13 93 3e d1 da 2d be 69 34 86 bd 85 5b 17 3e
       0.28725827 -0.16978003 -0.06552965 0.14781006
000340 fb 01 cd bd 71 b8 5d be f0 b5 b4 3e 88 87 f4 bd
       -0.10010143 -0.2165239 0.35295057 -0.11939913
000350 b1 ca 4e be 4f b5 91 3e 74 2f 8a bd 6a 7d a7 bd
       -0.20194508 0.2845864 -0.06747332 -0.08178218
000360 30 5d ae bd cd c8 2f bd 27 87 05 3d 00 16 19 3e
       -0.08513868 -0.042916108 0.032599594 0.14949799
000370 f3 fd 1b bd 56 f9 10 3e 8b 4f 14 be cb c2 27 3e
       -0.03808398 0.14157614 -0.14483468 0.16382901
000380 e7 03 7f bd 4d bc c7 3d d9 5f cd 3d 8f 18 22 3e
       -0.06225958 0.097527124 0.10028047 0.15829681
000390 f9 68 de bc d5 ab 9d bd 00 a7 61 3e 1f f0 9d 3a
       -0.027149664 -0.0769879 0.22036362 0.0012049711
0003a0 ff d0 e8 bd 16 70 32 3e f0 9e be bd d3 76 07 be
       -0.11367988 0.1742557 -0.09307659 -0.13228922
0003b0 52 84 3d 3e 8f 61 23 be d3 87 0b bd 76 b3 1f 3d
       0.18507507 -0.15955184 -0.03406508 0.038989507
0003c0 b4 15 02 be 42 66 21 3d bb db 93 3d 23 8f 0e bf
       -0.12703592 0.03940416 0.07219645 -0.5568716
0003d0 5c c9 a6 be 88 cb 8a 3d aa 75 07 bc c0 f1 cf 3e
       -0.325755 0.06777102 -0.008267799 0.40614128
0003e0 dc f9 2b bf 8d 9c 05 bf 99 a3 1d be 4f 05 20 3e
       -0.6717813 -0.52192 -0.15394439 0.15627025
0003f0 f5 09 8d bf c7 f4 28 bf db 02 ac bd 72 ca 15 3d
       -1.1018664 -0.659985 -0.08398982 0.03657002

enc_conv1.bias f4 [32]
000000 1f 29 6e be e8 82 17 3e ae 38 47 3e 2c 25 1f 3d
       -0.23257874 0.1479603 0.19455215 0.03885381
000010 c1 25 73 3d 64 f5 4b bd 76 4d 31 3d cc 73 0e 3d
       0.059362177 -0.04979457 0.043286763 0.0347784
000020 09 1b 75 bd 20 5d 17 3e ea 18 24 3c 0b b7 1e 3e
       -0.059840236 0.14781618 0.010015706 0.15499513
000030 3b 66 37 bd 28 3a 27 be a1 02 c3 3d dd 17 26 be
       -0.04477523 -0.16330779 0.09521986 -0.1622004
000040 0c 3e 30 3e 6e 20 0c 3d db e3 31 3e 8d 15 49 3e
       0.17211169 0.034210615 0.17372076 0.19637127
000050 15 4d 4f 3e 28 bd 1a be aa 2f 84 3d ec fd fd 3b
       0.20244248 -0.1511122 0.06454404 0.007751217
000060 7d 5a c3 bd 50 cb e3 bb 0d 9b 5d 3e d9 27 1e 3e
       -0.09538744 -0.006951727 0.21641178 0.15444888
000070 6d d5 1c 3e f6 7f 05 3e 6c 41 05 3b 6d f5 3f 3e
       0.1531579 0.13037094 0.0020333184 0.18745966

enc_conv2.weight f4 [64, 32, 3, 3]
000000 87 0f fb 3c ad 87 99 3c ec 93 c3 bd 3f 4b 5c 3d
       0.030647052 0.018741453 -0.09549698 0.053782698
000010 16 96 0d bd 34 66 07 bd ec 66 2f 3e 75 a6 b6 3d
       -0.03456696 -0.033056453 0.17129105 0.08918468
000020 12 ea 2b bc 23 a3 85 3b fb 7b de 3c 1a 38 34 3d
       -0.010492818 0.0040782853 0.027158728 0.043998815
000030 77 f4 65 bb fa 67 ec 3c 20 be e5 bc bb e2 3c 3d
       -0.003508834 0.028858174 -0.02804476 0.046114665
000040 32 d4 92 bb 5d dc 14 3d 4f 19 13 bd 47 61 f2 bc
       -0.004480862 0.036342967 -0.035912808 -0.029587401
000050 9e 15 29 3d 89 e6 1c 3c 82 7c 1d 3d 77 88 3b 3d
       0.04128038 0.009576448 0.038448818 0.04578444
000060 30 c3 23 3d d5 0b 42 3d 61 80 7c 3d f4 cc 3f bd
       0.039981067 0.047374565 0.06164587 -0.046826318
000070 23 db d8 3c ec 06 fa bc 9d 46 43 3d a3 68 37 bd
       0.02647168 -0.030520879 0.047674764 -0.044777524
000080 65 1c 36 3c 20 61 01 bd 08 a5 7f 3b 89 35 12 3d
       0.011115168 -0.031586766 0.0039008278 0.035695586
000090 38 d3 e4 3c 9f e4 54 bd de 1a 7e 3d 3a ae 08 bb
       0.027932748 -0.051975843 0.06203734 -0.00208558
0000a0 2c 16 d4 3b 01 66 f8 3c a6 19 4e bd 62 0c c8 3c
       0.0064723697 0.030322077 -0.05031743 0.024419967
0000b0 c2 0c 4e 3d 00 dc 92 bc 69 ae 6c 3c d3 3f 11 bd
       0.050305136 -0.01792717 0.0144458795 -0.03546126
0000c0 9b a7 b9 bc 4d 00 49 3d f8 db 38 3c 49 7f 62 3d
       -0.022662928 0.049072552 0.011282913 0.05529717
0000d0 66 69 3e 3c 4d 0d 3f 3d 83 28 53 3d 11 06 b3 3d
       0.011621809 0.046643544 0.051552307 0.087413915
0000e0 10 de 89 3d 3d 56 03 bc 97 71 35 3d ec 69 b4 bb
       0.06731808 -0.008016166 0.04429778 -0.005505791
0000f0 12 fc 93 bc f9 4a 92 bd ed f8 33 bd a8 7b 9a bd
       -0.018064532 -0.07143206 -0.043938566 -0.07543117
000100 73 4d 0e bd 38 a8 3a bd a9 63 dc bd 0a ad e7 bd
       -0.03474183 -0.045570582 -0.10761196 -0.113123015
000110 89 15 9f bb 1f 83 ff bd f0 d6 84 bd 1e c2 03 bd
       -0.004854862 -0.12476181 -0.064863086 -0.032167546
000120 76 13 4c 3c e3 42 8c ba 04 3f c1 3c ad 1a ed bc
       0.012455812 -0.0010701086 0.023589619 -0.028943384
000130 29 f4 10 3d 16 49 da bc 39 53 94 bc ca fe 83 bc
       0.0353891 -0.026646178 -0.01810609 -0.016112704
000140 1c 13 09 bd 41 07 91 3d 2d cf 55 bd 34 91 3e be
       -0.03346549 0.07081462 -0.05219953 -0.18610078
000150 bc 9a 05 3e 81 d8 87 3d 2e d9 55 be 41 ff 32 3e
       0.13047308 0.06633092 -0.20883629 0.17480184
000160 13 a0 fb 3d 23 40 98 bd ed 63 1f bb e1 3e a2 bb
       0.12286391 -0.07434108 -0.0024321035 -0.0049513434
000170 44 96 86 bd a0 39 03 bb 2b d2 5c 3c 58 63 53 bd
       -0.0657163 -0.002002336 0.013477842 -0.051608413
000180 e6 c0 ba 3d 59 04 c9 3d 64 d7 9a 3d 91 e1 4b 3d
       0.09118824 0.098152824 0.07560614 0.049775664
000190 e4 b6 a9 bd 28 4e ce bd 9b c5 b3 3d 96 93 4a bd
       -0.08286837 -0.10073501 0.087779246 -0.049457155
0001a0 33 c5 4d be 3f 3d 4c 3d 8b f1 f7 3c 38 b5 3c 3d
       -0.20094757 0.049863096 0.030266544 0.04607126
0001b0 8f 09 06 bc 1a ec e7 bc af e0 a0 ba 30 6e 45 b8
       -0.00818099 -0.028310824 -0.0012273992 -4.707108e-05
0001c0 55 1f e8 b9 3f 73 0e bd 13 8c 5e bd dd 01 44 bc
       -0.00044273832 -0.034777876 -0.054332804 -0.011963335
0001d0 32 53 79 3d 06 36 50 3d 50 38 e1 3d 87 0d b2 3c
       0.060870357 0.05083277 0.10997069 0.021734966
0001e0 b9 82 48 3d 3d ab 7c 3d 23 05 92 bd 52 bf 89 3b
       0.04895279 0.061686743 -0.07129886 0.0042037154
0001f0 51 b9 26 bd b9 ed f6 bd 44 5e b9 3d 83 97 08 3e
       -0.040704075 -0.12057061 0.09051183 0.13339047
000200 66 8c 86 3d 4b 24 97 3c 1f 92 4f 3d 7f 91 dd bd
       0.065697476 0.018449923 0.05067646 -0.10818767
000210 78 be 6f 3d 52 3d 54 3d 34 5c 0b 3d 5b 9b 2e bd
       0.058531255 0.051816292 0.03402348 -0.042628627
000220 d9 6f 3c 3b 1f 00 eb bc f4 46 d5 3c fb af 33 bd
       0.002875319 -0.028686581 0.02603481 -0.043869
000230 b7 19 23 3d d3 62 e3 3c 5f d9 fc 3c dc be 9f 3b
       0.039819445 0.027757084 0.03086537 0.004875047
000240 f1 ca a6 3b 29 51 06 bd 5e 1e a5 bd 8e 74 bd 3d
       0.0050901105 -0.032792244 -0.08062433 0.09250747
000250 4e d9 37 3d 19 6d ca bd 97 55 14 3d 08 8c fd 3a
       0.044884972 -0.0988409 0.036214437 0.0019344101
000260 26 be 46 3c cd f0 3e bc e9 2d 2b 3c 75 9b 55 3b
       0.012130296 -0.011654091 0.010447958 0.003259388
000270 79 11 c3 bc dd cc 55 bc 02 eb 4e bc ef 63 bb 3c
       -0.023812043 -0.0130493315 -0.012629272 0.0228748
000280 8a a1 01 3d 95 ba 2a 3d 9b 09 35 3d 23 f7 f1 bc
       0.031648196 0.041681845 0.044198614 -0.02953679
000290 9a f9 50 3c 7a 08 c3 bc dd 68 79 3d 52 d9 61 3d
       0.012754822 -0.023807753 0.06089102 0.055138893
0002a0 04 51 76 3d 76 d0 1d 3d 91 b3 4b bd fe e2 70 bd
       0.060135856 0.038528882 -0.049731795 -0.058810227
0002b0 86 b2 a1 bc 36 0f b5 bb ca e7 ea bc c9 46 5b 3c
       -0.019738447 -0.005525495 -0.028674979 0.013383576
0002c0 f9 be 4e bd a8 83 23 bd eb a9 59 bd 1a 2c e2 bc
       -0.050475094 -0.03992048 -0.053140562 -0.02760892
0002d0 f5 6b 9c ba b4 61 99 3c 7b 48 11 bd 27 5a dd bc
       -0.0011934029 0.018723346 -0.035469513 -0.027020527
0002e0 e1 2c 81 bd 1c 4c 26 bd 2d fc 86 3d dc 5e 4f 3d
       -0.06307388 -0.040599927 0.065910675 0.050627574
0002f0 74 3a 39 bd 78 ce 5a bc e1 43 de bc 92 58 0d bc
       -0.04522176 -0.01335489 -0.027131977 -0.008627074
000300 86 f4 c5 bb dc 1f 28 3d 47 b1 62 bd 6c 97 ce bc
       -0.0060411124 0.04104601 -0.055344846 -0.025218688
000310 36 ed 8d bc 16 74 ba bb fb 42 41 3d 2d 3b 69 3c
       -0.017325025 -0.005690108 0.04718302 0.0142353
000320 5a 09 d7 bc 53 1c 0c 3d 96 52 c4 bc 55 16 03 3d
       -0.026249576 0.0342067 -0.023965161 0.03200372
000330 5c 10 54 bd 86 63 ed 3c d5 dd 89 bc 7a c7 a6 3c
       -0.051773414 0.02897812 -0.01682941 0.02035879
000340 95 3c 09 bd 69 4a 11 3d 22 d7 02 3d 4a 18 40 3d
       -0.03350504 0.035471354 0.031943448 0.046898164
000350 a3 78 c4 3c f7 0e 44 3d 86 2b 6f bc 96 05 f6 bc
       0.023983305 0.047865834 -0.014597779 -0.03003196
000360 5c 62 bb 3c f6 40 3d bc 48 1f 59 bd 27 72 61 bd
       0.02287405 -0.011551132 -0.053008348 -0.055040505
000370 1f de 89 3c ec 3f eb bc 2f b9 67 bc 01 89 1b bd
       0.016829548 -0.028717004 -0.014143272 -0.037972454
000380 a0 cc 79 3d e0 3e ba 3d e1 81 a5 bc 52 2b b2 3c
       0.06098616 0.09094024 -0.020203533 0.021749172
000390 b1 63 a1 bd e7 da 62 bd f1 ce 39 bd 77 5b 06 be
       -0.07880343 -0.055384543 -0.04536337 -0.13120829
0003a0 33 ad 38 be 71 c9 10 be 02 9e 89 bc 6a 88 25 3d
       -0.1803482 -0.14139344 -0.016798977 0.040413298
0003b0 72 f6 2a bc 75 21 07 3d 05 45 86 bc a9 3d d6 bc
       -0.010434734 0.03299089 -0.016390333 -0.026152449
0003c0 5b c7 03 bd ae cb ac bd 5c 08 c5 bc f3 61 b9 bb
       -0.032172542 -0.08437286 -0.024051838 -0.0056574284
0003d0 e3 fb 42 3c fb 44 86 3d 1a 8b 46 bc 6d d8 85 bd
       0.011900875 0.06556126 -0.012118125 -0.065354206
0003e0 27 e7 c8 3c 76 ac 99 bc cb 69 84 bd ea 62 ea bc
       0.024524285 -0.018758994 -0.06465491 -0.028611619
0003f0 ff 21 ae 3d df 2f 1d bc 3c 08 21 3b 8b c3 42 3d
       0.08502578 -0.009593933 0.0024571558 0.047549766

enc_conv2.bias f4 [64]
000000 e3 8c 03 bd ff 65 96 3d 89 36 53 bd 73 23 04 3d
       -0.032116782 0.07343673 -0.05156568 0.03226037
000010 0b 9b 09 bd 04 2e 40 bd 43 c0 bd 3d 3e 9a c3 3d
       -0.033595126 -0.046918884 0.09265187 0.09550904
000020 56 d9 7a 3c 2e f4 81 3d 49 71 84 bc 62 ec 44 3d
       0.015310606 0.06345402 -0.0161673 0.048076995
000030 d5 3e a0 ba 10 0c 8c bd f4 d2 72 3c 37 af 67 3c
       -0.0012225757 -0.06838238 0.014820803 0.014140896
000040 28 f8 62 bc bd 36 4d 3d d2 b9 58 3d e3 00 aa 3d
       -0.01385311 0.05010103 0.052911587 0.083009504
000050 0b e9 0f bd fd 30 4f 3d 04 65 e4 bc 69 28 dc bc
       -0.035134356 0.05058383 -0.0278802 -0.026874738
000060 29 7b c4 3d 71 ad 89 bd 2e 3b 49 3d f8 c8 8d 3d
       0.095938034 -0.067225344 0.049128704 0.06923097
000070 69 81 8e 3d 98 af 91 bb 72 85 01 3d 09 64 73 3d
       0.06958277 -0.0044459812 0.031621404 0.059421573
000080 c7 7d 9f 3d 88 91 2d 3d 8d 13 ed 3b 08 43 83 3d
       0.07787662 0.042375118 0.0072349967 0.064092696
000090 82 5f 26 3d 9d b7 c3 bc d9 6e 44 3d a1 4d 11 bd
       0.040618427 -0.023891265 0.047957275 -0.035474423
0000a0 d8 51 6d bd 88 29 06 3d 25 1d 99 3c 74 99 a9 3c
       -0.05793938 0.03275445 0.018690655 0.020703055
0000b0 51 eb 30 bd c1 cb d7 bc 4a 2b ee bc dc fe 25 3d
       -0.043193165 -0.026342275 -0.029073376 0.040526256
0000c0 c3 88 55 3d 65 4c 3f 3d 32 90 3e bd 9c ff c1 3b
       0.05213238 0.046703715 -0.046524234 0.0059203636
0000d0 b1 82 cc 3b a1 a9 37 3d 44 2c 9f 3d 32 ce a2 3d
       0.0062411656 0.044839505 0.07772115 0.07949485
0000e0 f9 ac 8c 3d 3e 7a 81 3d 67 bb 0f bd 30 74 84 bc
       0.068689294 0.06322144 -0.03509083 -0.016168684
0000f0 a8 60 b4 3c b0 98 ab bc b6 70 81 bd 97 2d 15 bd
       0.022018746 -0.02094683 -0.06320326 -0.03642043

enc_conv3.weight f4 [128, 64, 3, 3]
000000 ac 82 04 3d d1 ad 07 bd 6b 2e 12 bc 4c 1a b3 3c
       0.03235118 -0.03312475 -0.0089222 0.021863125
000010 2d 18 a6 3b 17 8c 5d 3c 0f d8 16 bd 50 2d 38 3d
       0.0050688 0.01352217 -0.036827143 0.04496509
000020 94 a0 a9 bc 13 94 63 bc d4 b1 a5 3c 62 c1 2d 3d
       -0.020706452 -0.013890284 0.020226397 0.042420752
000030 9b 39 d5 3c 42 6d 5c 3d c7 cf 06 3d 42 3b 92 bb
       0.026028445 0.053815134 0.032912996 -0.0044626305
000040 37 26 94 bb 7b 77 25 3d cf bb 09 3d 4d c2 03 bd
       -0.004521157 0.04039715 0.033626374 -0.03216772
000050 0d 72 ce 3b 41 7e 62 b9 02 91 23 3d ea 7b 9a 3c
       0.006300217 -0.00021600073 0.039933212 0.018857915
000060 04 1b 8e 3c b4 fe 0e 3d 21 a4 00 3c fd 85 9c bc
       0.017346866 0.034910873 0.007851631 -0.01910686
000070 f7 f2 e9 3c 73 2b a0 3c a0 77 19 bc 97 75 16 bc
       0.028558237 0.019551968 -0.0093669 -0.009183309
000080 aa 0f fc bb c1 d8 56 bc 29 a0 19 3d 64 6c 01 bd
       -0.007692297 -0.013113202 0.037506256 -0.03159751
000090 fd bd 0a 3d 19 4b 8b ba eb ca 9f 3c 8d 5e c0 3c
       0.033872593 -0.0010627239 0.019505939 0.023482585
0000a0 77 a2 06 3d 66 c5 59 3d 1f 62 9f 3b f1 5e 2f 3d
       0.032869782 0.05316677 0.004863992 0.042815153
0000b0 fc f9 80 3c c1 fa b4 bc ac 39 20 bd a4 22 ac bc
       0.015744202 -0.022092225 -0.0391175 -0.021012612
0000c0 fe 4e 31 3c 0c 02 ad 3c c6 5f 1f bd 90 8b 67 bb
       0.010822056 0.02111914 -0.038909696 -0.0035330988
0000d0 28 cb 5a bd eb 08 0c bb 01 d2 0a bd 80 3e 16 ba
       -0.0534164 -0.002136762 -0.03389168 -0.0005731359
0000e0 02 3f a4 3b 13 44 2b 3d 6b f3 7f bd 23 f0 ee 3b
       0.005012394 0.041812968 -0.062488 0.00729181
0000f0 ad 7e e2 bb 51 c2 35 bd 9e cc c8 3b 3a 55 08 3d
       -0.0069120736 -0.044374768 0.006127908 0.033284403
000100 39 f4 38 bc 99 d3 4a bb 76 11 25 3d d0 fd 9e bc
       -0.011288696 -0.0030948876 0.040299855 -0.019408137
000110 2b af f1 bb c3 45 a0 3b ad e1 39 3c 5c b1 f8 3c
       -0.007375618 0.0048911287 0.011345309 0.030358009
000120 22 32 0f bd 4f ca eb bc ca ef c3 3c 35 78 06 3d
       -0.03495992 -0.028782992 0.023918051 0.032829482
000130 36 f2 89 bc 98 1a 33 3d 9f 6e bf 3c 59 5d 92 bd
       -0.016839128 0.043726534 0.023368178 -0.07146711
000140 e4 6d 1f bd 03 15 33 bc a8 23 2e bc 79 85 81 bb
       -0.03892316 -0.010930303 -0.010628618 -0.0039526788
000150 82 87 b3 bb ab 78 31 3c 9c cb 22 bd 43 44 35 bc
       -0.0054788003 0.010831992 -0.03974496 -0.011063638
000160 94 db e6 3a fb 83 e2 3a f2 93 f0 3c ed 86 18 3c
       0.0017613047 0.0017281765 0.02936742 0.009309513
000170 ee 59 52 3c 2b 7e a3 3c 5b f9 65 3d 34 f7 66 3d
       0.012838824 0.019957623 0.056146007 0.056388095
000180 b5 a2 49 bd 0f 96 08 3d 8e 4b f5 bb 69 43 33 3d
       -0.049227435 0.033346232 -0.0074858135 0.04376546
000190 43 57 97 3d 24 12 78 3c 67 ea d9 3c 14 e6 aa 3d
       0.07389691 0.015141044 0.02660103 0.08344665
0001a0 08 4b 37 bd 24 36 0f 3b c3 17 c4 bb 51 c6 3c bd
       -0.04474929 0.0021852339 -0.005984278 -0.046087567
0001b0 8d ed fa 3c 72 36 80 bb 51 ac f7 bc e0 16 96 3c
       0.030630851 -0.0039127404 -0.030233534 0.018321455
0001c0 f8 7b 80 3c 74 d1 71 3d d8 96 0c bc 2f 06 58 3d
       0.015684113 0.05903764 -0.008580886 0.052740272
0001d0 c5 9d 4d 3d 22 08 d0 bc bd 34 e2 bc bb 18 01 bd
       0.05019929 -0.025394503 -0.027613038 -0.031517725
0001e0 16 2f e7 bb ba 5d f2 3b 67 19 21 3d ad 75 5d bb
       -0.0070551736 0.007396427 0.039330866 -0.0033792064
0001f0 f2 ea 13 bd 5b 6c 06 ba 77 fd 39 bd ed 23 a0 bb
       -0.036112733 -0.00051278406 -0.04540774 -0.004887095
000200 7d 44 b5 bb 13 c1 02 3c f6 f3 1c 3d 24 02 45 3d
       -0.005531846 0.007980603 0.038318597 0.048097745
000210 29 3b 87 3c 27 7e ce bc a4 5d 4f 3b 26 65 4a bc
       0.016507702 -0.025206639 0.0031641508 -0.012353217
000220 78 42 97 3b 30 4c 30 bc b8 18 b5 bb 1a 7c de 3c
       0.004616078 -0.010760352 -0.0055266283 0.027158786
000230 b9 0b 12 3d bb 79 81 3a 23 fe 25 bd 9c e4 73 bc
       0.03565571 0.0009878197 -0.040525567 -0.014886048
000240 1d 78 1a bd 56 e1 74 3c af 40 c5 3c b7 e7 ca bc
       -0.037712205 0.014946302 0.024078695 -0.024768693
000250 df 46 b2 bd 11 20 2c bc 99 e0 88 bc 4c db 94 bc
       -0.08704924 -0.010505692 -0.016708659 -0.018170975
000260 c6 d0 1c 3d 9e e0 e4 3a 47 37 b1 bb 42 57 21 3d
       0.03828504 0.0017461961 -0.005408201 0.039389856
000270 be 7e 2d bc e7 09 44 3d e5 c4 7a 3d 08 4a a6 bc
       -0.0105893 0.047861006 0.06122293 -0.020298973
000280 81 c8 66 3d 2b c3 42 3d 2f a8 6f 3d 08 f5 51 3c
       0.05634356 0.047549408 0.05851 0.012814768
000290 44 bc ca 3c d5 44 5b 3c e7 00 01 3d 5a 7c f3 bb
       0.024747975 0.01338311 0.031495 -0.0074305953
0002a0 41 fb 3e 3c 25 99 6f bd bd e8 bd 3b 31 c3 0a 3d
       0.011656583 -0.05849566 0.005795567 0.033877555
0002b0 31 27 51 bc 9e cb 96 bc 2e f4 21 3d 9d 0a c1 bc
       -0.012765692 -0.01840764 0.03953951 -0.023564631
0002c0 2b c2 f6 bc 51 72 f2 bc 6b 63 4c bc a2 b1 a2 3c
       -0.030121883 -0.029595526 -0.012474875 0.019860093
0002d0 6f bb 95 3b d4 c8 f3 3c 59 4e b8 bb 11 5d 97 bc
       0.004569463 0.029758848 -0.005624574 -0.018476995
0002e0 a8 29 5b 3d bb 26 0f 3d a4 dd e0 bc 7b 05 50 3d
       0.053506523 0.034949046 -0.027449436 0.050786477
0002f0 e1 f9 9d 3c 87 87 99 bc a3 eb 77 3d 87 b0 5c bd
       0.01928419 -0.018741382 0.060527455 -0.053879287
000300 f8 86 7a bd 16 0d 6f 3d 70 8d 83 bd c7 6a a7 bd
       -0.061163872 0.05836209 -0.064234614 -0.08174663
000310 9b 4c 86 bd 1a 14 d4 3b 36 4d 22 3d 9a 63 54 bd
       -0.0655758 0.006472123 0.039624415 -0.0518528
000320 91 1b 7d bc 09 e2 5f 3d 22 a1 93 bb 25 e7 1b 3a
       -0.015448467 0.054658923 -0.0045052925 0.0005947224
000330 cc 3e 85 3d 1c 3f a2 bc 4a 13 9f 3c 1e d0 14 3c
       0.06506118 -0.019805484 0.019418377 0.009082822
000340 f8 c3 7f 3d 43 d7 e3 3c a2 62 01 bd 4c ff 64 bc
       0.06244275 0.027812606 -0.031588204 -0.013976883
000350 6a 0a a0 bc 9d 29 b0 bc 02 2f 11 3d 22 24 8d 3c
       -0.019536216 -0.021504218 0.03544522 0.017229144
000360 a3 9a 58 bd 0f 30 65 bd 17 13 e0 3c af d2 05 bd
       -0.052881848 -0.055954035 0.027352853 -0.032671627
000370 97 5a 36 bd a4 9c 23 bd 85 3f 33 3d ea bb bb 3b
       -0.044519987 -0.039944306 0.04376175 0.005729188
000380 ee 09 27 3d 72 b4 2f bd 99 e5 22 bc 69 88 de 3c
       0.040780954 -0.042896695 -0.009942436 0.027164655
000390 59 7a 15 bd cc 73 72 3c 53 d1 d5 bc 7b 38 2c bd
       -0.036493633 0.014798116 -0.02610079 -0.04204605
0003a0 89 f2 83 bc be ee 00 bd b2 78 2e 3d 6c 0a 07 bc
       -0.01610686 -0.031477682 0.042595573 -0.008242231
0003b0 1e f1 24 3c 19 f5 39 3d fb 6e 17 3d c3 06 24 3d
       0.010067252 0.04539976 0.036971074 0.04004551
0003c0 4f 8b 9f bc 15 c1 ad bc 64 d3 a2 bc e2 6a 01 bd
       -0.019475607 -0.021210233 -0.01987619 -0.031596072
0003d0 ea 31 a2 bd 39 62 14 bc 2b f5 cf 3b d2 4f c4 3c
       -0.079196766 -0.009056621 0.006346365 0.023963843
0003e0 4c a7 31 bd d1 e2 65 bd 80 d4 05 bd 84 22 16 bc
       -0.043372437 -0.056124512 -0.03267336 -0.009163503
0003f0 e0 e9 9c bb 32 a6 ee 3c 65 a5 e1 3b 6a 47 3a bd
       -0.0047886223 0.029131982 0.0068861716 -0.045478262

enc_conv3.bias f4 [128]
000000 d5 03 c2 bc fe e0 73 b9 b7 dc 73 3b c5 68 e3 3c
       -0.023683468 -0.00023258102 0.0037210414 0.027759919
000010 4d f2 fd bc 82 94 bb 3c 10 21 bd bb 53 2c 1e 3a
       -0.030999327 0.022897962 -0.0057717636 0.00060338265
000020 3b 9f b0 3d 18 b8 51 3d 0c 83 9a 3b a4 00 74 bc
       0.08624121 0.051200956 0.004715329 -0.014892731
000030 5e d6 8c 3d 19 eb 92 3c 81 f9 9a 3d 67 b5 39 bd
       0.06876825 0.017934369 0.0756712 -0.045339014
000040 5f 61 29 3d 24 2d 51 bb bc cb bd bc e0 93 46 3d
       0.041352626 -0.0031917775 -0.023168437 0.04848087
000050 20 5d 96 3c 95 61 1d 3b 2b 78 6e 3d 20 98 3b 3d
       0.018354952 0.0024014462 0.05822007 0.045799375
000060 85 b6 ac 3d 8b 4b ec 3c 8d 0d 86 ba c5 07 92 3d
       0.0843325 0.028844615 -0.0010227427 0.07130388
000070 c9 52 e5 3c 30 6f 8e bc dd 6a 1a 3c f4 0b 3b bc
       0.027993577 -0.017387003 0.009424892 -0.011416424
000080 b1 e9 da bb dd f7 8b 3d 64 ec 21 bd aa 4c 9b 3d
       -0.00668069 0.068343855 -0.03953208 0.07582982
000090 c8 b2 12 3d 1b cf 2c bd 2c 46 a7 3d 55 20 83 3d
       0.03581503 -0.0421897 0.08167681 0.06402651
0000a0 f4 d9 c4 3b 3a 2b 52 3c 88 12 ff bc 4a b0 4c bc
       0.0060074273 0.012827689 -0.031136766 -0.012493202
0000b0 19 de 6f 3c 17 04 81 3d e0 00 27 3d 60 5f 7d bc
       0.014640355 0.06299608 0.04077232 -0.015464634
0000c0 be 6a 38 3d f3 34 07 3d 6c 19 ad 3b c9 7c 96 3d
       0.045023672 0.03300948 0.0052825715 0.0734802
0000d0 12 c3 ad 3d 82 5d 0f bd 4c 9e 65 3d 2c 60 30 bc
       0.08484472 -0.035001285 0.056059167 -0.010765117
0000e0 e7 a0 8f 3d bf a5 e2 3c 31 60 19 bc a8 25 83 3d
       0.070131116 0.027666925 -0.009361313 0.06403667
0000f0 94 8c 26 3c 0b 7a 80 3d e3 7a 70 3d 31 0b cc bb
       0.010165352 0.06273278 0.058710944 -0.00622692
000100 f3 d2 47 3d 7a b6 c8 3b ff fc 42 3d 8c 3e 4c 3d
       0.04878516 0.0061252685 0.047604557 0.049864337
000110 72 33 82 3d ef a2 46 3d 29 f2 91 3d 19 ee 70 bc
       0.06357469 0.04849523 0.071262665 -0.014705204
000120 ea 90 1d 3d 6a f2 78 3b 5e 64 53 3d da 65 e4 3c
       0.03846828 0.0037986287 0.05160939 0.027880598
000130 61 06 0f bd 8b 46 88 3d 36 77 3e 3d df 70 84 3d
       -0.034918193 0.0665408 0.046500407 0.06466841
000140 0e b0 16 3d d2 26 53 3d 63 b4 71 3c d7 46 67 3d
       0.036788993 0.051550694 0.01475248 0.056464043
000150 87 1b ad 3d e0 c5 84 3d 35 04 62 3d 20 42 0f 3d
       0.08452516 0.06483054 0.055179793 0.03497517
000160 15 6d 0e 3d 2a 41 b6 3d 4e 1f b6 bc 26 8d 2c 3c
       0.034771997 0.08899148 -0.022231724 0.010531699
000170 bd 05 bd ba b6 5d 28 3c d1 75 a4 3d ba 82 61 bd
       -0.0014421266 0.010276249 0.08030284 -0.05505631
000180 06 a9 bc 3a 84 64 a6 3d 75 86 03 3e fc d0 21 3d
       0.0014393635 0.081246406 0.1284426 0.039505944
000190 ed 9b 9a 3d 90 e7 b9 3c f9 ab 53 3c 4c 6f 0a bd
       0.07549272 0.022693425 0.012919419 -0.033797547
0001a0 4e 5b 4c 3c e8 2f e9 3b ab 68 2f bd 7d b8 0f 3d
       0.012472941 0.0071163066 -0.04282443 0.03508805
0001b0 84 a1 0f 3c a5 16 93 3d 44 79 26 3d 64 be 77 bc
       0.008766536 0.071820535 0.04064299 -0.015121076
0001c0 50 fa 7f 3d 26 07 01 bb 2f 8a 96 3c 49 2b a3 3d
       0.062494576 -0.0019688099 0.018376438 0.0796724
0001d0 38 48 36 3d 09 e1 ea 3b af 99 12 bd e0 e0 29 3c
       0.044502467 0.0071679396 -0.035791095 0.010368556
0001e0 00 52 0f 3d 12 00 55 3d 2b b6 dd bc 15 d7 33 3d
       0.03499031 0.05200202 -0.027064404 0.04390629
0001f0 9f a4 7e bc 0e 32 74 3d b5 2b 30 3d 6d eb 89 3d
       -0.015542178 0.05961805 0.043010432 0.06734357

dec_convtrans1.weight f4 [128, 64, 3, 3]
000000 3e e8 64 bc c0 b1 82 3c f8 13 b6 bb dd f5 40 bd
       -0.0139713865 0.015953898 -0.0055565797 -0.047109473
000010 c0 1d 67 3c b5 fa f0 3b 58 1f 40 3c 78 bf 1e 3d
       0.014106214 0.0073541054 0.011726223 0.038756818
000020 32 f7 0d 3d ed ee 96 bc 41 a9 66 bc 2c 9b a9 3c
       0.034659572 -0.018424476 -0.014078439 0.020703875
000030 2f 74 c0 3b 5e c5 2e bb dc 8c 3f 3c 1f cb 72 bc
       0.005873225 -0.0026667933 0.011691298 -0.014818936
000040 8a 8d e1 bc 75 7a 61 bd 79 84 ee 3c 96 17 47 bc
       -0.027533311 -0.055048425 0.029115902 -0.012151619
000050 bc 60 c8 3c c3 ec 0d bd 16 35 c3 bc cd e0 a9 bc
       0.024460189 -0.03464962 -0.023829024 -0.020737076
000060 1c 53 56 3b 4a c1 d9 3c fe 4e 8c 3d 76 63 cb bd
       0.0032703346 0.026581425 0.06851004 -0.0993108
000070 fa 30 31 3c aa 56 2c be 6b 6c 28 bd 79 68 0a 3c
       0.0108149 -0.16829935 -0.04111902 0.00844776
000080 14 cd 45 3c cd 74 fe bb 6b d8 02 3d e0 05 50 3d
       0.01207282 -0.0077653886 0.031944674 0.050786853
000090 cb c3 2a bc 98 18 dc bc 54 67 3a 3d 53 93 52 bd
       -0.010422657 -0.026867196 0.045508698 -0.05141003
0000a0 16 cf 85 bd ab f0 62 bd ab 36 63 3d 89 61 34 3c
       -0.06533639 -0.0554053 0.055472057 0.011009582
0000b0 f3 d2 0a bd c4 79 2d bb ef c4 a4 3c 65 c6 f6 bb
       -0.033892583 -0.0026470283 0.020113437 -0.0075309747
0000c0 b9 c8 8a bc a7 e3 51 bc 54 66 83 3d f9 1f 05 bd
       -0.016941415 -0.012810624 0.06416002 -0.032501195
0000d0 cd ee 20 3d 75 6a 91 3d ca 10 36 bc 3f f1 1a 3c
       0.03929024 0.07100383 -0.011112401 0.009456932
0000e0 41 2a 4d 3c b0 cb 70 bd 36 91 36 bc 9d 2f 1d bd
       0.012522281 -0.058788 -0.011143019 -0.038375486
0000f0 10 35 c8 ba 71 dd 9f 3c 5c 29 92 bc 03 65 4b bd
       -0.0015274603 0.019514771 -0.017841987 -0.04965688
000100 e8 e8 1e 3d fa c3 76 bd e5 2f d3 3c 79 73 61 3d
       0.038796335 -0.06024549 0.025779674 0.055041764
000110 3b ed e1 bc a3 bf 71 3c 79 82 dd bc 82 5b 09 bd
       -0.02757894 0.014755162 -0.027039753 -0.033534534
000120 8b d0 99 3c e0 99 5a 3c 3e 23 8e bc 99 28 5d bd
       0.018776199 0.013342351 -0.01735079 -0.053993795
000130 0f 3d be 3c 98 9f 27 bd 3e 38 05 bd 73 48 fe 3c
       0.023222474 -0.040923685 -0.03252434 0.031040406
000140 52 08 e7 3b 45 41 29 bd cd a1 ad 3d b5 b0 80 3c
       0.0070505524 -0.04132201 0.08478127 0.01570926
000150 cc f3 47 3d fa 1e 98 3d a3 c2 99 bd 4d c2 b9 3c
       0.048816487 0.07427783 -0.07507827 0.022675658
000160 b3 bb 0b bd 48 4a 02 bd 55 0a cb 3c dd 72 62 3b
       -0.03411455 -0.03180912 0.0247852 0.0034553327
000170 cc fc 2e bd bd 6a 78 3c 6a ad f8 3b 1d 40 01 bc
       -0.042721555 0.015162167 0.007589032 -0.007888821
000180 f7 7a ce 3b 59 ae ae bc 3c ef e8 3c 97 f4 16 bc
       0.0063012796 -0.02132337 0.028434388 -0.009213588
000190 71 2a 5f bd a5 0e 90 bc e7 ff d4 3b dc a8 8c bb
       -0.054483835 -0.017585108 0.0065002325 -0.0042925905
0001a0 7a 89 70 3c a9 2b bd bc 5b 91 4a bc cd a3 a2 bd
       0.0146812145 -0.023092108 -0.012363757 -0.07941399
0001b0 63 8f 69 bc f6 7e 38 3c 1d 05 8b 3c 27 d7 b2 3c
       -0.014255377 0.011260739 0.016970212 0.021831108
0001c0 51 3e 18 3d 37 1a c6 3c 0e ea 12 3c e6 63 4e bc
       0.037168805 0.024182422 0.008966936 -0.01259706
0001d0 7f de f7 3b e3 2b 90 bc 61 a9 c3 bc 1a 8f e2 bd
       0.0075643654 -0.017599052 -0.023884477 -0.11062451
0001e0 fa 7d c6 3c f0 ff 60 bd ae f0 14 bd 6b 94 17 bd
       0.024229992 -0.05493158 -0.036362343 -0.037006777
0001f0 88 8c 24 bd a8 7d 85 3b c0 9f 33 bc 8d 15 6c 3d
       -0.040173084 0.0040738173 -0.01096338 0.05763774
000200 ca 1f f8 3c 47 68 83 3d 55 c6 eb bc 1d e9 48 3d
       0.030288596 0.06416374 -0.028781096 0.04905044
000210 cc 7d a4 bc 19 49 2d bd 0b 4e 2a bd d5 93 06 3d
       -0.020079516 -0.04230604 -0.041578334 0.032855827
000220 ce ac f2 3c 9c 4e 44 3d af 47 97 3c 80 ea 70 3e
       0.029623415 0.04792653 0.018466799 0.23526955
000230 1f 9f 04 bd c7 ad cd 3c 03 61 ae 3d a4 4c 87 bd
       -0.032378312 0.025107278 0.08514597 -0.06606415
000240 21 f2 ed 3c 7e 13 3b 3d 22 80 36 3c 5c 3e 7d 3d
       0.02904612 0.045672886 0.011138948 0.06182705
000250 5a 49 aa 3c 54 72 38 bb 44 4d 40 3d 9d c1 62 bd
       0.02078693 -0.0028144317 0.046948686 -0.055360425
000260 36 79 08 3d a6 85 b8 3b 0d 5c 81 bb 51 24 ae bc
       0.03331872 0.0056311665 -0.003947741 -0.021257551
000270 15 63 21 bc 13 0d 40 bd e5 09 11 3d 32 bf 65 3c
       -0.009850283 -0.04688747 0.035409827 0.014022635
000280 41 23 52 bd 20 98 7e 3d af d1 0e 3d 36 3a ea ba
       -0.051303152 0.062156796 0.03486794 -0.0017870131
000290 0f 2a ba bc e1 e3 0c bc 77 b5 00 bd 9e cb 54 bc
       -0.022725133 -0.008599252 -0.03142306 -0.012987999
0002a0 cb bb be 3c d7 dc f2 3c 7c c7 83 bc 83 55 51 3c
       0.023282906 0.02964632 -0.016086332 0.012776735
0002b0 60 6b 25 bc 96 94 9b bc d8 a3 53 bc ae f0 08 3d
       -0.010096401 -0.01899175 -0.012917481 0.033432655
0002c0 67 c2 4f 3d f6 5b 23 bd 50 9b b5 3b f1 fb cb 3c
       0.050722506 -0.039882623 0.0055421963 0.024900408
0002d0 92 9b c4 3c 67 fb 27 bd 9b 39 bb bc e6 1b a9 bd
       0.023999963 -0.04101124 -0.022854617 -0.08257274
0002e0 7e a0 d0 bc 9b 37 44 be 08 38 ad bc 60 9a e3 ba
       -0.025467154 -0.19161837 -0.021144882 -0.0017364733
0002f0 e8 7c 1e bd 7f ea ed 3b f0 56 4f 3a e6 69 e5 3b
       -0.03869334 0.00726062 0.0007909378 0.0070011495
000300 ca 66 59 bb f3 7c d2 bc a1 21 11 bd 3a bb f4 bc
       -0.003317284 -0.025694346 -0.03543246 -0.029874433
000310 b7 08 53 bb 9d 0a 21 bd 06 4f 96 bd de 43 2d bd
       -0.003220124 -0.039316762 -0.07339291 -0.04230105
000320 ea 63 06 bd 21 a2 10 3d b2 46 21 3d fa b6 07 3d
       -0.03281013 0.03531087 0.03937406 0.033133484
000330 ba e4 71 3d 11 83 d2 bc 57 69 eb bc ab aa 80 bd
       0.05905602 -0.025697263 -0.028736753 -0.06282552
000340 f8 be 0e bc fa 39 af 3b 41 96 9e bc f2 54 9c 3c
       -0.008712523 0.0053474875 -0.019358756 0.019083474
000350 fa 3f de bc 21 6e 2f 3d 24 da ba 3c eb ec 0f 3d
       -0.027130116 0.042829636 0.022809096 0.035138052
000360 70 bc d6 bc 4d 4f 25 bd a5 66 07 bb 35 32 d2 bc
       -0.0262129 -0.04035883 -0.0020660546 -0.025658706
000370 d3 59 51 bd e4 b1 5a bc 0f 4e 4c 3d ec 07 fb bd
       -0.051111054 -0.0133480765 0.04987913 -0.1225737
000380 9c 65 48 bd 28 a1 1b 3b bf 39 fd 3b d0 89 3e bc
       -0.048925027 0.002374718 0.007727831 -0.011629537
000390 c5 14 9f bc 29 c5 2f bc 3c dc 43 bc 3e 34 2f bd
       -0.019419083 -0.010728159 -0.011954363 -0.04277443
0003a0 11 60 29 bd c5 78 48 bc b0 68 a9 ba f9 19 15 bd
       -0.04135138 -0.012235825 -0.0012924876 -0.036401723
0003b0 4f a4 54 bd 99 2b f0 ba b7 2b 0a 3d 3f 1d 7d bd
       -0.05191451 -0.001832354 0.033733096 -0.06179547
0003c0 9b f8 c5 3c ce d2 c5 3b 46 63 e9 bd 98 71 14 3d
       0.024166396 0.006037093 -0.11395888 0.036241144
0003d0 bd 39 d4 3a 43 d6 52 bc f9 e3 82 bc f2 54 47 3d
       0.0016191524 -0.012868467 -0.015977846 0.048664995
0003e0 24 c9 e0 3c 44 d8 24 3d c0 30 a3 3c b8 f5 1c bc
       0.027439661 0.04024531 0.019920707 -0.009580068
0003f0 68 29 e4 bc f3 7f 0b bd 42 01 96 bd 56 0d ee 3c
       -0.027851775 -0.03405757 -0.07324459 0.029059093

dec_convtrans1.bias f4 [64]
000000 3c a0 4b 3d 9c fe 40 3d 1e f8 6f bd 28 01 de bc
       0.04971336 0.047117814 -0.058586232 -0.02710016
000010 d5 3a ad 3c ff 03 83 bc df 15 33 3d 30 4c 85 3c
       0.021146217 -0.015993116 0.04372203 0.01627168
000020 50 83 22 bc ab f0 a5 3c 58 b5 7c bc 57 4f 97 3b
       -0.009919003 0.020256361 -0.015424095 0.0046176123
000030 78 79 67 ba 26 7b a0 3c 21 31 c2 ba 26 0d 8c 3d
       -0.0008830051 0.019589972 -0.0014815667 0.06838445
000040 f2 81 c2 bc b5 a5 95 bd 9c 81 23 3d a7 5a ad bc
       -0.023743603 -0.07306997 0.039918527 -0.02116139
000050 24 1c 4a 3c b4 ce a7 bb 2d 38 f5 3a 3d d8 36 3c
       0.012335811 -0.0051210765 0.0018708758 0.011159954
000060 d1 02 4a 3d 32 84 53 3d 0b b3 58 3c 0a d5 88 3d
       0.049319092 0.051639743 0.013226281 0.06681259
000070 66 77 17 3c 61 f3 d3 bb 75 1a 4d bc 05 04 1b 3d
       0.009244775 -0.006468222 -0.012518515 0.03784563
000080 1a 4b 7a bb fb 59 20 bd 45 0b 47 b8 14 62 12 3c
       -0.0038191737 -0.039148312 -4.7455793e-05 0.008934516
000090 e0 10 70 3d 8f 17 83 3d 0f 19 d5 bb 40 d1 da 3c
       0.058609843 0.06400978 -0.0065032314 0.026711106
0000a0 b0 65 a7 bc da 7d 1f bc 22 48 cb 3c 94 f2 3e bd
       -0.02043423 -0.009734595 0.024814669 -0.04661806
0000b0 d3 b2 72 3d e7 65 41 bb 9e 70 54 3c d2 6b 2a bd
       0.05925257 -0.0029510201 0.012966303 -0.04160673
0000c0 30 bf 69 3d b8 7d cf bc 1f ea d1 3a 0b 5f f8 bb
       0.057067096 -0.025328502 0.0016015208 -0.0075796894
0000d0 3d 71 73 3d b4 68 88 3d 91 9c 31 3c 29 d3 68 3d
       0.059434164 0.066605955 0.010840551 0.056842003
0000e0 3d 12 e1 ba 63 03 82 bc 7d 28 16 bc c0 49 2a 3a
       -0.0017171573 -0.015870756 -0.009164927 0.0006495975
0000f0 4d 15 cf bb fa 95 b3 bc 86 01 41 3d 06 8e 4c 3d
       -0.006319678 -0.0219221 0.047120593 0.04994013

dec_conv1.weight f4 [64, 64, 3, 3]
000000 96 a7 e7 3b 41 61 43 bc a3 9b 25 3b 24 04 36 bd
       0.0070695383 -0.011925043 0.0025269769 -0.044437543
000010 83 50 3c bc dd 09 f6 b9 57 03 18 bd ff 3c 01 bd
       -0.011493805 -0.00046928125 -0.03711256 -0.03155231
000020 9f f1 ed 3c 7a 8a bb bc bd 47 a6 3c 03 b6 38 3c
       0.029045878 -0.02289318 0.02029788 0.011273864
000030 eb fa 6c bc 38 8e 80 bd b7 83 bd bc bb 83 17 3d
       -0.01446412 -0.06277126 -0.023134096 0.036990862
000040 0a 00 54 bd c8 b3 9c bc 1b 17 26 bd ef c3 82 bc
       -0.05175785 -0.019128695 -0.04054938 -0.015962569
000050 4f b6 87 3c f8 dd d7 bb 0d a8 60 3d 92 4f da bc
       0.016566424 -0.00658774 0.054847766 -0.02664927
000060 3a fc 6e 3c 1e 57 8f bc dd 4e 76 3c b4 51 32 3b
       0.014586503 -0.017497595 0.015033451 0.0027209343
000070 d2 7f cd 3c 43 21 d3 3c f0 9a 22 3d ef 62 4d 3c
       0.025085364 0.025772696 0.03969854 0.012535795
000080 ef bf 36 3d 9a 2e d0 3c ec 37 c0 bb 1c 71 0a 3d
       0.044616636 0.025412846 -0.0058660414 0.033799276
000090 86 bf 81 3d 77 1e d4 bb e2 85 23 3d 3c 9d 76 3d
       0.06335358 -0.0064733583 0.039922602 0.060208544
0000a0 12 be 6b bc 47 28 08 3b 24 b5 95 3b 28 13 fb bc
       -0.014388578 0.002077596 0.004568713 -0.030648783
0000b0 a4 32 9f 3c b9 61 a3 3c 9d 40 5c 3d 90 f8 ce 3c
       0.019433327 0.019944059 0.053772558 0.025265008
0000c0 0f 5e a9 bc c0 95 b9 3c ea 35 8a 3d f1 59 20 bd
       -0.020674733 0.022654414 0.067485645 -0.039148275
0000d0 bc 70 00 3d 53 fc 7e 3d e3 36 f6 bc bc 17 1c 3d
       0.031357512 0.062252354 -0.030055469 0.038108572
0000e0 a8 4b a2 3c f0 38 6b bc 49 c7 c4 bc bf 56 1c 3d
       0.019811466 -0.014356837 -0.024020808 0.038168665
0000f0 5d f3 9e bc 32 30 59 3d 9f 2e 3c 3d ae 3e a2 3c
       -0.019403154 0.05302448 0.0459429 0.019805279
000100 6d 02 28 3b cf d0 27 3c eb 4c d3 bc 91 73 b7 3c
       0.0025636212 0.010242655 -0.025793513 0.022393974
000110 4f d1 68 3c 82 f1 9b bc 0a 1c f1 ba 96 f4 0f bd
       0.014210059 -0.019036058 -0.0018395197 -0.035145365
000120 ef 06 82 3d 18 06 2f 3d 64 ce 25 3d a4 cb 29 3c
       0.06348979 0.04273042 0.040480033 0.010363493
000130 a9 75 80 3c 4e 1e db b9 3e 0a f2 bc f1 18 51 3d
       0.015681105 -0.00041793514 -0.0295459 0.051049177
000140 ae 90 e8 bb fa 85 e8 bc 20 86 99 3a 9b 73 48 3c
       -0.0070973253 -0.028384198 0.0011712946 0.012234594
000150 c6 91 5c bd f5 d4 2a bd a6 aa 60 3d c3 b1 8d bc
       -0.053849958 -0.041706998 0.054850243 -0.017296677
000160 1e 8e 4b bc b9 20 3a 3d 80 81 e0 3c 2e 30 8f bc
       -0.01242402 0.045441363 0.0274055 -0.017479029
000170 0b 93 12 3d 39 1f 84 bb f9 af 74 bd d3 c7 14 3d
       0.035784762 -0.0040320423 -0.059738133 0.03632338
000180 f6 72 f2 bc 05 5c a9 3c 4c 3d 3c 3d c2 1f 2c bc
       -0.029595833 0.020673761 0.045956895 -0.0105056185
000190 2f 08 35 bc d5 5d ba bc c5 bc b0 3c 34 d9 55 bc
       -0.011049314 -0.02274982 0.021574387 -0.013052274
0001a0 99 75 ad 38 8e d7 f0 3a 91 b1 cb bc b2 56 12 3b
       8.271187e-05 0.0018374787 -0.024864944 0.0022329506
0001b0 18 56 11 bc 04 a7 8b bd 9d e5 2a 3c 32 5d 45 bd
       -0.008870624 -0.06818965 0.010430721 -0.04818458
0001c0 f9 aa aa bd 8c 49 c2 bc d4 67 41 bc f1 c9 67 bd
       -0.08333392 -0.02371671 -0.01180454 -0.05658907
0001d0 04 34 d2 bc 27 8d 68 3c 93 d6 d5 bb c1 48 da 3c
       -0.025659569 0.01419381 -0.0065258234 0.02664602
0001e0 78 f1 be 3c af 42 e3 3d 2a 02 14 3d 88 50 d4 3c
       0.0233085 0.11096703 0.036134876 0.025917307
0001f0 39 be 52 3c dd d2 b1 bc f5 dc 3b bd 4a 73 19 3c
       0.012862735 -0.021706993 -0.045865018 0.009365866
000200 9b f2 a9 3c 6e ae bb b9 79 05 de bc 0f c8 e5 3c
       0.020745566 -0.0003579738 -0.027102219 0.028049497
000210 72 1b 07 3c fd 19 75 3d 5b 45 f7 3c ea 57 73 3c
       0.00824629 0.059839237 0.030184438 0.014852503
000220 39 d7 b7 ba 73 69 80 bd 6f 07 c2 3b ed e2 64 3c
       -0.0014025933 -0.06270113 0.0059212963 0.013970119
000230 ca 12 9c bc b6 88 33 3d bf d0 53 3d 94 a4 a0 bc
       -0.019051928 0.04383155 0.051712748 -0.019609727
000240 ae 7b 6f 3c 8f a2 2b 3d 08 79 5f ba 12 ac b6 3c
       0.01461689 0.041903075 -0.000852481 0.022298846
000250 5a f7 09 3d b2 83 3d 3d 7e b5 d4 3b 01 5b 5d bc
       0.03368316 0.046268173 0.006491362 -0.013510467
000260 8f 5a 12 3d 34 4b 1f bd 62 c0 96 3b 82 82 33 bc
       0.035730895 -0.03889008 0.0046005705 -0.010956408
000270 b0 66 4d 3d 78 e7 6b 3d 53 7a e9 bb 86 20 3f bb
       0.05014676 0.057593793 -0.007125178 -0.0029163673
000280 ba d7 35 bd fd b4 16 bd e6 3b 0b 3b 55 e0 64 3d
       -0.044395186 -0.036793698 0.002124542 0.055878002
000290 3f 5b e1 3c d3 a8 10 bd d6 11 82 bb d5 b8 af bc
       0.02750933 -0.035317253 -0.0039694114 -0.02145044
0002a0 22 cc 7d 3c 7c 27 51 3c cd bd d7 3c bb 5b 2a bd
       0.015490564 0.012765761 0.026335621 -0.041591387
0002b0 23 4d a4 bd fb d1 11 bc 32 89 23 bd 50 37 9d bd
       -0.08022525 -0.008900161 -0.03992576 -0.07676566
0002c0 ae 70 92 3b 73 00 4a bc db 39 81 bd 86 5f d0 3c
       0.004468999 -0.012329209 -0.06309863 0.025436174
0002d0 ed 80 ed bc d0 39 48 ba 12 9d 64 bc b1 ba 11 3d
       -0.02899214 -0.0007638009 -0.013953464 0.035578433
0002e0 03 3e 5b 3c a7 8f 06 3d 48 62 5b 3c 8f 43 80 bc
       0.013381484 0.03285184 0.013390131 -0.015657214
0002f0 59 94 17 bc 54 5e ad 3c 76 1a 63 3c 45 6c 01 bd
       -0.009251677 0.021163143 0.013861289 -0.031597394
000300 c3 95 68 3d 25 2f 88 3d a4 60 e7 bc 6a c8 bf bc
       0.05678345 0.06649617 -0.028244324 -0.023410995
000310 6b 59 8e bc 1f 33 a1 3c 33 60 24 3d 43 4c 27 3d
       -0.017376622 0.019677697 0.040130805 0.040844213
000320 60 bc a2 3c ca 36 dc 3b 9f 5c ce bc 32 f0 02 3d
       0.019865215 0.0067203986 -0.02519065 0.03196735
000330 4d f0 6f bc 2c 7e 80 3c a0 73 d0 3c c9 0b 34 bc
       -0.0146446945 0.015685163 0.02544576 -0.010989138
000340 bf 06 a2 3c c8 d6 2a bb 05 19 0a 3d 63 96 3f 3d
       0.019778607 -0.002606796 0.033715267 0.04677428
000350 56 22 04 3c 31 9d 9c 3c 26 50 36 3d 51 81 1d bd
       0.008064827 0.019117923 0.04451003 -0.038453404
000360 83 d9 27 3d cc e9 d1 3c 51 6e 70 3b 45 7d 39 3c
       0.04097892 0.025624178 0.0036686847 0.0113213705
000370 85 7c eb bb 74 11 35 3d 1c ec 89 bc 16 4a 04 bd
       -0.0071864747 0.044206098 -0.016836219 -0.032297216
000380 17 66 25 3d ec 9d 42 3d d6 68 f2 bc 5d d4 b1 3c
       0.040380564 0.047513887 -0.029591005 0.021707708
000390 6f 63 7b bc 5a 43 d1 bb 19 b4 10 3d b7 12 57 bc
       -0.015343531 -0.0063862028 0.035328005 -0.013127021
0003a0 59 1e 1f 3d 2c 0e e9 bc 32 42 37 3b 18 be 23 3d
       0.0388473 -0.02844914 0.002796304 0.03997621
0003b0 e0 e9 4d 3d 50 ad 03 bc a0 a9 5f 3c e6 30 1d 3d
       0.05027187 -0.008036926 0.013651282 0.03837671
0003c0 bf 14 78 bc a6 4e 13 3b b0 3d f6 3c e3 cf 0b bd
       -0.015141665 0.0022477298 0.030058712 -0.034133803
0003d0 e6 75 9a bc c5 17 89 3a 51 7e e4 3c 3c 44 58 bd
       -0.018855046 0.0010459354 0.027892264 -0.05279945
0003e0 bc 47 a8 bc 54 62 db b8 3e cf 0b 3d b0 21 ba bc
       -0.020542018 -0.00010461049 0.03413319 -0.022721142
0003f0 52 19 41 3d 1d 7e 49 3c 2a cb 32 3d 36 4b 02 bd
       0.047143288 0.012298134 0.043650784 -0.031810008

dec_conv1.bias f4 [64]
000000 1b f9 91 3c 62 c9 36 3c 70 23 23 bd 1b 56 65 3d
       0.017818978 0.011156412 -0.039828718 0.05599032
000010 02 d5 a1 3a a1 06 25 3d 65 44 8b bd a5 0a 99 3b
       0.0012346806 0.040289525 -0.068001546 0.0046704584
000020 62 23 00 3c 8d 11 83 3d 12 41 b4 ba e6 66 51 ba
       0.007820936 0.06399832 -0.0013752303 -0.00079880503
000030 c3 e3 ff 3c 2a ab 8b bd 69 6a 0f 3d 3b 65 23 3d
       0.031236535 -0.06819756 0.03501359 0.039891463
000040 e8 03 2a 3d 59 26 6b 3a 21 b7 9f bc 0c 16 05 3c
       0.04150763 0.0008970253 -0.019496502 0.008122932
000050 0b b7 18 3d 52 e9 df 3c 41 34 03 3d 4d f7 6e 3c
       0.03728394 0.027332935 0.032032255 0.014585328
000060 92 ad 4f 3d a1 1d ab 3b 0f 7c 4b bc cb f8 b7 3c
       0.05070264 0.005222038 -0.012419715 0.0224575
000070 ef 2f 94 3d e7 59 ee bc c5 50 ab 3c 0a 70 1e bd
       0.07235705 -0.029095603 0.020912537 -0.038681068
000080 aa 89 06 bd a2 d8 a1 bc bc f2 2c bd 25 8f be bc
       -0.03284613 -0.019756619 -0.042223677 -0.023261616
000090 39 37 1d 3d 10 80 ce 3b 7e c3 c4 3c af af 47 bc
       0.038382743 0.0063018873 0.024019 -0.012187882
0000a0 eb c5 dd ba 93 26 1f bc 33 ff 75 bb 37 0c 94 3d
       -0.0016919946 -0.009713787 -0.0037536144 0.07228892
0000b0 6e 33 2f bd 79 50 0c 3c 9c b4 55 3d eb ec a4 bd
       -0.042773657 0.008564108 0.052174196 -0.08053001
0000c0 5f f8 08 3b d8 eb c3 3c 5b c0 0d 3d 9c 91 ae bc
       0.0020899994 0.02391617 0.034607273 -0.021309666
0000d0 ee a4 4d bd 6a 60 8b 3c e7 3c c9 3c 5c 69 61 3d
       -0.050206117 0.017013747 0.024565173 0.05503212
0000e0 4e c6 82 bc 26 fc ba 3c dc 7f 66 3d 88 15 28 bd
       -0.0159637 0.022825312 0.05627428 -0.04103616
0000f0 15 e5 9e bc dd d2 6c 3d 3f 8c 93 3d 46 b5 37 3d
       -0.019396344 0.057818282 0.07204484 0.04485061
