HW4/model_state_dict.pth (torch, 946135 bytes, 16 tensors)

enc_conv1.weight f4 [32, 3, 3, 3]
000000 1d 2b 40 be b3 ae 86 be 21 b1 73 3e 2a bc 1b be
       -0.18766446 -0.2630516 0.23798038 -0.15208498
000010 60 d5 56 be 52 a0 2b be e9 89 44 3d b5 61 c7 3d
       -0.20979834 -0.16760376 0.047983084 0.09735433
000020 02 0b 0a 3e 3c bc 0a 3e 3a 1c c3 3d ff 62 e6 3d
       0.13480762 0.13548368 0.09526868 0.11249351
000030 b6 57 53 be 70 88 22 be 0a f1 11 be 9e 44 81 bd
       -0.20638928 -0.1587236 -0.14252105 -0.06311916
000040 20 50 16 be ff 33 3c 3c 51 bc 48 3e 0a 9b 8d bd
       -0.14679003 0.011487006 0.19603087 -0.06914337
000050 65 5e b3 bc 31 8d 03 be 90 af 25 be e3 e7 dd 3d
       -0.021895597 -0.12846829 -0.16180253 0.108352445
000060 2a 1d 55 3d ae c4 0c 3e 76 52 4c 3e 3a 5b 57 3d
       0.052029766 0.13746902 0.19953331 0.052577235
000070 6c b6 9a 3b 2b 36 10 be fa d2 2d be c4 5f 1f 3e
       0.0047214534 -0.14083163 -0.16975012 0.15563875
000080 84 62 d9 bd 32 bf d3 bd a5 57 36 3e e3 f6 16 be
       -0.106144935 -0.10339202 0.17806871 -0.14742617
000090 f9 9b 3b 3e b7 55 12 be 76 76 08 be d4 fc 8f bd
       0.18321218 -0.1429051 -0.1332644 -0.07030645
0000a0 2c f3 8c bd bb 66 d7 3d 4d 13 a5 3d d8 05 5d 3d
       -0.06882319 0.10517641 0.08060322 0.05396065
0000b0 a3 5c 06 bd b4 e3 e1 bd f4 3f 08 3e af f4 c6 3d
       -0.03280319 -0.11029759 0.13305646 0.097146384
0000c0 f7 a8 28 bc 6f 83 2e be 0d a3 fe bd ff ee 35 3e
       -0.010294191 -0.17042325 -0.12433443 0.17766951
0000d0 9c d7 04 3e b2 5c 30 3e 95 56 3d 3d 9b 17 47 3e
       0.12972873 0.1722286 0.04622515 0.19442599
0000e0 c5 32 90 3d 18 5a 3d 3d 61 f6 b4 bd 23 23 7a bd
       0.070409335 0.0462285 -0.088360555 -0.061068665
0000f0 f6 28 49 3e ae 2a 07 be 3a d7 8b 3d f6 36 4a 3d
       0.19644532 -0.13199875 0.068281606 0.04936882
000100 bc b7 24 3e 95 15 4a 3d 29 88 cf 3d 09 cb 3a 3e
       0.16085714 0.04933699 0.10133392 0.18241514
000110 7a fb 16 bd 28 78 fb 3c d1 c5 86 3d 7b ae 23 bd
       -0.03686092 0.030696943 0.06580699 -0.03996132
000120 bf 07 d5 bd cf 8c 29 be a5 0f ad bd 8e 5c bf b9
       -0.10401868 -0.1655762 -0.084502496 -0.00036499318
000130 54 be ad 3d 89 a8 e8 bd 5d f8 e0 bd 0b 27 b6 bd
       0.08483568 -0.113602705 -0.109848715 -0.088941656
000140 95 55 24 be 66 13 93 bd ba f8 94 bd 3e 49 dc 3d
       -0.16048272 -0.07181434 -0.07274003 0.10756157
000150 7e 33 4a be f7 b2 e6 3c bd d4 c2 3d 94 52 da bd
       -0.19746205 0.028161509 0.09513233 -0.10660282
000160 1c 63 a7 3d 54 13 6f 3a bc 7d 1d 3e 0c ef d1 bd
       0.081732005 0.00091200066 0.15379995 -0.10250673
000170 07 5d 23 3e 76 a2 b0 bd 53 9f b0 3d e8 67 2f bd
       0.15953456 -0.08624737 0.08624139 -0.042823702
000180 c9 e6 db bc b0 02 4e bd 76 e1 cc 3b 85 e6 91 3d
       -0.026843445 -0.05029553 0.006252463 0.07124046
000190 74 1e 5d bd 20 17 1d 3e f3 75 6d 3d 19 03 b2 bd
       -0.05398412 0.15340853 0.057973813 -0.08691997
0001a0 7b 4f bc bd ad 4c a2 bd ef 06 93 bd d9 41 2d 3c
       -0.09194847 -0.07924781 -0.07179057 0.010574781
0001b0 89 1f c6 3b e0 b3 a3 bd 9e 88 f4 bd cb e5 69 3e
       0.0060462398 -0.07993293 -0.1194012 0.22841565
0001c0 f1 aa 20 3e 1c f6 d7 bd 10 f0 b8 bc fd cd 01 bd
       0.15690209 -0.105449885 -0.022575408 -0.031690586
0001d0 bc c7 09 be 42 9c 16 3e 3e 4c 60 bd 84 d2 9a bd
       -0.13455099 0.14708045 -0.05476021 -0.07559684
0001e0 f8 df 19 3e 3a 6b c2 3d 76 eb dc 3d e8 13 98 bd
       0.15026844 0.09493108 0.10787098 -0.07425672
0001f0 f0 bf f4 3c 46 4e fb bd f6 14 0f 3d b8 68 d4 bd
       0.02987668 -0.12270789 0.0349321 -0.10371536
000200 28 97 c5 3d b5 27 54 3e 85 c4 bc bc 94 23 34 3e
       0.096479714 0.20718272 -0.023042927 0.17591697
000210 f8 13 47 3d cf 9c 2c 3d 4d 1e 87 3c 6e 22 04 be
       0.048603028 0.04214173 0.01649394 -0.12903759
000220 1c e5 1c 3e c1 53 ba bd b3 c1 08 3e c9 90 99 bd
       0.15321773 -0.09098006 0.1335514 -0.07498319
000230 0a f4 d9 bd 4f 59 b6 bc 06 a3 77 3d 92 47 dd 3d
       -0.1064225 -0.022259383 0.060458206 0.108046666
000240 29 9e 0f 3e 1a a6 87 3d d4 16 55 bd e2 5d 7f 3c
       0.14025177 0.06623478 -0.052023724 0.015586348
000250 06 59 77 bc 4a 5e be bd 42 62 3a 3d c0 eb 1c bd
       -0.015096908 -0.09295328 0.045503862 -0.038310766
000260 3f 45 16 3e b7 2e 25 3e 8e cc 36 3d f7 94 98 3d
       0.14674853 0.16131102 0.044628672 0.07450288
000270 2c 53 37 3e f5 30 4b 3d 9a 62 d1 3d 30 b9 67 bd
       0.17902821 0.049607236 0.10223885 -0.056573093
000280 61 79 4e 3e 92 b2 cb 3d 4d a5 0d 3e 0b be 9f bc
       0.2016349 0.09946169 0.13832588 -0.0194998
000290 e1 b3 de bc d7 3a 50 3e 39 07 f6 bd ad 5e 80 bd
       -0.027185382 0.20334946 -0.12013096 -0.06268058
0002a0 06 17 a4 3d bd 2a 15 3e 5a 9c fb bb 16 8f 0b bc
       0.08012204 0.14567085 -0.0076785507 -0.008518001
0002b0 c9 76 07 be e7 f6 9e 3d 7e 09 7e bd 92 e2 3a 3e
       -0.13228907 0.07761937 -0.06202077 0.18250492
0002c0 58 3d 19 3d 07 a3 4f 3d e5 04 51 3e f6 3a e0 3d
       0.037412018 0.050692584 0.20412023 0.10948746
0002d0 a8 e5 05 3e 11 f8 cc 3d 7e fd 1b be 9f 67 30 bd
       0.13075888 0.100082524 -0.15233418 -0.04306757
0002e0 53 6c 17 be da 2c f0 bd 53 55 15 be ae 2d 75 3d
       -0.14787416 -0.11727305 -0.1458333 0.059858017
0002f0 8d dd b8 3d 70 0e af bd 82 a7 7d 3c 77 95 bb 3d
       0.090266325 -0.085476756 0.0154818315 0.091593675
000300 9b d8 d6 3d d6 77 03 bc 46 38 f9 bd 70 8c 17 be
       0.10490533 -0.008024177 -0.121689364 -0.14799666
000310 91 58 96 bb 3e ae 16 bd 45 0a 29 3e a9 a7 20 3e
       -0.0045881947 -0.036787264 0.16507824 0.15688957
000320 ac 9a 01 3e 38 05 1b be 0f 89 2d be af 0e c5 bd
       0.12656659 -0.1513871 -0.16946815 -0.09621941
000330 37 0f 44 3e a6 18 1d 3e f0 1c 03 be 16 c2 ee 3d
       0.19146429 0.15341434 -0.12804008 0.11658113
000340 c3 7b c8 bc 67 01 89 3d 43 e3 f8 3d 1e f8 13 be
       -0.024473077 0.066897206 0.12152722 -0.14450118
000350 1e 66 19 3e fd e8 dd 3d dc 7d d9 3d ab 56 a3 bb
       0.14980361 0.108354546 0.10619709 -0.004984697
000360 81 bd 1c be 9a 8c c0 bd 78 8b f8 3d 79 be db 3c
       -0.15306665 -0.094018176 0.121359766 0.026824223
000370 ab e3 89 3d d5 1e 1c 3e 0f ed 3f bd 13 bd 44 bd
       0.06732877 0.15246136 -0.046856936 -0.048031878
000380 f1 81 dd 3d a2 f6 13 3d 6a 9f ec 3d 32 8a d1 bd
       0.108158 0.03612388 0.11553843 -0.10231437
000390 ec 8d 63 3b 64 4b 15 3e 29 03 d9 bc 4e ca 0f be
       0.0034722043 0.1457954 -0.026490765 -0.14042017
0003a0 bd ef c0 3d 70 f1 84 3d 88 e0 0a bc 38 0f 4b be
       0.094207264 0.06491363 -0.008476384 -0.19830024
0003b0 6d ff b3 bd 14 cc f2 bd 59 74 38 be 23 be 38 3c
       -0.08788953 -0.11855331 -0.18013133 0.011275801
0003c0 ec 87 8e 3d b1 1f 93 3d 52 ec 86 3c 82 9f 2a be
       0.06959519 0.07183779 0.016470108 -0.1666241
0003d0 71 01 ef bc 70 7e 15 be cd 06 8c 3c c5 1e 14 be
       -0.029175492 -0.14599013 0.017093087 -0.14464863
0003e0 d8 84 67 3d eb ca 93 3d 9f b1 e7 3d 7e d9 5a bc
       0.056523174 0.07216438 0.113131754 -0.013357518
0003f0 d6 e5 1b 3e 88 50 fc bd fb ee fa 3d 9c ef e4 bb
       0.15224394 -0.123200476 0.12252613 -0.0069865715

enc_conv1.bias f4 [32]
000000 82 bb b2 3d 51 7f 70 3e 63 36 ac 3d 87 35 01 3e
       0.087271705 0.23486067 0.08408811 0.12618075
000010 33 1a d7 bd 75 0d 17 be 4f b3 b6 bc 07 32 d3 bc
       -0.10503044 -0.14751227 -0.022302298 -0.02578069
000020 3b f6 58 3e e4 57 1f 3d b3 d4 6a be 86 51 0c be
       0.2118768 0.03890218 -0.22932701 -0.13702974
000030 0f 92 aa 3d 50 f3 d5 bc fc 6a 2b 3e de d7 28 be
       0.0832864 -0.026116997 0.1674003 -0.16488597
000040 6c 73 28 bb 80 4a 00 bd 4a 0f 64 3e 68 2f 2a bb
       -0.0025703562 -0.03132105 0.22271457 -0.0025968198
000050 9d 1a 53 3e ec 9c 88 bc f5 e3 90 bb 53 0e ca 3d
       0.20615621 -0.016676389 -0.004421706 0.098660134
000060 28 63 d2 bd 89 63 e6 3d 3d 67 eb bb 9a 16 51 3e
       -0.10272819 0.112494536 -0.007183938 0.20418778
000070 08 cc 37 be ae 34 cd 3d be 2f 34 3e fe 49 00 be
       -0.17948925 0.100198135 0.17596337 -0.12528226

enc_conv2.weight f4 [64, 32, 3, 3]
000000 3e 1f 7d 3c fe 44 9c 3d 31 d9 93 3d 7e 1a 19 3d
       0.015449343 0.07630347 0.0721916 0.03737878
000010 1e 3d 36 3b 86 31 e2 bc de ca 00 bd 82 66 56 bd
       0.0027807425 -0.027611505 -0.03144347 -0.052343853
000020 8d 14 ae bc 60 39 2a 3d ae 6a 36 bd c8 03 60 3d
       -0.021250034 0.041558623 -0.04453533 0.054691106
000030 d3 15 02 bc da 8a 7a 3a d6 b3 91 3b c3 fa 6b 3c
       -0.007939774 0.00095574337 0.004446487 0.014403048
000040 18 98 fc bc a6 ac f0 bc 30 7a a8 3b bd 6f af bc
       -0.030834243 -0.0293792 0.005141519 -0.021415586
000050 d1 1e 5f 3c 12 93 b6 3c ed fe 47 3c c9 04 37 3d
       0.013618187 0.022286925 0.012206775 0.044682298
000060 23 f9 26 3d c7 cf 31 bc 7a 0d 58 3c 85 fc 75 3d
       0.04076494 -0.010852761 0.013186807 0.060055275
000070 0e 3c 2f bd cb f6 eb 3c 9c 3e 32 bd 22 58 4a 3d
       -0.042781882 0.028804203 -0.04351674 0.049400456
000080 49 57 80 bd 81 6d 82 bc 57 ba 63 3c 3c db 84 3d
       -0.06266648 -0.015921356 0.013899407 0.06487128
000090 bc c7 8c 3c c1 bd 87 3d 7c 8c 9a 3d a6 ff 7b bc
       0.017185085 0.066279896 0.075463265 -0.015380776
0000a0 3b 23 45 bd f6 9d 70 3d 4b 14 ba 3c 7c f9 51 3c
       -0.0481293 0.058744393 0.022714755 0.012815829
0000b0 48 38 49 bd 55 fe 0e 3d 00 52 16 bb 14 bb 37 bd
       -0.04912594 0.03491052 -0.002293706 -0.044856146
0000c0 92 6b 8a 3d 51 90 85 3d 98 ea 0c 3d eb ad 37 3d
       0.06758799 0.06521667 0.034403414 0.044843595
0000d0 8f 68 57 3d 25 63 22 bd da 21 0b 3d 3f e7 53 3d
       0.05258995 -0.039645333 0.03396783 0.051734205
0000e0 c9 39 77 3d 7a fe 69 3d 7e 8e 6a 3d 5e 76 43 3c
       0.060357843 0.057127453 0.057264797 0.011930076
0000f0 2b 5f 1a 3d eb 2e a3 bc ae 5a 7e 3c 72 b9 ae bc
       0.037688415 -0.019919833 0.015524549 -0.021328662
000100 6a 3f 56 bd b1 d9 cc 3a d5 e8 29 bd 10 b9 d1 3c
       -0.05230657 0.0015628842 -0.04148181 0.02560094
000110 0d 8c 78 3d d5 dd 54 3d 93 db d3 3b dd 77 98 3c
       0.060680438 0.051969368 0.0064653843 0.018611843
000120 2f 46 e6 ba 6b 97 1b bd 19 98 b3 3c 00 d9 b2 3b
       -0.0017568524 -0.0379862 0.021923112 0.0054579973
000130 c9 80 34 bd 30 21 53 bd 1c 54 33 3d a4 56 70 bd
       -0.04406813 -0.051545322 0.043781385 -0.058676377
000140 96 9c a7 bc 1f 65 b4 3c 63 2d fb bc 32 0f 40 3d
       -0.020460408 0.022020875 -0.03066129 0.04688949
000150 4e 6a 75 bb ee 9c 96 bd 0c 80 a5 bd 0f 47 03 bc
       -0.0037447396 -0.07354151 -0.08081064 -0.008012547
000160 5b a0 b4 bd f5 0d 56 bd 04 35 d3 3d cd a0 a7 3d
       -0.08819648 -0.052259404 0.10312846 0.08184967
000170 50 14 8b 3c d9 c4 22 3d 57 c1 ce 3c cc 3b 18 3d
       0.01697746 0.03973851 0.025238676 0.0371664
000180 69 4c 69 3b ef 79 92 bc 31 7c 7c bd c0 fd aa bc
       0.0035598523 -0.017880408 -0.061641876 -0.02087295
000190 08 e2 91 bd 43 d6 c6 bc 65 a5 06 bd db d6 4d 3d
       -0.0712319 -0.02427209 -0.032872576 0.05025373
0001a0 3a 1a 86 3c 33 13 24 bd 9b 78 f3 3c fa 28 3c 3d
       0.016369928 -0.040057372 0.029720595 0.045937516
0001b0 31 77 44 3d cd 07 08 3d d3 d3 41 3c 9d 66 70 3d
       0.047965232 0.033210564 0.011830288 0.05869161
0001c0 3e 94 29 3d f8 2b 3c bd b3 c9 7d 3d 9f 3e 39 3c
       0.04140114 -0.04594037 0.061959933 0.011306434
0001d0 ae e6 7e bd c1 6d 90 bd 0f 27 f8 bc ab 6b ab ba
       -0.062231712 -0.07052184 -0.030292062 -0.0013078352
0001e0 ac ff 9c bd dc 25 85 bd 64 29 8b bd da 49 42 bd
       -0.07665953 -0.06501362 -0.06795004 -0.04743371
0001f0 7f ea 59 bd c5 bd 4b bd d2 33 50 bb 63 97 dc 3c
       -0.05320215 -0.049741525 -0.0031769169 0.026927656
000200 e6 6e 15 3c f8 8a 3d 3d e3 a9 07 bd 07 96 c8 3b
       0.0091206785 0.04627511 -0.033121 0.0061214003
000210 f4 cb 7e bc 11 76 bd 3b 16 7d 1b bd ee 01 44 3d
       -0.015551556 0.005781897 -0.037961088 0.047853403
000220 70 5f 42 3d 58 49 69 3d 1c 9e 97 bb a8 35 65 bb
       0.047454298 0.05695471 -0.0046270024 -0.0034974609
000230 bb 5d f1 3c 08 6b b0 3c 10 f5 27 3d bc be 20 bd
       0.02946364 0.021535411 0.041005194 -0.0392444
000240 72 28 6c 3d 1b a4 fe bc 07 bf b3 3c 28 9d 19 3d
       0.05765576 -0.031084111 0.021941675 0.03750339
000250 8d bb b4 bc e2 a2 2d bd 79 ef 44 bd a6 9c a1 3b
       -0.022062087 -0.042391665 -0.04807994 0.004932004
000260 13 4f 42 bd c5 e4 5e 3d e1 91 91 3d f3 6f a8 bc
       -0.047438692 0.05441739 0.07107902 -0.020561194
000270 07 57 73 3d 94 29 85 3d 97 fc 15 bd 42 2d 73 3c
       0.059409168 0.06502071 -0.03661784 0.014842333
000280 56 85 81 3d a4 60 07 3d b3 e3 7b 3c 97 25 df 3c
       0.0632426 0.033051148 0.015374112 0.027239604
000290 7c 5d 8d bd ea 49 28 bd 3c 94 39 bd 68 f5 1c 3d
       -0.06902596 -0.041086115 -0.045307383 0.038319975
0002a0 02 87 be 3c 80 a5 19 3b 47 ed 7e bd 34 2c 10 3b
       0.023257736 0.0023444593 -0.062238004 0.0021999003
0002b0 c4 27 24 bd ec 23 78 3c b3 57 cd 3b 39 4f e1 bc
       -0.040076986 0.015145283 0.006266558 -0.027503597
0002c0 88 a5 e0 bc 3e 78 46 3d 06 72 1d 3c 41 4c e4 bc
       -0.027422681 0.048454516 0.009609705 -0.027868392
0002d0 aa e0 06 3d b3 8c 07 3d 65 d1 e5 3c df 55 35 bc
       0.0329291 0.033093166 0.028053949 -0.011067837
0002e0 68 6e 07 3d 77 ca 71 bc 63 2b 50 3d df 88 e7 3c
       0.033064276 -0.014757744 0.050822627 0.028263507
0002f0 56 6b f1 bc 8d 43 ee bc 56 1e fb bc 23 30 ef 3c
       -0.029470127 -0.029084945 -0.030654114 0.029197758
000300 4a 86 7d bd 6d 34 9d 3c 73 d3 02 3d 30 6b 94 bc
       -0.061895646 0.019190038 0.031939935 -0.018117517
000310 84 c2 b6 bc ca a9 99 bd 07 88 c2 bd 83 64 8c bd
       -0.02230955 -0.07503088 -0.094986014 -0.068551086
000320 37 45 1e bd 6d 9e 2b 3d a7 dd 21 bd 41 79 53 bd
       -0.038640227 0.041899133 -0.039518025 -0.05162931
000330 13 af 20 bb 3f d0 cc bc 64 bc 8a 3d a5 ce 28 3c
       -0.0024518415 -0.025001643 0.06774214 0.010303174
000340 49 81 1d bd 2e 51 2a bd f3 c2 18 3d 07 5d 98 3d
       -0.038453374 -0.041581325 0.037295293 0.074396186
000350 65 0b 58 3d 60 e8 38 3c 51 3d 23 3d 78 fc e5 bc
       0.05274524 0.011285871 0.039853398 -0.028074488
000360 bc 2f 36 3d 92 c9 61 3d 05 a4 e1 3c d5 f8 dc 3c
       0.044479117 0.055123873 0.02754403 0.026974121
000370 a0 4e f3 bb 3d 15 c1 3c 0f 4c 83 3d 2a a8 7f b8
       -0.0074251443 0.023569698 0.064109914 -6.0953353e-05
000380 54 a1 42 3c 26 24 19 3c b3 72 7b bd 15 9c 11 bd
       0.011879284 0.009346997 -0.061388683 -0.035549242
000390 1d 59 01 bd 19 2f ce bc 11 a3 2c bd e3 ae f9 3b
       -0.031579126 -0.025168942 -0.0421477 0.007619725
0003a0 67 a8 bb 3d 54 58 15 bd 5b c5 5c 3d 8c 4e 13 3d
       0.091629796 -0.03646119 0.05389915 0.03596358
0003b0 78 f3 65 3b 0a aa 37 bc fd ea 89 3d 9c ee ef 3c
       0.0035087746 -0.011209974 0.067342736 0.029288583
0003c0 29 fb 73 3d 4f db 1e bd 1a 3e 9d 3a 92 a6 8e bd
       0.059565697 -0.038783368 0.0011996657 -0.069653645
0003d0 0b 9d 85 bd 8e ba 50 bd f1 9a 87 3c e8 57 42 3d
       -0.06524094 -0.050959162 0.016553374 0.047447115
0003e0 df 78 62 bd a2 a3 ad bc 8f 63 53 3d 63 a6 e0 3b
       -0.055291053 -0.02119619 0.05160862 0.0068557723
0003f0 49 45 b0 ba 3b a0 f2 bc 2b c9 bc bc 10 15 74 3d
       -0.0013448383 -0.02961742 -0.023045143 0.0595904

enc_conv2.bias f4 [64]
000000 39 47 88 bd bf a1 8c 3d 96 13 05 3d 73 c1 0b 3d
       -0.0665421 0.06866788 0.03248938 0.034120034
000010 50 79 d5 bc 82 36 9c bc 03 e4 12 bd 3e 5f 03 3d
       -0.026058823 -0.01906896 -0.03586198 0.032073252
000020 19 36 59 3d 41 95 b8 bc ad 3e 93 3d 1c c9 b5 bc
       0.053030107 -0.022532107 0.07189689 -0.022190623
000030 84 d7 b9 bd 74 fb a5 3c e4 8d f1 3c 88 66 9f 3d
       -0.090743095 0.020261504 0.029486604 0.07783228
000040 c3 bc b1 bc 30 d1 98 3d 7d 74 fe 3b a9 8e 11 3d
       -0.021696454 0.07461774 0.0077653513 0.035536442
000050 07 cf 89 bb cf 3c 69 bc 54 c6 ed bc 23 4c e0 bb
       -0.004205588 -0.014235689 -0.029025234 -0.0068450137
000060 9b 61 4f 3e e5 a8 a2 3d eb 1a 96 bb aa 92 e7 bc
       0.20252077 0.0794237 -0.0045808456 -0.028268177
000070 90 47 3f 3d 72 83 96 3d 3b 2b 39 bc c3 03 37 bd
       0.046699107 0.0734929 -0.011301811 -0.04468132
000080 92 69 a8 3d f2 e8 bd 3d 94 94 d1 bc e5 aa 98 3c
       0.08223261 0.092729464 -0.025583543 0.018636176
000090 1f 2e 3c 3d ab 53 80 3d 3d a7 b0 bc f7 1b 10 bd
       0.045942422 0.062659584 -0.02156412 -0.03518292
0000a0 9e 70 16 3d b5 38 e2 bc c9 a6 76 3d 34 a8 13 bd
       0.036728494 -0.02761493 0.060217652 -0.036049083
0000b0 97 8e 83 bb 91 f6 6b 3b d3 65 c9 bb 6b df 3e bd
       -0.004014801 0.003600512 -0.0061461716 -0.046599787
0000c0 60 9c cd bc f9 43 a8 3d eb 0e 89 3d bc bf 06 3d
       -0.02509898 0.0821609 0.066922985 0.032897696
0000d0 bd b7 88 3d 90 36 c5 bc 67 a1 63 3d 82 85 38 3d
       0.0667567 -0.024073869 0.055573847 0.045049198
0000e0 44 ac 69 bd 41 1a 40 bd 3a 3b 83 3d 07 11 8a 3d
       -0.05704905 -0.046900038 0.06407781 0.06741529
0000f0 94 09 01 bd 3c 7e 41 3d 0d c9 8d bd 06 6b 9a 3d
       -0.031503275 0.047239527 -0.06923113 0.07539944

enc_conv3.weight f4 [128, 64, 3, 3]
000000 2a de 38 bb 18 a5 9c bd ad 5d 11 3d c0 aa 31 bd
       -0.0028208592 -0.07648677 0.035489727 -0.04337573
000010 fc d4 da 3c ac 3d be bc 8c 3a be 3c 0e 86 29 3d
       0.026712887 -0.023222767 0.023221277 0.04138761
000020 8a 76 13 bd 46 73 4a 3d 8c 1f 2f bb 92 c7 bf bc
       -0.03600172 0.04942634 -0.0026721684 -0.023410592
000030 fb f7 73 3a 84 88 7f 3c 2d b9 b5 3b 7c d9 36 bd
       0.00093066663 0.015596513 0.0055457563 -0.044641003
000040 d7 d3 ac 3c 7d 82 e3 bc 01 30 1e bd e9 31 d0 bc
       0.021097107 -0.027772183 -0.03862 -0.025414424
000050 f8 c3 c1 3a a7 bf 4f bd 41 48 18 3d 39 f6 d7 39
       0.0014783135 -0.050719883 0.03717828 0.00041191446
000060 53 98 9f 3c 8b 7f 89 3c 3d 2d 87 bc a5 9d a3 ba
       0.019481814 0.01678445 -0.016501063 -0.0012482895
000070 5a 6a 47 bc bd 2e 35 3b b9 b8 e0 bc 3b 12 7d 3c
       -0.012171352 0.0027646266 -0.027431833 0.015446241
000080 ca df 14 3d 81 cc da bc dc 64 eb 3a 5c 93 c8 bc
       0.036346234 -0.026708843 0.0017959136 -0.024484329
000090 e2 d1 4f 3c 4a d9 2b bd f7 7b c4 3a bf fe d8 3c
       0.012684317 -0.04195527 0.0014990558 0.02648866
0000a0 f7 33 5c 3b 06 9c aa 3c c3 f6 84 3d 07 c5 27 3c
       0.003360031 0.02082635 0.064923786 0.010239846
0000b0 08 93 04 3c a3 11 b9 3b e5 cc 52 3d 91 e6 16 3d
       0.008091696 0.0056478544 0.051464934 0.03684098
0000c0 a4 b7 fe 3c 42 d1 9e 3d fe 61 28 3c 33 3a e4 3b
       0.031093426 0.077547565 0.010277269 0.0069649457
0000d0 ba 64 0a 3d ef 45 0b bd 6f 9c 38 3d e6 bc d6 bb
       0.033787467 -0.03400224 0.04507106 -0.00655328
0000e0 65 ba ee 3b 61 fd 05 bd 9f 2d ae bc ed 14 b6 3c
       0.0072854036 -0.032712344 -0.021261988 0.022226775
0000f0 4b be 3a 3b 46 1f f1 bb 43 26 5f 3b b4 4f 46 bd
       0.002849477 -0.0073584644 0.0034049905 -0.048415855
000100 9b 59 92 3c 33 60 8a 3c 86 1d 01 bd 34 a9 8e 3d
       0.017864993 0.016891574 -0.031522296 0.06965867
000110 cb 8f 69 3c 05 53 e3 3c 6d e5 0a 3d a5 9b 95 3c
       0.014255474 0.027749548 0.033910204 0.018262694
000120 df 8b 24 be 0d 79 00 3e 50 41 66 bd d3 20 a9 bd
       -0.16068982 0.12546177 -0.05621463 -0.08258214
000130 67 4d 00 3c 4b 7b 38 3d 74 1d 94 3d 24 2e 14 3c
       0.007830954 0.045039456 0.0723218 0.009044204
000140 69 44 64 3d 88 1a 6b bc 12 16 88 bd 80 cd 6d 3c
       0.055729304 -0.014349587 -0.066448346 0.014514327
000150 44 ad d8 3c 8b ba a8 3c f6 16 9f bc 30 ba 83 3b
       0.026449807 0.020596763 -0.019420128 0.004019998
000160 fa 23 39 bb ab 41 94 bc cd 4b dd 3d 6a fa e2 3c
       -0.0028250203 -0.01809772 0.108054735 0.027707297
000170 57 31 e1 3c 07 76 65 3d 45 1b 17 3d 62 01 06 3d
       0.027489347 0.056020763 0.03689124 0.032716163
000180 24 14 39 bc 8f ab 9d bb cb e6 e5 bc 8c 53 ec 3b
       -0.011296306 -0.004811711 -0.028064152 0.007212108
000190 08 2b 01 be 9d 40 bc 3c 25 e0 54 3d ee df b6 3c
       -0.12614071 0.022980029 0.051971573 0.022323575
0001a0 f4 7a 91 bc a5 14 ae 3c c1 93 8c 3c 0e 1f eb 3c
       -0.017758824 0.021250078 0.017160298 0.028701331
0001b0 d5 13 f7 3d 18 07 dc bd e3 c5 3f 3d 8d 0f 73 bd
       0.120643295 -0.107435405 0.04681958 -0.059341002
0001c0 90 73 36 bc e4 8b 84 bd ae 1b e9 3c 42 ee 98 bd
       -0.011135951 -0.064719945 0.028455582 -0.07467319
0001d0 60 b3 99 3d fc 4e fe bc 03 54 12 3d c6 ca fe bc
       0.07504916 -0.031043522 0.03572465 -0.03110255
0001e0 9e 86 1f 3d 2f 77 b7 3c fd d4 39 bd 58 17 b6 3c
       0.03894674 0.022395698 -0.045369137 0.022227928
0001f0 2b 8d 7c 3c b4 de 97 bc a0 af 94 3c 5f 69 23 3d
       0.015414516 -0.01853881 0.01815015 0.03989541
000200 3f 62 e8 3c 55 33 2d bc 46 ea 99 3b fe 5d c7 3b
       0.02836716 -0.010571321 0.004697117 0.006084203
000210 5e 87 a8 bc f5 42 28 bb 40 20 42 bd f6 b5 d0 3a
       -0.02057236 -0.0025674675 -0.047394037 0.0015923369
000220 26 21 65 bc e3 f8 19 3c e9 ae b8 3c cb ec 38 3d
       -0.013984954 0.009397718 0.022544341 0.0451477
000230 74 91 f3 3c 80 65 56 bc 51 3e 89 bc d2 ca 75 bc
       0.029732443 -0.013085723 -0.016753348 -0.015001969
000240 f4 7d 14 3d 61 1d 01 3d 0e d5 00 3c c0 2b 25 bd
       0.03625293 0.03152216 0.007863296 -0.040324926
000250 7b 08 db bc 3c e7 40 3c 23 fd ac 3a a9 25 26 3c
       -0.026737442 0.011773881 0.0013197999 0.010140815
000260 24 fb c8 3c e0 45 4f 3d 21 03 89 3d 11 e7 40 bc
       0.024533816 0.050603747 0.0669005 -0.0117738405
000270 cd 5f 27 bc 1e 43 d5 bc 2a b1 03 bd cd 6e 18 bd
       -0.010215712 -0.02603298 -0.03215138 -0.037215043
000280 ee 7c 00 3c 62 57 1a 3d ec 59 7c 3b f0 16 bc 3b
       0.007842286 0.03768099 0.0038505746 0.005740039
000290 30 3b be ba 1e ec be bc b3 38 c7 bc 5b de fd bc
       -0.0014513489 -0.023305949 -0.024319028 -0.030989816
0002a0 8a 54 a5 3c 97 3f 09 3c f8 2a 17 bd 46 fc db 3c
       0.020181913 0.008376977 -0.036906213 0.026853692
0002b0 29 79 23 3d 1c e4 82 3d 9d 77 90 bb 2c 25 12 bd
       0.03991047 0.06391165 -0.0044087903 -0.03567998
0002c0 2c 48 5f 3d 1d 17 93 bb ea c3 29 3d fe b6 74 bd
       0.054512188 -0.0044888393 0.041446604 -0.059744827
0002d0 70 17 8f bc 6f 38 92 3b e1 06 19 3d 5a c5 a1 3d
       -0.01746723 0.004462294 0.037360076 0.0789897
0002e0 d2 7f a2 bd 35 cd 8f 3b b2 18 7b 3c cc 19 a0 3b
       -0.07934536 0.0043884763 0.015325712 0.0048858877
0002f0 bb 50 0a 3c da d5 bb bc 62 51 6e bd 67 70 74 bd
       0.008442099 -0.02292912 -0.05818308 -0.059677508
000300 b1 3b ad bd 5a 52 68 bc a4 87 9e 3b 27 6f 83 bd
       -0.08458651 -0.01417979 0.004837947 -0.06417685
000310 70 d5 c7 b9 70 f3 87 bc a5 cd 92 bc f5 7f 7a 3d
       -0.0003811526 -0.016595572 -0.017920325 0.061157186
000320 60 21 49 bc 47 16 82 3d cf b4 18 be 8e ed c8 bc
       -0.012276024 0.06351905 -0.14912723 -0.024527337
000330 09 e0 20 3d 5e 36 02 bc 64 a4 73 bc b0 77 af bc
       0.039276157 -0.007947532 -0.014870737 -0.021419376
000340 20 a7 2b 3c 0a 04 70 bb ec 4c f7 3c c0 97 8b 3d
       0.010476857 -0.0036623501 0.030188046 0.068160534
000350 8c d9 f2 bc 80 92 03 bd 89 4c af 3c ae d1 8c ba
       -0.02964475 -0.032122135 0.0213988 -0.0010743642
000360 d1 76 39 be 73 94 86 3d 22 aa bc 3d a9 4d 32 be
       -0.18111731 0.06571283 0.09212138 -0.17412437
000370 b1 42 eb 3d 96 da a4 3d 6e d6 b5 3a a6 dd 26 3e
       0.1148733 0.080495045 0.0013873109 0.1629549
000380 4a b5 00 bf 75 65 96 3c e2 c0 9a bc 0e 02 62 bd
       -0.50276625 0.018358925 -0.018890802 -0.05517774
000390 07 a5 e8 3c 4e 97 47 3d 8d 69 f1 3c 65 41 70 3c
       0.028399004 0.04872828 0.029469276 0.014664029
0003a0 28 1d 3f bc 8a d7 0a 3d 40 c1 5c 3d ba c2 85 bd
       -0.011664666 0.03389696 0.053895235 -0.06531282
0003b0 64 28 85 3d f8 91 c1 3c 42 49 61 bd aa 56 ad bc
       0.065018445 0.023629174 -0.055001505 -0.021159489
0003c0 86 f7 83 3c c7 54 91 3c 80 b7 35 3c 56 44 8c 3d
       0.01610924 0.01774062 0.011091113 0.068489715
0003d0 07 88 8a bd f5 8f 23 3d 3e f3 4d 3c 81 99 47 3d
       -0.067642264 0.03993221 0.0125702005 0.048730377
0003e0 86 a8 1b bd b6 ed fc bb 2a 65 e7 3a 88 10 5f 3c
       -0.038002513 -0.007718767 0.0017654051 0.013614781
0003f0 02 93 dd bd 0a c1 f7 3c 76 e8 de 3d ea fc 14 3e
       -0.10819055 0.030243415 0.10884182 0.14549604

enc_conv3.bias f4 [128]
000000 cd ce 26 3d 8f 00 2c bd 0a 8c 13 3d 1e da 3e 3d
       0.040724564 -0.04199272 0.036022224 0.04659473
000010 09 86 6b 3c a3 75 0c 3d dd 0c dd bc e5 f5 35 bd
       0.014375218 0.034291875 -0.026983673 -0.044423956
000020 9e 07 0f bb 5e 85 45 3c 4c 89 a1 3d 4c cd 42 3d
       -0.0021824609 0.012055723 0.078875154 0.047559068
000030 cd 6b 33 3c 03 d2 aa 3d 45 18 9f 3d 41 9a 65 3d
       0.010950995 0.08340838 0.07768301 0.05605531
000040 a5 e7 8b 3d 88 7d b8 3d 8d 38 09 3d 27 b5 b5 38
       0.06831292 0.09008318 0.033501197 8.664495e-05
000050 25 8a 4f 3d 7a 9f 45 3d af 7f e2 3b 95 7a 09 3d
       0.050668854 0.04824779 0.0069121937 0.03356417
000060 4d fa 38 bc db 8b da 3c 79 2d 3e 3d ea 89 27 bb
       -0.011290145 0.026678016 0.046430085 -0.002556438
000070 cd c0 b3 3d fb 0a 44 bc e1 48 84 3c 01 e1 41 3d
       0.08777008 -0.011965509 0.016148033 0.04733372
000080 be 6e 50 bc b1 d8 73 3c 88 0f b4 3c a4 90 13 bd
       -0.0127217155 0.014883206 0.021980062 -0.036026612
000090 d3 3c 00 bd 4d 40 1f 3d 4c 5d 18 3d ca d8 36 3c
       -0.031308006 0.03887968 0.03719835 0.011160085
0000a0 10 3d a8 bc df 7c af 3d bc 98 38 ba 58 44 bd 3c
       -0.02053693 0.08568739 -0.0007041802 0.023103878
0000b0 cd 56 a2 3c 50 4b 97 3d 15 63 bc 3b 0a 1b 9f 3b
       0.01981678 0.073874116 0.005749116 0.004855518
0000c0 76 82 09 bd 47 58 66 3d 30 88 2e 3d 17 12 2d 3d
       -0.033571683 0.05623653 0.042610347 0.04225358
0000d0 1d e2 48 3d 75 df 36 3c 83 2f 31 bd 09 19 a9 bc
       0.049043763 0.011161675 -0.0432582 -0.02064182
0000e0 fd c3 d0 3d d4 8e 37 bc 9e fd 70 3c 36 0d 10 3d
       0.10193632 -0.0112034865 0.014708905 0.03516885
0000f0 48 ae d4 bc ed 73 99 bd 0f 43 2d 3d 39 bc 2f 3d
       -0.02596201 -0.07492814 0.04230028 0.042904112
000100 a5 3f 19 3d 55 b7 74 3d 07 13 6f 3c f4 a2 8b 3c
       0.03741421 0.05974515 0.014591939 0.017045476
000110 7c ed 91 3d 8f a1 a4 bc ab 88 8d 3d e9 53 9e bc
       0.07125375 -0.020096568 0.06910833 -0.01932712
000120 6c 34 89 bc c6 b0 74 3c 5a 42 79 3b ed a9 82 3d
       -0.01674863 0.014934724 0.0038033933 0.06380067
000130 31 cf a3 bc ef f9 e8 bc d7 ea ca bc c5 08 7d bc
       -0.019996257 -0.02843949 -0.024770183 -0.015443985
000140 e2 27 7f 3d e4 da 49 3a 02 58 08 3d e3 b2 f2 3c
       0.062293895 0.0007700159 0.033287056 0.029626315
000150 e8 49 5a 3d 91 af 4c 3d fb b3 6b bc 12 50 2e bd
       0.05329314 0.04997212 -0.014386172 -0.04255683
000160 92 3c 5b 3b e4 52 5c 3d d3 27 8f 3d 18 f4 f7 3c
       0.003345285 0.05378999 0.06990018 0.03026776
000170 9c f9 83 3d ea 33 8b ba 14 a1 70 3d 8c d7 ff bc
       0.064440936 -0.001062033 0.058747366 -0.03123071
000180 96 23 08 3d 2f ff d9 3b 8d 39 1a 3d 07 01 4f 3d
       0.033237062 0.0066527347 0.03765254 0.05053809
000190 4e b8 9b 3d 55 e8 ad 3c 7d 5a 5c 3d 3b f4 b8 3c
       0.07603513 0.021228949 0.053797234 0.022577396
0001a0 af b1 07 3d c0 ed 0d 3d 38 62 84 3d c1 00 21 3d
       0.033128437 0.034650564 0.06464046 0.03930736
0001b0 c7 46 9d 3d 28 e0 3e 3d 06 31 7e bc 56 95 94 3d
       0.07679515 0.04660049 -0.015514618 0.07255046
0001c0 d7 23 b4 bb ed 20 a5 3d 94 fd 5c bd 62 49 90 3d
       -0.0054974365 0.08062921 -0.05395277 0.07045247
0001d0 7c 48 eb 3b 11 81 48 bc 44 17 f9 bc 23 7c 8b 3d
       0.0071802717 -0.012237803 -0.030406602 0.068107866
0001e0 9d f2 fb 3c 8f c9 10 bc 9f a8 a6 3d b5 a5 9e 3d
       0.030755335 -0.008837118 0.08137631 0.0774645
0001f0 bb 55 79 3d 2d 24 28 bc aa 5b 89 bc 51 a9 9a 3d
       0.060872775 -0.010262531 -0.016767342 0.07551826

dec_convtrans1.weight f4 [128, 64, 3, 3]
000000 76 7d a7 3c c7 6d 05 3d 71 2d 36 ba 9a 21 8a bd
       0.020445567 0.032575395 -0.00069495203 -0.0674469
000010 50 3a 0f bd 84 90 11 3d 4c f0 1e 3c 9a fc 8c bb
       -0.03496772 0.03553821 0.009700846 -0.0043025734
000020 29 0c ae 3c 3f c1 e3 3b 51 bb d5 bc 50 68 3b 3d
       0.021246033 0.006950527 -0.026090296 0.045753777
000030 1a f7 c6 bc 7d b8 a3 bc 1d 7f bb bc 1d c2 49 bc
       -0.02428775 -0.019985432 -0.02288776 -0.012314347
000040 82 ae 7b 3c f5 e2 93 bc 67 8d 89 bc c1 b2 be bd
       0.01536143 -0.018052557 -0.016791059 -0.09311438
000050 27 b0 2d bc 4f 41 50 3d 99 1f 43 bd 14 1d 64 bd
       -0.01060108 0.050843533 -0.047637556 -0.055691794
000060 80 7d 96 3d 9b e0 8d bc 41 6d 80 bc f0 9a b9 bc
       0.07348156 -0.017319014 -0.015677096 -0.022656888
000070 8e 71 1f 3c 10 b8 94 bb d4 e9 05 bb a7 80 93 3c
       0.009731663 -0.0045385435 -0.0020433562 0.018005682
000080 01 9d 6c 3b f9 00 bd 3c e3 a5 1e 3d 8a 2f 80 3c
       0.0036104324 0.023071753 0.03873242 0.015647668
000090 38 ba 07 bc ae 78 33 bc 48 27 dd 3c 56 7c 07 bd
       -0.008284144 -0.010954065 0.02699627 -0.03307756
0000a0 97 6e 8f 3b 13 4f d9 bc 5d 3d 11 bd 48 e8 45 bc
       0.004377197 -0.026526963 -0.03545891 -0.012079306
0000b0 8f 17 21 3d 35 46 e5 3c e1 b6 eb bb 3d 80 2b bd
       0.039329108 0.027987579 -0.0071934317 -0.041870344
0000c0 ff 27 54 bc a7 a7 40 bd f6 b4 11 3a 9d 16 d0 3c
       -0.012948989 -0.047034886 0.00055582763 0.025401408
0000d0 d3 1d be 3c a9 5c 29 3c 86 f5 71 bd b5 00 84 3d
       0.02320758 0.010337033 -0.05907204 0.06445447
0000e0 d9 41 3b bc a5 6f e7 bc 2e 32 45 ba f1 5a cf bc
       -0.0114292735 -0.028251478 -0.0007522431 -0.025311919
0000f0 b0 06 7c 3b 2c b7 ed bc df 76 77 bd 1e f2 73 3b
       0.0038456134 -0.029018007 -0.0604161 0.003722317
000100 98 11 e1 bc c6 12 57 bd ec 5d 4e bd 18 05 4e 3d
       -0.02747421 -0.052508138 -0.05038254 0.050297827
000110 22 f6 34 3c 70 61 0f 3d fc 2a e3 bc 49 6e 70 bd
       0.011045011 0.035005033 -0.027730457 -0.058698926
000120 cc bc db bc 6a b2 e8 3c dd 40 4c bc 32 62 32 bd
       -0.026823424 0.028405387 -0.0124666365 -0.043550678
000130 92 bc bb bc da b5 aa 3c ad 16 bc bc 8c 6f 27 bc
       -0.022917066 0.020838667 -0.022960031 -0.010219466
000140 d2 3f 3f bd 36 4c cb bd a9 66 27 3d fb 41 2b bd
       -0.046691723 -0.099266455 0.04086939 -0.04181097
000150 e7 9d e2 bc 21 63 d9 bc 6f 76 d8 3d 9d b5 cc bc
       -0.027663184 -0.026536526 0.105694644 -0.024988944
000160 7c 92 f5 bc b8 59 8e 3b 77 a2 e4 bd 58 76 f7 3c
       -0.029977076 0.0043441914 -0.111638 0.030207798
000170 0d 87 d0 bd 53 62 2b bc 80 f6 cd 3d d8 6e 40 bd
       -0.10182009 -0.010460454 0.10056782 -0.04698071
000180 07 16 26 3d 2f 49 8b bb 93 14 70 3d 89 77 1e bd
       0.04054835 -0.0042506675 0.05861337 -0.038688216
000190 dc 98 38 3c 82 1b 9c 3d c6 cc 83 bd a9 4c 62 3c
       0.011266913 0.07622434 -0.06435542 0.0138122225
0001a0 3b 87 ea bd 3a a3 c8 3c 02 d9 db 3d 4d 7f e3 3c
       -0.114515744 0.024491895 0.1073475 0.027770663
0001b0 0b 90 9e bd 84 7b 85 3c 7d e4 28 3d f1 16 63 3d
       -0.07742318 0.016294248 0.04123353 0.0554418
0001c0 23 0f 0a 3e 68 56 09 bd d5 a2 50 3d 11 c6 2e bd
       0.13482337 -0.03352967 0.05093654 -0.04266936
0001d0 fc 1b a4 bc ba dc 7a bd 2e df b2 3d 54 95 2c be
       -0.020032875 -0.061245658 0.087339744 -0.16853839
0001e0 88 28 ca 3d c3 75 8c bc f1 31 00 bd c2 ef 6e bc
       0.09871012 -0.017145997 -0.031297628 -0.01458353
0001f0 c7 a9 c5 bb 17 98 bc bd 0d 7c 0e bd d9 82 6c bd
       -0.006032202 -0.09208696 -0.034786273 -0.057741974
000200 e5 fc 3b 3d 12 1f 30 3d 43 07 d9 3c bf 08 16 be
       0.045895476 0.04299838 0.02649272 -0.14651774
000210 42 ce a2 bb 76 c7 b8 3c 4b e9 49 3d 59 67 cf 3c
       -0.0049684355 0.022556048 0.04929475 0.025317835
000220 b1 98 04 3d eb 91 85 bb 79 a6 60 3d a8 85 53 3b
       0.03237218 -0.0040762327 0.05484626 0.003227571
000230 7f 8d fb 3c ff 9e c0 3c 66 2b ae bc c1 33 b3 3c
       0.030707119 0.023513315 -0.021260928 0.021875264
000240 70 1f e2 bc 8b 74 21 3d ca 5b 25 bd 0a 42 e4 3c
       -0.027602881 0.039417785 -0.04037074 0.027863521
000250 86 98 33 bd 93 42 bd 3c ff 1a 05 3d 62 1c b9 3b
       -0.04384663 0.023103034 0.03249645 0.0056491354
000260 94 7d 07 3d e0 27 41 3d c0 fc b5 3c e6 c5 16 bd
       0.033078745 0.04715717 0.022215247 -0.036809824
000270 f5 2c 69 3c 0b ca 56 3c 52 eb 15 3c e8 e1 23 3d
       0.01423191 0.013109694 0.009150343 0.040010363
000280 73 0b 0f 3d 21 ed 8f 3c 3c d3 4a bc da 08 90 bc
       0.03492303 0.017569127 -0.012379464 -0.017582346
000290 cb 1e b8 bc 9d 8f 41 bc 97 b9 e4 3c eb 8f d2 3c
       -0.02247562 -0.011814025 0.027920527 0.025703391
0002a0 a1 c4 38 bd 27 b0 af bc 58 6e be bd 74 df 2b 3d
       -0.045109395 -0.0214463 -0.0929839 0.04196115
0002b0 f3 d1 de 3d e3 47 cf bd e5 2c a8 3d 1e e9 9f 3b
       0.108798884 -0.10121133 0.08211688 0.0048800847
0002c0 54 05 00 be a6 a7 4c 3d 58 6b 74 3d cc e5 1d bc
       -0.12502033 0.04996457 0.059672683 -0.009637307
0002d0 d3 15 dc bb d9 be a6 3d ca be 33 3d 96 23 a1 bc
       -0.006716469 0.0814187 0.043883123 -0.019670289
0002e0 95 e1 1b 3d b4 1e 05 bd 77 fb 99 bc 4c 43 ac 3c
       0.03805693 -0.032499984 -0.018796666 0.021028183
0002f0 7d 8e 88 3c f0 a3 35 be 70 83 21 3d 2b 7e e1 3c
       0.016669506 -0.17738318 0.03943199 0.027525982
000300 87 ad 6d 3d ba c0 41 3d ab a5 13 bc 32 b7 11 3d
       0.058026817 0.04730294 -0.009011666 0.0355751
000310 b1 54 98 bd 3a a6 51 3d d4 7b 7f 3b 9f 01 d3 3c
       -0.074380286 0.051183917 0.003898372 0.025757609
000320 a3 d8 00 3c f6 55 3c 3c a3 cc fc 39 2d 4c 00 bc
       0.00786415 0.011495104 0.00048217652 -0.007830662
000330 d8 6f f4 3c a2 bd 25 bc cc b0 a5 bc d5 1a 5c bd
       0.029838488 -0.010116013 -0.020225905 -0.053736527
000340 51 b0 92 bd a1 06 83 3c f6 45 69 bd 97 60 17 3d
       -0.07162536 0.015994372 -0.056951486 0.03695735
000350 64 82 e3 3a 5c 40 7a bd c7 2c dc bc 79 8e c6 bb
       0.0017357585 -0.061096534 -0.02687682 -0.0060594645
000360 1b 69 b9 3d 7e 54 92 3d 6f d0 a8 3c ca f7 1d bd
       0.090532504 0.07145022 0.020607201 -0.03856639
000370 96 38 8c 3c f4 ef e6 3c 2e 22 22 3c 8f dd c8 3d
       0.017116826 0.02819059 0.009895844 0.09807884
000380 a3 70 08 3d 11 fb 96 bd 45 97 a1 bb d8 05 27 bd
       0.033310544 -0.07372106 -0.004931363 -0.040777057
000390 65 da eb bc 55 55 93 ba d5 69 d1 3c 8f 51 cc bd
       -0.028790662 -0.0011240641 0.02556316 -0.099764936
0003a0 ba 0a 29 3d f3 a2 6d bc 55 d8 9f bd 5a 01 97 bc
       0.041269995 -0.014504182 -0.07804934 -0.018433262
0003b0 b9 be 10 bd a1 be 61 bd 3a c1 2a 3d 01 6e 70 3d
       -0.035338137 -0.05511344 0.04168818 0.058698658
0003c0 dc 65 d5 3b c7 b3 c5 bc c3 f9 ef 3c 26 3a 4e bc
       0.0065123867 -0.024133576 0.0292939 -0.012587106
0003d0 db 4b 3d bc da c7 c1 bd c4 4d a2 3b 47 91 3f bc
       -0.01155373 -0.09461947 0.004953118 -0.011692352
0003e0 a8 9e f6 bc 3e 79 8d bd 3f 0e 37 bd 30 48 ea ba
       -0.03010495 -0.06907891 -0.04469132 -0.0017874297
0003f0 08 40 cb bb 6b 75 9b 3c f1 58 3a bc 5b d7 88 3c
       -0.0062027015 0.018976888 -0.011373744 0.016704252

dec_convtrans1.bias f4 [64]
000000 02 90 5d 3b cf 60 18 3d 65 6d 18 bd 58 40 f7 3c
       0.003380776 0.0372017 -0.0372137 0.030182049
000010 ec 35 2e 3d e7 6e 93 bc 90 e9 b7 3c 09 0a 2f 3d
       0.042531893 -0.017997218 0.022450238 0.04273418
000020 f7 2e 9b 3c 54 3a c4 3b 10 fd 38 3d fd 97 99 3d
       0.018943293 0.0059883986 0.045163214 0.074996926
000030 67 12 c1 bc b7 2e b0 3c 0a ca 19 bd d7 2d 0c bb
       -0.023568345 0.02150665 -0.037546195 -0.0021389627
000040 e1 f0 44 bd af 6f 49 bd ae 56 7e 3c e1 65 10 bd
       -0.048081283 -0.049178775 0.015523596 -0.03525341
000050 d2 7c 38 3d 3d 09 c1 3a 11 ca 22 bb 36 d6 d4 3c
       0.045040913 0.0014727485 -0.002483968 0.02598105
000060 5e aa e0 bc 51 a4 63 3c 91 86 3f 3d b3 3a 5b bc
       -0.027424987 0.013894157 0.046759192 -0.013380694
000070 c7 91 89 3c 91 3f 88 3d db c3 4c bd 85 80 1b bd
       0.016793145 0.06652749 -0.04999147 -0.037964363
000080 d6 31 58 3d fc 7e 27 3d dd 8b f2 bc bc 0d af bb
       0.052781902 0.040892586 -0.029607708 -0.0053422134
000090 17 32 7a bd 05 48 ae bc e9 4f 04 3c 41 3c d8 3c
       -0.061082926 -0.021274576 0.008075693 0.026395919
0000a0 f3 11 a4 3c 95 09 dd 3c 2b ca 5b bd 0e 56 d5 bc
       0.02002809 0.026982108 -0.0536596 -0.02604201
0000b0 bc 4e 7d 3b bb 79 bb 3c b4 66 54 3d 32 12 08 3d
       0.0038651666 0.022885194 0.051855758 0.033220477
0000c0 1a 94 89 bc be 63 43 3d 22 4c 53 3d 8a 64 99 3c
       -0.016794253 0.047702543 0.051586278 0.018724699
0000d0 6a 3a 8c bc 6e 32 97 bc ec ad 1f 3d fc 8b 69 ba
       -0.017117698 -0.018456664 0.038984224 -0.0008909104
0000e0 f5 ac 29 bc 5b d6 a7 3c 91 c6 8d 3d 1c c7 b2 3d
       -0.010356178 0.020487955 0.06922639 0.08729383
0000f0 18 59 1e 3d d5 69 27 3c c0 89 a1 bb c6 db 6c 3d
       0.038659185 0.010218103 -0.004929751 0.05782678

dec_conv1.weight f4 [64, 64, 3, 3]
000000 a2 31 61 bd 18 12 ca bb a0 9b 6b bc fa 2a 00 bd
       -0.054978974 -0.0061667077 -0.014380366 -0.031290986
000010 c2 5f f2 3c 33 af ab ba f6 d5 a4 3c de 11 90 3c
       0.029586677 -0.0013098478 0.020121556 0.017586645
000020 fb c9 c2 bb 66 bf 87 3b 1e e7 b5 3c 9e 47 e7 bc
       -0.005944488 0.0041426895 0.022204932 -0.028232392
000030 15 71 6b 3d 4a 46 cc bc 6f e6 32 ba 80 9a b1 3a
       0.05748089 -0.02493586 -0.00068244984 0.0013550073
000040 ca 33 42 bd fd 2c bd 3c 36 e4 5e 3c a9 dc a4 3c
       -0.04741267 0.023092741 0.013604214 0.02012475
000050 4b 74 f7 bc c0 a4 11 3d 5e 4a ba ba 20 43 13 3d
       -0.03020682 0.03555751 -0.0014212837 0.035952687
000060 c3 8e e4 bc 55 11 70 bc b5 79 e1 bc a7 51 01 bc
       -0.027900105 -0.01465257 -0.027523855 -0.007893003
000070 ff 6b 86 3b 3e 94 5c bc 83 dd 89 3d 21 47 19 3d
       0.0041022296 -0.013463078 0.06731703 0.03742135
000080 98 1b 39 bc 9e db f8 bc 74 47 66 bc fb ae 89 3d
       -0.011298083 -0.03037816 -0.014055122 0.06722828
000090 c8 5c 75 bc 65 39 5e 3d 94 3d e8 3c bb 86 9d bb
       -0.014975734 0.054253954 0.028349675 -0.004807321
0000a0 bd 2a 04 3d 27 e5 e7 3c 8d 96 62 bc b8 6b eb bc
       0.03226732 0.02830751 -0.013829839 -0.028737888
0000b0 af ad f5 3b f2 fa a5 bc 2e ab 65 bc 4c 64 c6 bb
       0.0074975113 -0.020261262 -0.014017863 -0.006054437
0000c0 02 f2 b6 3b 2d e8 48 bd ce ea ca bc 91 84 74 bb
       0.005583049 -0.049049545 -0.024770167 -0.003731046
0000d0 cd 3d c0 bc e7 cf 87 3c 7a 8e aa bd 94 6d c4 bc
       -0.023466969 0.016578628 -0.083279565 -0.023978032
0000e0 14 76 36 bd cf dd 18 bc 70 92 f7 bb cb 23 02 3d
       -0.0445462 -0.009330227 -0.0075552985 0.031772416
0000f0 c7 7f cd bb ef e2 9b bb ee 6c 0b 3d fa aa 62 bc
       -0.0062713358 -0.004757277 0.03403943 -0.013834709
000100 7d 16 d4 3c 56 8e b3 3b 75 56 50 3c 8d 6f 34 3d
       0.02588963 0.0054796143 0.012715925 0.044051696
000110 08 e9 1b 3d 82 4a 83 bc 75 10 fd ba 1f d9 2c bd
       0.038064033 -0.016026739 -0.0019307273 -0.04219925
000120 c0 c1 5b bd 86 46 05 3c e6 26 5e 3c 83 08 79 3d
       -0.05365157 0.00813449 0.013559079 0.060799133
000130 9d 39 f2 3c 30 0a eb 3a b2 14 4d bd 4a e0 b8 bc
       0.029568488 0.0017932113 -0.050068565 -0.022567887
000140 aa cf 40 3d 27 34 0b ba 9d b5 0f bd 5a 6d e3 bb
       0.047073044 -0.00053102005 -0.03508531 -0.006940526
000150 be 3b 05 3c 19 aa d1 bb a7 59 56 bc cd 14 0a bc
       0.008131919 -0.006398451 -0.013082898 -0.008427811
000160 e5 f5 62 bd a0 cd 08 3d 0f 23 26 bc 95 08 1e 3d
       -0.055410285 0.033399224 -0.010140195 0.038582403
000170 ce c0 9f bb 8e a0 5e bd af 27 6c 3d 26 37 72 3d
       -0.004875279 -0.054352336 0.057655033 0.059134625
000180 24 e2 20 bc 5c 1e 73 bd ce 81 88 39 ae 79 65 3d
       -0.009819541 -0.059355125 0.00026036653 0.056024246
000190 ad 42 a9 bc d7 4f 2c 3c 71 f2 00 3e 04 25 96 3c
       -0.020661676 0.010517082 0.12592484 0.018328197
0001a0 20 ee 8c bc 7b 09 2c 3d ad d3 1a 3d 22 d8 cd 3c
       -0.01720339 0.04200123 0.037799526 0.025127474
0001b0 2e ab 90 bb c8 c1 4d bd 27 1e ad bc 84 b3 b5 3c
       -0.0044149375 -0.050233632 -0.021132542 0.022180326
0001c0 92 b7 f9 bc 26 f7 6a bb ef 3f 0a 3c 70 80 64 bc
       -0.030483041 -0.0035852878 0.0084380945 -0.0139466375
0001d0 53 00 c8 bb 74 37 a6 bc c8 77 45 3d dc 41 a7 bb
       -0.0061035543 -0.020290114 0.048209935 -0.0051042866
0001e0 b0 70 2f bc 9a 03 45 3d 0c 1c a9 bc 20 36 d8 bc
       -0.010708019 0.048099138 -0.020643257 -0.026392996
0001f0 aa dc bb bc 4f e2 63 bd 12 9a 8b bd e6 6f be bc
       -0.02293237 -0.055635747 -0.06816496 -0.023246717
000200 e6 da 67 3d 14 a7 51 3c ca be 78 bc c0 74 41 3c
       0.056605242 0.012796182 -0.015182206 0.0118076205
000210 c6 b4 5a bc d4 0a 6c bb 0a 18 2c bd d6 cf 24 bd
       -0.013348764 -0.0036017196 -0.042015113 -0.04023727
000220 df 8d 08 bc aa 18 5b bd 78 ae a8 b9 5f bb a8 3c
       -0.008334606 -0.05349032 -0.00032173446 0.020597158
000230 b7 92 dc bc 1f 39 65 bc 48 2e eb 3c 57 34 47 3c
       -0.026925428 -0.0139906695 0.028708592 0.012158475
000240 54 86 16 bd f2 ab 01 3c 86 97 2e bd 5b 96 ed bc
       -0.0367492 0.00791453 -0.042624973 -0.02900236
000250 5d 79 8f bc f1 45 bf bc 06 0a 32 bc 98 7a d9 3c
       -0.017513925 -0.02334878 -0.010866648 0.026547715
000260 86 0a 10 bc 09 23 3d bc 87 fd a6 3c 20 03 04 3a
       -0.0087915715 -0.011543998 0.020384563 0.0005035866
000270 b2 38 fa bc f6 f5 82 3c eb 23 10 bd d0 71 02 bc
       -0.030544613 0.015986424 -0.035190504 -0.007961705
000280 aa bd 45 3d 79 62 d2 bb 83 12 ea bc 68 a5 29 bd
       0.04827658 -0.0064204303 -0.02857328 -0.04141751
000290 54 44 06 bb 03 05 ce 3c 77 e4 1a 3d 77 56 b7 bc
       -0.0020487504 0.025148874 0.037815537 -0.022380097
0002a0 8e 2e 1d 3d ef 65 e0 bc e0 ab 0b bd b0 27 19 3c
       0.038374476 -0.027392356 -0.03409946 0.009347841
0002b0 da 47 bb bd e5 2a 0a bc ce ee 43 3d c9 75 81 bd
       -0.09144564 -0.008433078 0.047835164 -0.06321294
0002c0 78 a4 37 3c b9 2f 6a 3d fe e1 66 bd ce e5 db 3c
       0.011208646 0.057174418 -0.056367867 0.026842978
0002d0 96 41 b6 3c 07 2b 2d bc 47 d3 86 3c 2c be 21 3c
       0.02224807 -0.010569341 0.016458167 0.009872001
0002e0 0c 78 6e bc e1 47 83 3d fb df 71 3c 1a 0f 46 3c
       -0.014554989 0.06410194 0.014762874 0.012088561
0002f0 c6 63 95 3c 4f fc 07 bd b1 2d c3 3d 57 f3 c3 3c
       0.018236052 -0.033199605 0.09530199 0.023919744
000300 c5 ef ad bc 4d 72 27 3d 8f 56 25 3d 86 f2 4c bb
       -0.021232495 0.04088049 0.04036575 -0.0031272485
000310 7b 70 92 bd 54 38 c3 bb 1c a7 ae bc 7a 97 5f 3c
       -0.0715036 -0.0059576426 -0.021319918 0.013646955
000320 22 0e 0e bc 2e 2e e7 bc d2 4d a1 3c 83 e8 76 bb
       -0.008670362 -0.028220262 0.019690428 -0.003767521
000330 2f de 59 3c a8 a7 2d 3c 43 9f de bc 49 d9 20 bc
       0.013297602 0.010599054 -0.027175551 -0.00981743
000340 7e 20 0f ba c9 2e f6 3b 6c 6d c6 3c 44 cd 99 3d
       -0.0005459859 0.0075129014 0.024222098 0.075098544
000350 d9 0b 94 3c e2 4d bf bb 1f 2a af bb af 31 68 bc
       0.018072056 -0.005838142 -0.0053455974 -0.014172002
000360 df f3 08 3d 69 29 a8 3c 7e 6c 39 bc a1 15 7a 3d
       0.0334357 0.020527558 -0.01131737 0.061055783
000370 e7 69 e1 bc 60 80 cc 3c da 7e 07 3d 87 5c e7 3c
       -0.027516318 0.024963558 0.03307996 0.028242363
000380 fa 3e 4c 3c 39 f9 fc bb 1b 42 05 3c 31 bc e1 bb
       0.012466187 -0.0077201393 0.008133437 -0.0068888892
000390 c1 e3 17 bd 79 44 e0 bc a9 b0 98 bc 1d 98 d7 3c
       -0.037082437 -0.0273764 -0.018638926 0.02631765
0003a0 4a c3 23 3c 55 58 5d bd 91 2f 00 3d bb 25 f0 3c
       0.009995291 -0.054039318 0.031295363 0.029314866
0003b0 ab 95 d7 3c f5 87 9b bc b8 10 41 3b a6 a5 59 bd
       0.026316484 -0.018985728 0.0029459428 -0.05313649
0003c0 f9 00 5a 3b 48 02 22 bd 83 08 06 3d 5d ac 50 3d
       0.003326474 -0.039552957 0.03272296 0.05094563
0003d0 9f 07 dd bc 1d 6a 84 3c 49 1c 3b 3c 23 22 db bc
       -0.026981173 0.01616388 0.011420318 -0.026749676
0003e0 13 33 16 bd 3b 98 5b bb 00 7c 89 3c af 6a 84 bc
       -0.036669802 -0.0033507484 0.01678276 -0.016164152
0003f0 46 01 6c 3d 0a 1e 5e 3c 0c 47 7f bc e1 5c e5 3d
       0.057618402 0.013556967 -0.015580904 0.11199356

dec_conv1.bias f4 [64]
000000 10 92 12 3d 8b ed 6e bb 4d d3 de bc ad ca f2 bc
       0.035783827 -0.0036457505 -0.027200365 -0.029637659
000010 c2 97 4c bb 26 ff 02 bd fb ce ab bc 48 5a 14 3a
       -0.0031218384 -0.03198161 -0.02097272 0.0005659205
000020 eb c2 fc bc 5b 51 06 3d 88 7b 06 3d fc 39 8e 3c
       -0.030854663 0.03279243 0.032832652 0.017361633
000030 ca 26 08 3d 42 2f 45 bc 41 37 6a 3d 76 69 7f 3d
       0.033240117 -0.012035193 0.0571816 0.062356435
000040 bf 5d a4 3c f6 7c 30 bd 0f 74 7f bd e7 3d 2e 3d
       0.020064233 -0.043087922 -0.06236654 0.042539503
000050 8b e1 85 bb d1 6d c7 3c 3f cd e4 bc 3d e1 44 bc
       -0.0040857247 0.024344357 -0.0279299 -0.012016592
000060 6d 02 ce 3c 64 bc 3e 3d bd 29 51 3d 7e 97 be bc
       0.025147641 0.046566382 0.051065195 -0.023265596
000070 05 63 80 3d ca 02 97 bc 8e f9 ae 3b 24 ed 15 bc
       0.062688865 -0.018433947 0.005339808 -0.009150777
000080 c3 a4 3c bc 96 e2 9c 3c 76 b5 0c 3d d8 6e 91 bc
       -0.011513892 0.019151013 0.034352742 -0.01775305
000090 c3 8b 07 3b d0 ce c2 3c 1e 74 c1 bb f4 83 df 3a
       0.002068267 0.023780257 -0.005903735 0.0017052875
0000a0 f2 97 c0 bc 5b 67 18 3d 28 a6 35 3c e7 f1 2c 3d
       -0.023509953 0.037207942 0.011086978 0.042222884
0000b0 45 d0 da bc e7 6b c5 bb 1d ea a1 3c 55 98 6e 3b
       -0.026710639 -0.006024826 0.019764954 0.0036406715
0000c0 65 aa 97 bc d5 ce e2 3a 1c af a3 bc 20 d3 1c 3d
       -0.018513868 0.0017304072 -0.01998096 0.038287282
0000d0 dd 73 ac 3c d9 ad 09 bc ba e4 95 3c d2 fd de bc
       0.021051342 -0.008403265 0.018297542 -0.02722064
0000e0 8e 0a b7 3c c1 ce 8d 3c 8e 14 21 3d b6 73 c4 3c
       0.0223439 0.017310502 0.039326243 0.023980957
0000f0 15 4f 32 3d 73 ad ba 3c 6f b8 80 3c 29 b4 6f 3d
       0.04353245 0.022787785 0.015712945 0.058521423
