HW4/model_state_dict.pth (torch, 946714 bytes, 16 tensors)

enc_conv1.weight f4 [32, 3, 3, 3]
0	0x3c8fbb0d	0.017545247
1	0xbbd30070	-0.006439261
2	0xbd4ffae5	-0.05077638
3	0x3d8a5d01	0.0675602
4	0xbd7daa57	-0.061930027
5	0x3df81a8c	0.121144384
6	0x3dcc0165	0.099612035
7	0xbd36fa3d	-0.04467224
8	0xbdd833c6	-0.1055675
9	0xbd7c35ec	-0.06157486
10	0xbdec49bc	-0.11537501
11	0x3db0af67	0.08627205
12	0xbd4589a7	-0.04822698
13	0xbdb48115	-0.08813683
14	0x3d637e9f	0.055540677
15	0x3e0774ee	0.13228199
16	0x3d84479c	0.06458971
17	0x3cab002d	0.020874107
18	0x3d4cf69c	0.050039873
19	0xbe1408aa	-0.1445643
20	0xbe16bdd5	-0.14720853
21	0x3defa1ea	0.117008045
22	0xbdc76447	-0.09735923
23	0xbe471e6f	-0.19445203
24	0x3d92d851	0.07170165
25	0xbe39df4a	-0.18151584
26	0xbda4080a	-0.08009346
27	0x3d8c1bb7	0.06841224
28	0xbd6b4cfa	-0.057446457
29	0x3e79a847	0.24380599
30	0x3e429b2a	0.19004503
31	0xbca917b8	-0.020641193
32	0x3d856e93	0.06515231
33	0xbe158a7e	-0.14603612
34	0xbd7775d3	-0.0604151
35	0x3c31190d	0.010809195
36	0x3e616df9	0.22014607
37	0xbdda1375	-0.106482424
38	0x3dff072b	0.12452539
39	0x3bc537d9	0.0060186205
40	0xbde4df09	-0.11175353
41	0x3de6d425	0.11270932
42	0xbdaa61af	-0.08319413
43	0x3daabc39	0.08336682
44	0xbde11f76	-0.10992329
45	0x3e23d597	0.15999447
46	0xbcd46d44	-0.025931008
47	0x3e3fd7c1	0.18734647
48	0x3e3a7225	0.18207605
49	0xbcde91f1	-0.0271692
50	0xbe18c459	-0.1491865
51	0xbe217339	-0.1576661
52	0x3e39723c	0.18109983
53	0xbe2abd2b	-0.16673724
54	0xbd2c25fe	-0.04202842
55	0xbe3a2f1e	-0.18182036
56	0xbe05902b	-0.13043277
57	0xbd369038	-0.04457113
58	0x3db37dac	0.087642044
59	0x3da05ec5	0.07830576
60	0x3d2e0bc5	0.042491693
61	0x3cdf0aed	0.02722689
62	0x3ddcb997	0.10777586
63	0xbdf6c930	-0.12050092
64	0x3dfa047f	0.12207889
65	0x3e3086e7	0.17238961
66	0x3dacac8a	0.08431347
67	0xbc8d60d5	-0.017258087
68	0xbe2ec9b3	-0.1706913
69	0xbdbff017	-0.093719654
70	0xbd87fea1	-0.066403635
71	0x3e3068e9	0.1722752
72	0xbe1e3f0c	-0.15453738
73	0xbdec9174	-0.115511805
74	0xbb134818	-0.002247339
75	0x3e2d5481	0.16926767
76	0xbe067169	-0.131292
77	0x3da07c27	0.0783618
78	0x3ce22d48	0.027609482
79	0x3d73c5f8	0.05951497
80	0xbdb8a795	-0.09016339
81	0xbe1c9ec7	-0.15294944
82	0x3e0fa66a	0.14028326
83	0x3db4992d	0.088182785
84	0x3c4e3188	0.012585051
85	0x3bf4f232	0.007475161
86	0xbe0413fa	-0.12898245
87	0xbe3422e8	-0.1759144
88	0xbdc1da06	-0.09465413
89	0x3e3e3714	0.18575698
90	0xbc345eaf	-0.011008902
91	0xbd8a4b9c	-0.067527026
92	0x3dfea3c7	0.12433582
93	0x3e3ea249	0.18616594
94	0x3e1460cb	0.14490049
95	0xbd433f8c	-0.047668025
96	0xbdc2029b	-0.09473153
97	0x3e40c2c4	0.18824297
98	0x3da97afe	0.08275412
99	0x3e03b083	0.12860303
100	0x3d886160	0.06659198
101	0xbd1158d4	-0.035485104
102	0xbe011777	-0.12606607
103	0x3e31f7dc	0.17379707
104	0x3dd7f63a	0.10545011
105	0x3e21b4dd	0.1579165
106	0x3dfa8839	0.12233014
107	0x3e58979b	0.21151583
108	0x3cd89a66	0.02644081
109	0x3db60309	0.08887298
110	0xbda9b099	-0.082856365
111	0xbdade22e	-0.08490406
112	0xbd15cb28	-0.036570698
113	0xbe106865	-0.14102323
114	0xbe0efb4e	-0.13963053
115	0x3d2356d8	0.039877743
116	0x3e2053a0	0.156569
117	0x3e44fb2f	0.19236444
118	0xbd40f81c	-0.047111616
119	0xbda23424	-0.07920101
120	0xbdecd9f0	-0.11565006
121	0x3e34ef63	0.17669444
122	0xbe17eb56	-0.14835867
123	0x3a031040	0.0004999675
124	0x3e0a4d43	0.13506036
125	0xbe1e0c65	-0.15434416
126	0x3d68da51	0.056848828
127	0xbd9ee548	-0.07758576
128	0xbe09dfad	-0.13464232
129	0xbda12d95	-0.07870022
130	0x3e3d0a18	0.18460882
131	0xbd0c9044	-0.03431727
132	0x3d15dcd9	0.03658757
133	0xbdf6f1a6	-0.120578095
134	0x3e27d1ce	0.16388628
135	0x3d93c452	0.072151795
136	0x3d4c1884	0.049828067
137	0x3e3f7cc9	0.18699946
138	0x3e423bc8	0.18968117
139	0x3d99443e	0.07483719
140	0x3d559761	0.05214632
141	0x3db1e89e	0.08686946
142	0x3e41b1e5	0.18915518
143	0xbd69719c	-0.056993112
144	0xbdb13fab	-0.08654722
145	0xbe5166e8	-0.20449412
146	0xbe35d989	-0.17758764
147	0xbe2fc706	-0.17165765
148	0xbb9a06a2	-0.0047004977
149	0x3e10dee0	0.1414752
150	0xbe285500	-0.16438675
151	0xbdf552f2	-0.11978711
152	0x3cd517d9	0.026012348
153	0xbcb01a08	-0.021496788
154	0xbd2ba4ff	-0.0419054
155	0xbde156a0	-0.110028505
156	0x3e18afdb	0.14910834
157	0xbdea562e	-0.11442219
158	0x3e4a8ddf	0.19780682
159	0x3ddcbed8	0.10778588
160	0x3dc1ae2c	0.09457049
161	0x3d9ef02c	0.07760653
162	0xbcfd0328	-0.030885294
163	0x3d7ae19b	0.06125031
164	0x3d893598	0.06699675
165	0x3e3c9144	0.1841479
166	0xbe2da8f5	-0.16958983
167	0x3e0d2c8d	0.13786526
168	0x3dabd21b	0.08389684
169	0x3e0ed592	0.13948658
170	0xbe30b29c	-0.17255634
171	0xbd89064e	-0.06690656
172	0x3e1721a6	0.1475893
173	0xbe186408	-0.14881909
174	0x3e087378	0.13325298
175	0xbb11946a	-0.0022213706
176	0x3d1cc99e	0.038278215
177	0x3e1f915e	0.15582797
178	0x3d19bddb	0.037534576
179	0x3d206eab	0.03916804
180	0xbe1dd62c	-0.15413731
181	0x3de92a12	0.113849774
182	0x3c68f620	0.014218837
183	0xbdf02c0e	-0.11727153
184	0xbe2ff414	-0.17182952
185	0x3dfcc9df	0.12343191
186	0xbe1ba561	-0.15199806
187	0xbd0b8a6f	-0.034067567
188	0x3da66880	0.081254005
189	0x3e03bbf9	0.12864675
190	0x3d838b99	0.064231105
191	0x3e4c99f1	0.19980599
192	0x3dd7e281	0.10541249
193	0xbd693088	-0.05693105
194	0x3dcaefa7	0.09908991
195	0x3e12b3ed	0.14326449
196	0xbe0d8935	-0.13821872
197	0xbd3a9d0d	-0.04555993
198	0xbd48e87d	-0.049049843
199	0x3df39441	0.118935116
200	0xbd4e7391	-0.05040318
201	0xbe061553	-0.13094072
202	0xbd80fcf6	-0.062982485
203	0xbde906d0	-0.113782525
204	0x3e38c07e	0.1804218
205	0xbcf58f75	-0.029975632
206	0x3e438e17	0.19097172
207	0xbe2c8b27	-0.16849957
208	0x3d9632b1	0.07333887
209	0x3e203213	0.15644102
210	0x3dbae4a2	0.091256395
211	0x3ceeac8b	0.02913501
212	0xbe1ff3ec	-0.15620393
213	0x3c95750d	0.01824429
214	0x3d6d2f4d	0.057906438
215	0xbe363c61	-0.1779647
216	0xbea20ee3	-0.31651983
217	0xbe85c513	-0.26126918
218	0xbe615399	-0.22004546
219	0xbe1f26c2	-0.15542129
220	0x3e852c2d	0.26010266
221	0xbd8b316a	-0.06796534
222	0xbe190899	-0.14944686
223	0xbe2b6d56	-0.16740927
224	0xbd3a38d6	-0.04546436
225	0xbec06764	-0.3757888
226	0xbeddcac3	-0.43318757
227	0xbdb3e76c	-0.087843746
228	0xbe0f7312	-0.1400874
229	0x3eb72d45	0.35776725
230	0xbf048bf2	-0.5177604
231	0xbe831afd	-0.25606528
232	0xbede29de	-0.43391317
233	0x3daf5d5a	0.08562727
234	0xbe428d8b	-0.18999307
235	0xbe394ae9	-0.18094982
236	0xbd07a0fd	-0.033112515
237	0x3d9fb246	0.07797675
238	0x3f1a4978	0.60268354
239	0xbedbf6eb	-0.4296182
240	0xbe6c5b10	-0.23081613
241	0xbea41eb8	-0.32054687
242	0xbe27faa3	-0.16404204
243	0x3d67d0b8	0.056595534
244	0xbdb3ac0f	-0.08773052
245	0x3e015829	0.12631287
246	0xbe2ebce8	-0.1706425
247	0xbe2a4f32	-0.16631773
248	0x3d50376a	0.050834097
249	0x3b77fa7f	0.0037838516
250	0x3dfc3abc	0.1231589
251	0x3de9b8c4	0.11412194
252	0xbe0f690c	-0.14004916
253	0x3bc2ad94	0.0059411023
254	0x3cf9f52f	0.03051242
255	0xbd89c0f1	-0.06726254

enc_conv1.bias f4 [32]
0	0x3e158dcc	0.14604872
1	0xbdd4ab1d	-0.103842
2	0x3e065028	0.13116515
3	0x3e080b23	0.13285498
4	0x3e5b5a73	0.21421222
5	0x3a4241a6	0.0007410295
6	0xbd4ec4d7	-0.05048069
7	0xbdee3894	-0.11631885
8	0x3e34245b	0.17591994
9	0xbb4144dc	-0.0029490506
10	0x3e0c39fe	0.13693997
11	0x3e43386d	0.19064493
12	0xbc8c7bba	-0.017148841
13	0xbe639441	-0.22224523
14	0x3e34e346	0.17664823
15	0x3e117541	0.14204885
16	0x3d355014	0.04426582
17	0x3e0f9163	0.14020304
18	0x3c8ba891	0.017048152
19	0x3e069d8c	0.13146037
20	0x3d8b5848	0.06803948
21	0x3d25cd8b	0.040479224
22	0x3b6c4f91	0.0036058167
23	0x3e5eac6d	0.21745463
24	0xbca82bfb	-0.020528784
25	0x3c0b129b	0.008488323
26	0x3e3f4be8	0.186813
27	0x3e4a332c	0.19746083
28	0xbd93528a	-0.071934775
29	0xbb20f185	-0.002455802
30	0xbcac28ad	-0.02101549
31	0xbdfea68d	-0.12434111

enc_conv2.weight f4 [64, 32, 3, 3]
0	0xba9695f2	-0.0011488779
1	0x3d568873	0.052376222
2	0x3d33097d	0.04371022
3	0x3e1c3eb6	0.15258297
4	0x3cbf6a29	0.02336605
5	0x3d92e42e	0.07172428
6	0x3dedfe82	0.11620809
7	0x3d8203ee	0.06348406
8	0x3d2a88ab	0.041634243
9	0x3cab8c5e	0.020940956
10	0x3d9d8d6f	0.07692992
11	0x3d13eadc	0.03611265
12	0x3db7f007	0.089813285
13	0x3d24e369	0.040255938
14	0xbbd4a276	-0.0064890934
15	0x3ced8da9	0.028998213
16	0x3c4ac74b	0.012376617
17	0xbdfcefa4	-0.12350395
18	0xbb55030e	-0.0032503041
19	0xbd77c089	-0.06048635
20	0xbcee9366	-0.02912302
21	0xbda55290	-0.08072388
22	0xbd124974	-0.03571458
23	0xbc03858b	-0.008027445
24	0xbc8b9b1b	-0.017041733
25	0x3dc93da1	0.09826208
26	0x3d8c66fc	0.0685558
27	0x3d8fc5aa	0.07020123
28	0xbd6e1458	-0.05812487
29	0xbc92830c	-0.017884754
30	0xbc835d9e	-0.016035851
31	0xbd8c5462	-0.06852032
32	0xbc518869	-0.01278887
33	0x3d0352cf	0.032061394
34	0xbcd682f0	-0.026185483
35	0x3c55b0d8	0.013042651
36	0x3c76a2ec	0.015053492
37	0xbb76a8a1	-0.0037637132
38	0x39e72f9e	0.0004409523
39	0x3dcc68c5	0.09980921
40	0xbc8fe33c	-0.017564408
41	0x3d588cab	0.052868526
42	0x3c8f2226	0.017472338
43	0x3d057e66	0.032591246
44	0xbbba369f	-0.005682781
45	0xbd0f2756	-0.034949623
46	0x3bd86d4d	0.0066048265
47	0xbb1980a5	-0.0023422625
48	0x3d265abe	0.040613882
49	0xbdbd8979	-0.092547365
50	0x3cfa2a0a	0.030537624
51	0x3cc9ff51	0.024657877
52	0x3bf405f1	0.0074469973
53	0x3d8137a7	0.06309443
54	0x3d961ac7	0.07329326
55	0x3c004fa4	0.007831488
56	0xbd0a3750	-0.033744156
57	0x3c936818	0.017993972
58	0xbd822a6f	-0.0635575
59	0x3ca88085	0.020569095
60	0xbd4f4550	-0.05060321
61	0xbc65d33b	-0.014027412
62	0x3cc75330	0.02433166
63	0x3d85b2eb	0.065282665
64	0x3c10f686	0.008847838
65	0xbcde272a	-0.027118284
66	0x3d850f72	0.064970866
67	0xbd094d04	-0.033520713
68	0xbd3ee268	-0.046602637
69	0xbc512917	-0.012766144
70	0xbc640006	-0.013916021
71	0x3c66e4f3	0.014092672
72	0x3ca086b9	0.01959549
73	0xbdfc4938	-0.12318653
74	0xbda74842	-0.08168079
75	0xbd8a088e	-0.06739913
76	0xbd8b0e25	-0.06789807
77	0x3d661607	0.05617335
78	0x3d2a471d	0.041571725
79	0xbde835bd	-0.11338375
80	0xbd384163	-0.044984233
81	0xbcb1d3de	-0.021707471
82	0xbe1b6548	-0.15175354
83	0x3c2c59da	0.010519469
84	0xbe64863c	-0.22316831
85	0xbe88e082	-0.26733786
86	0x3d87885f	0.066178076
87	0xbd911363	-0.07083776
88	0xbd86722b	-0.065647446
89	0x3e04109b	0.1289696
90	0xbc4def9e	-0.012569336
91	0x3d821bf1	0.06352986
92	0x3db6cc9a	0.089257434
93	0xbc45f62b	-0.012082617
94	0x3e17671f	0.14785431
95	0x3e10e79f	0.14150856
96	0x3ca114a8	0.01966317
97	0x3db13ffe	0.08654784
98	0x3ce8ef1a	0.028434325
99	0xbcf4f772	-0.029903147
100	0x3d7bd1bf	0.061479326
101	0x3c98d825	0.018657753
102	0xbcf02055	-0.029312292
103	0x3cc7f11a	0.024406958
104	0xbd0282ca	-0.03186301
105	0x3c589700	0.013219595
106	0xbd609cf2	-0.054837175
107	0xbd24051b	-0.04004393
108	0x3d36010f	0.044434603
109	0xbd594297	-0.05304202
110	0x3bb14804	0.0054101963
111	0x3d9c0826	0.07618742
112	0x3d4c0108	0.04980567
113	0xbdcb4afa	-0.0992641
114	0xbc69ba3e	-0.014265595
115	0xbe1e9d89	-0.15489782
116	0xbcd934b6	-0.026514392
117	0xbc5c0733	-0.013429451
118	0x3de4f710	0.11179936
119	0x3d9081ff	0.07056045
120	0x3dbe9eeb	0.09307655
121	0x3dfc8e13	0.12331786
122	0xbce351cf	-0.02774897
123	0x3d38da5f	0.04513013
124	0x3e045ade	0.12925288
125	0xbd71e8db	-0.05905996
126	0xbd3adee6	-0.04562273
127	0x3dadd5c3	0.084880374
128	0x3dc51ae5	0.0962427
129	0x3d91aa85	0.07112602
130	0x3e0c6f45	0.13714321
131	0x3e1ab3aa	0.15107599
132	0x3db4b99e	0.08824466
133	0x3de2c35a	0.110724166
134	0x3d251621	0.040304307
135	0x3cce388b	0.025173446
136	0x3d939bb1	0.0720743
137	0x3cec99c4	0.028881915
138	0x3d5f4c50	0.054516137
139	0x3da4e9e5	0.08052424
140	0x3ba7d616	0.0051219566
141	0x3d5deef0	0.054182947
142	0x3d1ef948	0.038811952
143	0x3ca80057	0.020507975
144	0xbd44aadd	-0.04801451
145	0xbcfc9a85	-0.0308354
146	0x3c973fe2	0.018463079
147	0x3cf5aaa7	0.0299886
148	0xbd3e7be5	-0.046504874
149	0x3d3cde5d	0.0461105
150	0x3cf16752	0.029468212
151	0xbce96eee	-0.028495278
152	0xbc8726bd	-0.016497964
153	0xbc290afa	-0.010317558
154	0xbd213226	-0.039354466
155	0x3cc57bec	0.024106942
156	0x3d4d95c5	0.05019166
157	0xbb5ef74d	-0.0034021914
158	0xbd097792	-0.033561297
159	0x3d9dcd51	0.077051766
160	0x3d1bf3c3	0.038074266
161	0x3cae0d98	0.021246716
162	0xbc9c5c3f	-0.019086955
163	0xbe9a8909	-0.30182675
164	0xbe3f4c4d	-0.1868145
165	0xbb86c009	-0.004112248
166	0xbd61e87d	-0.05515336
167	0x3c9cf9c3	0.019162064
168	0x3dbae1d5	0.09125105
169	0x3da742b8	0.081670225
170	0x3e1096a7	0.1411997
171	0xbbc5c52f	-0.006035469
172	0x3cfc55de	0.030802663
173	0xbc23e8c6	-0.010004228
174	0x3da8027b	0.08203598
175	0xbb485222	-0.0030566533
176	0xbbc5f5a8	-0.0060412474
177	0x3ce41978	0.027844176
178	0x3d01057f	0.031499382
179	0xbd699e95	-0.057036
180	0x3c3eb744	0.011640374
181	0x3daa4938	0.083147466
182	0x3db57e22	0.088619485
183	0x3df16c9e	0.11788295
184	0x3d8cda9e	0.068776354
185	0x3c201b19	0.009772086
186	0x3de9acd0	0.114099145
187	0xbc177eeb	-0.009246568
188	0xbd015088	-0.03157094
189	0x3d0b32dd	0.033984054
190	0x3b2c00fe	0.0026245709
191	0x3ced8261	0.028992834
192	0xbc48479d	-0.012224105
193	0x3c964a9f	0.018346129
194	0xbd861a5f	-0.06547999
195	0x3d852b72	0.06502427
196	0xbcf50bae	-0.029912796
197	0xbd104299	-0.035219762
198	0xbc732028	-0.01483921
199	0x3ccb6168	0.02482672
200	0x3c4212f1	0.011845336
201	0xbbac2525	-0.0052534514
202	0x3b849507	0.0040460858
203	0x3c380e59	0.0112338895
204	0xbc63c7b6	-0.013902595
205	0xbe2b7c7b	-0.16746704
206	0xbdaf3cb8	-0.08556503
207	0xbdc2f482	-0.095192924
208	0xbd4f2998	-0.050576776
209	0xbd2ab8c4	-0.041680112
210	0xbda4daa2	-0.080495134
211	0x3cfe0529	0.03100832
212	0x3c34aa5c	0.011026945
213	0x3d348462	0.044071563
214	0xbc6e5ca1	-0.014548452
215	0x3d281fce	0.041045956
216	0xbd034dcd	-0.03205662
217	0x3cb128d4	0.021625914
218	0xbd4cfdb7	-0.05004665
219	0x3c32f990	0.010923758
220	0xbd1e2c68	-0.038616568
221	0xbc53b1f6	-0.012920847
222	0x3d6c3ef5	0.057677228
223	0x3d03cc51	0.032177273
224	0x3d4a27fc	0.04935454
225	0xbc1e21b5	-0.009651591
226	0xbddab015	-0.10678116
227	0xbd40ab53	-0.047038388
228	0xbbad6e49	-0.005292688
229	0xbda5bf44	-0.08093122
230	0xbcab7c49	-0.020933287
231	0xbd560ba6	-0.052257203
232	0xbd98755e	-0.07444261
233	0x3d56866a	0.05237428
234	0xbd4014a2	-0.046894677
235	0x3c044bcd	0.008074713
236	0x3d58325d	0.052782405
237	0xbdbf7908	-0.09349257
238	0x3d149f65	0.036284823
239	0x3cc5dfd3	0.02415458
240	0xbce78093	-0.028259551
241	0xbdca9dae	-0.09893356
242	0xbd891264	-0.06692961
243	0x3cdd26cb	0.026996037
244	0xbd2c998d	-0.042138625
245	0xbc857b18	-0.016294047
246	0xbd0616c2	-0.032736547
247	0xbd70e7ba	-0.05881474
248	0x3cd883e0	0.02643007
249	0x3ceffd24	0.029295512
250	0x3cf03bf3	0.029325461
251	0xbb3fe93c	-0.0029283306
252	0x3e16068c	0.14650935
253	0x3e07f725	0.13277872
254	0xbd4899d5	-0.04897483
255	0x3da31e5b	0.07964774

enc_conv2.bias f4 [64]
0	0x3d487c25	0.04894652
1	0x3d622bac	0.05521743
2	0x3d0dd30b	0.034625094
3	0x3ce42ee2	0.027854387
4	0xbd5a7384	-0.05333282
5	0xbd345bc2	-0.04403282
6	0x3d275f69	0.040862475
7	0xbc8d8462	-0.01727504
8	0xbce2566b	-0.027629098
9	0x3d771c40	0.060329676
10	0xbd5ea236	-0.054353915
11	0xbac13b9e	-0.0014742499
12	0x3d5905fe	0.05298423
13	0x3d26dd65	0.040738482
14	0xbd4fc5ce	-0.05072575
15	0xbb460011	-0.0030212442
16	0xbd20113d	-0.03907894
17	0x3cd01191	0.025399001
18	0xbcc9c66b	-0.024630746
19	0xbd2aa518	-0.041661352
20	0xbd5049b3	-0.050851535
21	0xbd64d406	-0.055866264
22	0xbd609ece	-0.054838948
23	0x3d3af7a7	0.045646336
24	0x3d68482d	0.056709457
25	0xbb2df73c	-0.0026545068
26	0x3d8984b1	0.06714762
27	0x3d98a4bd	0.07453296
28	0xbd2b0316	-0.04175099
29	0x3d98c533	0.07459488
30	0x3db67ac1	0.08910132
31	0x3d116f0f	0.035506304
32	0x3ce60e01	0.02808285
33	0x3c45ca55	0.0120721655
34	0xbcf347a3	-0.029697245
35	0xbd57d890	-0.052696764
36	0x3cc3d3a0	0.023904622
37	0x3d332572	0.043736883
38	0x3d1f3f5e	0.03887879
39	0xbcdcf435	-0.026971916
40	0x3d91c98c	0.0711852
41	0xbc2cef23	-0.0105550615
42	0x3da22d88	0.07918841
43	0x3c34104a	0.010990212
44	0x3d8b26f4	0.06794539
45	0x3cc5159b	0.024058154
46	0x3dac2db1	0.084071524
47	0x3d953bf8	0.07286829
48	0xbc335626	-0.010945832
49	0xbcfde7d2	-0.03099433
50	0x3d857987	0.0651732
51	0x3c244b79	0.01002776
52	0xbd5ec31b	-0.054385286
53	0xbc525bca	-0.012839267
54	0x3d71978c	0.058982417
55	0x3d9a97c3	0.075484775
56	0x3cb14a1f	0.021641789
57	0x3bcc951a	0.00624336
58	0xbd78c2f1	-0.060732786
59	0xbd12fbb2	-0.035884567
60	0x3d855ab6	0.06511442
61	0xbd026f07	-0.031844165
62	0xbd4123bc	-0.04715322
63	0x3c849043	0.01618207

enc_conv3.weight f4 [128, 64, 3, 3]
0	0xbcbebe6a	-0.023284156
1	0x3de3107c	0.110871285
2	0xbdb88438	-0.09009594
3	0x3dc7eaf9	0.09761614
4	0xbe36bfdb	-0.17846625
5	0xbd518524	-0.051152363
6	0x3bd5ecc3	0.0065284683
7	0xbdee9f3a	-0.11651464
8	0xbda957ab	-0.082686745
9	0xbbdced2f	-0.0067421417
10	0xbcbfcf75	-0.023414353
11	0x3c771411	0.015080468
12	0x3d779984	0.06044914
13	0xbd621ffc	-0.055206284
14	0x3d5ad49e	0.053425424
15	0xbb9fa055	-0.004871408
16	0xbbf4847a	-0.0074620815
17	0xbd3741dc	-0.044740543
18	0xbcb202e7	-0.0217299
19	0x3d0d647d	0.03451966
20	0x3a9f5796	0.001215684
21	0x3c8d0bda	0.017217565
22	0x3d75bea7	0.059996273
23	0x3c8adcc8	0.01695098
24	0x3d1dc1e5	0.03851499
25	0xbbb70963	-0.005585836
26	0x3c4c824d	0.012482238
27	0x3d1654fd	0.036702145
28	0xbd9d4c31	-0.07680548
29	0xbc71cc52	-0.014758186
30	0xbd397db0	-0.04528588
31	0x3d693213	0.05693252
32	0xbd428af5	-0.0474958
33	0xbd202ada	-0.039103366
34	0xbd54f988	-0.051995784
35	0x3dc1169a	0.09428139
36	0xbc65169f	-0.013982444
37	0xbbab76b5	-0.005232657
38	0xbc56e4f6	-0.013116112
39	0x3c4f1069	0.01263819
40	0xbcc28780	-0.023746252
41	0x3d25f8f5	0.040520627
42	0xba139029	-0.00056290865
43	0x3c8c1e58	0.017104313
44	0x3c765160	0.01503405
45	0x3be62992	0.0070239985
46	0x3d707f33	0.058715057
47	0xbd1e5b8b	-0.03866152
48	0x3d001c30	0.03127688
49	0xbd38452a	-0.044987835
50	0xbc4c0969	-0.012453415
51	0xbd108690	-0.03528458
52	0x3b87e1bf	0.004146784
53	0xbc2b30e7	-0.010448671
54	0xbab253ad	-0.001360526
55	0x3d34c8a7	0.04413667
56	0xbaf4d51b	-0.0018679233
57	0x3d35b51e	0.04436218
58	0x3aecff9e	0.0018081551
59	0xbc101c3a	-0.008795792
60	0x3c33ba8a	0.010969767
61	0x3ceb9290	0.02875641
62	0xbcdd0902	-0.026981834
63	0x3c28739e	0.010281472
64	0x3c958c1b	0.018255284
65	0xbd48eee1	-0.049055938
66	0xbc8f66b2	-0.017505024
67	0x3bed4236	0.007240559
68	0xbd23c2ef	-0.039980825
69	0xbbd60d2c	-0.006532332
70	0x3c481f40	0.012214482
71	0xbc831233	-0.015999889
72	0xbc8d857a	-0.01727556
73	0x3db0b975	0.08629123
74	0x3b37c36e	0.002804007
75	0xbb3148b8	-0.00270514
76	0xbd0dbf7c	-0.03460644
77	0xbd7c1a41	-0.061548475
78	0xbc391348	-0.011296101
79	0x3a4fc056	0.00079250836
80	0x3d096076	0.033539258
81	0x3bd96fdc	0.006635649
82	0x3c3e0823	0.01159862
83	0xbd04b7a2	-0.03240169
84	0xbc9c1d42	-0.01905692
85	0x3dc5aaa8	0.09651691
86	0x3d319004	0.043350235
87	0xbbc4a9c9	-0.0060016853
88	0x3b83c7be	0.004021614
89	0x3cd1d75c	0.025615387
90	0x3cc9ac5c	0.02461832
91	0xbd270bb3	-0.04078264
92	0xbc7be859	-0.01537522
93	0xbb817462	-0.0039506415
94	0xbd76e590	-0.06027752
95	0x3c405f32	0.011741446
96	0xbc58ff2c	-0.0132444315
97	0xbd36a093	-0.04458673
98	0xbcd20b9c	-0.025640301
99	0x3cb53784	0.022121198
100	0x3d0e8547	0.034795072
101	0x3cf68df8	0.030096993
102	0xbb784714	-0.0037884163
103	0xbd892f85	-0.06698517
104	0xbd36975b	-0.044577938
105	0xbb9fab64	-0.0048727263
106	0xbd1771b2	-0.036973663
107	0x3bfb142a	0.007662316
108	0x3cb3b377	0.021936161
109	0x3cec49b3	0.028843736
110	0xbcdfe836	-0.027332406
111	0x3d0eb9e7	0.03484526
112	0x3d5c5241	0.05378938
113	0xbc2c8b67	-0.010531283
114	0x3d0a7c40	0.0338099
115	0x3d00500f	0.03132635
116	0xbd23eb2e	-0.040019207
117	0xba9c1ea5	-0.0011910988
118	0x3ce107e9	0.027469592
119	0x3b375bd4	0.0027978318
120	0xbb2e4953	-0.0026593998
121	0x3d16dc6f	0.036831316
122	0x3c4d5a76	0.012533775
123	0xbcd892eb	-0.026437243
124	0x3bfb84b7	0.007675733
125	0x3cc8d147	0.024513854
126	0x3b8dd255	0.004328052
127	0x3bd9bd19	0.0066448567
128	0x3ce4cb21	0.02792889
129	0x3bda373f	0.006659418
130	0x3b6b3261	0.0035888182
131	0x3bfe1d59	0.0077549634
132	0x3bd144e2	0.0063863853
133	0x3c6cdf69	0.014457562
134	0xbc49e03c	-0.012321528
135	0xbd625fa1	-0.05526698
136	0x3cdc5809	0.026897447
137	0x3bfeb05e	0.0077724895
138	0x3cbdf1cc	0.023186587
139	0x3cd8d2a5	0.02646763
140	0x3d83bc6d	0.06432424
141	0xbd0741fb	-0.03302191
142	0x3b938816	0.0045023067
143	0xbd4ce070	-0.050018728
144	0xbcdc7e8e	-0.026915815
145	0x3c67bd79	0.014144295
146	0x3cc8c824	0.024509497
147	0x3b0c1d31	0.0021379704
148	0xbd84ca8d	-0.06483946
149	0x3c3e8bb0	0.011629984
150	0xbd39b4fd	-0.04533862
151	0xbd1a8659	-0.03772578
152	0x3c53d99d	0.012930301
153	0x3c38a5a4	0.011269961
154	0xbdbe3e13	-0.092891835
155	0x3d16f8d1	0.036858384
156	0xbd4587b4	-0.04822512
157	0xbd9beeff	-0.07613944
158	0x3cf86f92	0.030326638
159	0xbc725e38	-0.014792971
160	0xbd12b396	-0.035815798
161	0x3e017bf4	0.1264494
162	0x3d0caf93	0.034347128
163	0xbe16dbdb	-0.14732306
164	0xbd0c2280	-0.03421259
165	0xbc5c3a76	-0.013441673
166	0xbc5af15c	-0.013363209
167	0x3ce7bd5e	0.02828854
168	0x3be70451	0.007050075
169	0x3c6e49f3	0.014543998
170	0xbcd94bc8	-0.026525393
171	0xbd0f5928	-0.034997135
172	0xbd65a5ec	-0.05606644
173	0x3d1b186c	0.037865087
174	0xbc8d20a6	-0.017227482
175	0xbcef101e	-0.02918249
176	0x3c1071d7	0.008816204
177	0xbbe5d241	-0.0070135896
178	0x3d1c51e4	0.038164034
179	0x3d156a0d	0.03647809
180	0xbc9a8e7a	-0.018866766
181	0xbcc31fff	-0.023818968
182	0x3c0478eb	0.00808547
183	0xbc5adbcb	-0.013358067
184	0x3c86c1e4	0.016449876
185	0x3cf63583	0.030054813
186	0xbc0e79c8	-0.008696027
187	0x3c3c0b55	0.011477311
188	0x3d444beb	0.047923964
189	0xbc3f31d5	-0.011669596
190	0xbc06e996	-0.008234402
191	0xbd44e986	-0.048074268
192	0xbcdeeb64	-0.027211852
193	0xbd047e13	-0.032346796
194	0x3ac1d708	0.0014788816
195	0x3d08e144	0.033417955
196	0xbc8efad3	-0.017453587
197	0x3c720061	0.014770598
198	0x3d202c4e	0.039104752
199	0xbc0584cd	-0.008149338
200	0x3cfe267f	0.031024216
201	0xbc95beb0	-0.018279403
202	0xbc1f3fa3	-0.009719762
203	0xbcb24408	-0.021760955
204	0xbcec0490	-0.02881077
205	0xbc9bdca0	-0.0190261
206	0xbcf7b26e	-0.03023645
207	0x3d04ae5b	0.03239284
208	0x3d1fff07	0.039061572
209	0x3d03ee51	0.032209698
210	0x39fbbba8	0.00048014265
211	0xbc44a864	-0.012003038
212	0x3d702442	0.05862833
213	0xbc0f8322	-0.008759292
214	0xbd395c96	-0.045254312
215	0x3c8836ba	0.016627658
216	0x3bf8a404	0.0075879116
217	0xbd84f353	-0.06491723
218	0xbd258840	-0.04041314
219	0xbc8efd95	-0.017454902
220	0xbc8ef6f8	-0.017451748
221	0x3d74ea70	0.05979389
222	0xbca0c45d	-0.019624883
223	0xbcf6a2e6	-0.030106973
224	0x3d31b9bc	0.04339002
225	0xba17eeb0	-0.000579576
226	0x3d3071dc	0.043077335
227	0x3c9aa0fa	0.018875588
228	0x3d685c23	0.056728493
229	0xbd462aa1	-0.048380498
230	0xbd136714	-0.035986975
231	0xbd170d7b	-0.03687809
232	0xbc969602	-0.018382076
233	0x3c5d19f3	0.013494956
234	0x3d827ccc	0.06371459
235	0x3c84e982	0.016224626
236	0xbb806a15	-0.003918896
237	0xba7eb6ac	-0.0009716551
238	0x3cfad56f	0.030619351
239	0x3d166244	0.036714807
240	0xbc8ef04d	-0.017448569
241	0xbbe5222b	-0.0069925985
242	0xbd14063b	-0.036138754
243	0xbccdf3ec	-0.025140725
244	0xbd4d847b	-0.05017517
245	0x3ce52fa7	0.027976824
246	0xbbc52788	-0.0060166754
247	0xbcf50729	-0.02991064
248	0x3cac6d64	0.021048255
249	0x3c8ce0bc	0.017197005
250	0x3c271d1a	0.010199809
251	0x3c6a2b1a	0.014292503
252	0x3d3133f6	0.043262444
253	0x3ade3611	0.0016953369
254	0xbcc6f973	-0.024288869
255	0x3d5d1301	0.0539732

enc_conv3.bias f4 [128]
0	0x3d6ca342	0.057772882
1	0x3d61d06f	0.05513042
2	0xbc979902	-0.018505577
3	0x3d3bb39a	0.04582558
4	0x3d30b737	0.043143477
5	0x3d965950	0.07341254
6	0x3d19720e	0.037462287
7	0x3d86dbb2	0.06584872
8	0x3d0b8656	0.03406366
9	0xbb4d1a24	-0.0031296099
10	0xbc32e0d6	-0.010917863
11	0xb921dfea	-0.00015437571
12	0x3d9384fc	0.07203099
13	0x3d5afe64	0.053465262
14	0xbbafd5da	-0.0053660693
15	0x3d78d11d	0.0607463
16	0x3d907890	0.070542455
17	0x3d4cf09c	0.05003415
18	0x3d72944a	0.05922345
19	0x3d94f745	0.072737254
20	0x3cb2ce3c	0.021826856
21	0x3d6d75fa	0.05797384
22	0xbbc27686	-0.0059345393
23	0x3d898a42	0.06715824
24	0x3c467196	0.012112042
25	0x3d02c387	0.03192475
26	0x3d74fe8e	0.059813075
27	0x3be6c611	0.0070426543
28	0xbcdb45c2	-0.026766662
29	0x3d0f0da7	0.03492513
30	0xbcfc988b	-0.030834457
31	0x3c7781d0	0.015106633
32	0x3cc3d47d	0.023905033
33	0xbc0c7f4d	-0.008575273
34	0x3c64a1f0	0.0139546245
35	0x3d886712	0.06660284
36	0x3daf1edf	0.0855081
37	0xbcd19d57	-0.02558772
38	0x3d1902e8	0.037356287
39	0x3c6870fb	0.014187093
40	0xbd2d5756	-0.04231962
41	0x3d4f53b8	0.05061695
42	0x3d72c3f6	0.059268914
43	0xbd1a0c60	-0.037609458
44	0xbd1e53b7	-0.038654055
45	0x3c7b93b8	0.015355043
46	0x3d1a1db7	0.037625995
47	0x3d585e97	0.052824583
48	0x3d2649a3	0.04059757
49	0x3d34294d	0.0439847
50	0xbbaa6a91	-0.005200692
51	0x3d6a583b	0.05721305
52	0x3cf4934e	0.029855397
53	0x3ca6d696	0.020365994
54	0xbb78538e	-0.00378916
55	0x3d4b8e8c	0.04969649
56	0x3d3765ea	0.044774927
57	0x3aa96ef6	0.0012926746
58	0xbc2164b1	-0.009850667
59	0x3d8dbb0c	0.06920442
60	0x3cea3701	0.028590681
61	0x3a88c31c	0.0010434124
62	0xbc2bc679	-0.010484331
63	0x3cbe298a	0.023213167
64	0x3d06fce6	0.032956026
65	0x3da2917f	0.079379074
66	0xbbbb1555	-0.00570933
67	0xbd20f4d2	-0.03929598
68	0x3b87e224	0.004146831
69	0xba1eba8e	-0.00060550205
70	0x3ca8636e	0.020555224
71	0x3ca2a2f1	0.019853087
72	0x3ca8dbec	0.02061268
73	0x3d243462	0.04008902
74	0x3d96ba27	0.073597245
75	0x3db2ba94	0.08726993
76	0x3d8ec55d	0.06971238
77	0x3ca8548d	0.02054813
78	0xbc91f6d4	-0.017817892
79	0x3dbc7513	0.09202018
80	0x3cb3a6d1	0.02193013
81	0x3c819da6	0.015822243
82	0x3c9df1ac	0.019280277
83	0x3caf6344	0.021409638
84	0x3d276b7b	0.040873986
85	0x3dc1bd6b	0.09459957
86	0x3d59719f	0.053086873
87	0x3d1a907b	0.037735444
88	0x3d3c78d9	0.046013687
89	0x3d0dac71	0.03458828
90	0xbd1865a4	-0.037206307
91	0x3d5c4526	0.053776883
92	0xbcd745ed	-0.02627846
93	0x3d773ca1	0.060360555
94	0x3d6cfd06	0.05785849
95	0xbbd51c4f	-0.006503619
96	0xbbc1d887	-0.0059157046
97	0x3c3028ea	0.010751942
98	0x3cdc4120	0.026886523
99	0x3da6bf2c	0.08141932
100	0x3db62e21	0.08895517
101	0x3d7c02d0	0.06152612
102	0x3dbe9c30	0.09307134
103	0xbd255b13	-0.04037006
104	0x3d37c803	0.04486848
105	0x3d81f2b3	0.06345119
106	0x3d9a8162	0.07544209
107	0x3c6a5794	0.014303107
108	0xbd06b48a	-0.03288702
109	0x3c117df3	0.008880126
110	0x3d10fdfd	0.035398472
111	0x3d82b1e0	0.06381583
112	0x3db19c91	0.08672441
113	0x3d4d4dbc	0.05012296
114	0xbd02adc0	-0.031903982
115	0x3d29cdeb	0.041456144
116	0x3d6e3814	0.05815895
117	0x3d8f336a	0.06992228
118	0x3d80b8fd	0.06285284
119	0xbcc7ffce	-0.02441397
120	0xbc3186c0	-0.01083535
121	0x3d8cdba8	0.068778336
122	0x3d94382a	0.07237275
123	0x3d0c2683	0.034216415
124	0xbd0b2098	-0.03396663
125	0x3d979b2e	0.07402645
126	0xbc8e4690	-0.017367631
127	0x3d143a87	0.03618863

dec_convtrans1.weight f4 [128, 64, 3, 3]
0	0x3c8986e8	0.016787961
1	0xbcf04ad3	-0.029332554
2	0x3d174ec5	0.036940355
3	0xbd25bdc8	-0.040464193
4	0x3cc23d20	0.023710787
5	0xbd857448	-0.065163195
6	0xbd2615da	-0.040548183
7	0x3b77796f	0.003776159
8	0xbc2cfecd	-0.010558796
9	0x3d0148f5	0.031563718
10	0x3cbe3d06	0.023222458
11	0x3aae7c87	0.0013312259
12	0x3b9b5934	0.0047408585
13	0xbd3314fd	-0.043721188
14	0xbc2018e8	-0.009771563
15	0xbc6c2933	-0.0144141195
16	0xbc850276	-0.016236525
17	0xb90f4b72	-0.00013665648
18	0xbc38494e	-0.011247946
19	0x3d08ec9e	0.03342878
20	0xbd656d42	-0.0560124
21	0xbd25bbc9	-0.04046229
22	0x3cff1542	0.031138066
23	0x3c7ee6ef	0.015557989
24	0xbc5ce9c1	-0.013483466
25	0xbcd5ce9f	-0.026099501
26	0xbd6e9e90	-0.058256686
27	0xbd1bec9d	-0.03806745
28	0x3ccf3ed4	0.025298513
29	0xbae7254d	-0.0017635018
30	0xbd02a59e	-0.031896226
31	0x3b175b37	0.002309514
32	0xbbe4f02b	-0.006986638
33	0xbae42a73	-0.001740767
34	0xbd0245e4	-0.031804934
35	0x3d22c289	0.039736304
36	0x3d3bf39a	0.045886613
37	0xbbedbbdc	-0.0072550606
38	0xbba9711c	-0.0051709544
39	0x3d565854	0.05233033
40	0x3d5fd504	0.054646507
41	0x3abe89ba	0.0014536895
42	0x3c65228b	0.0139852865
43	0x3e05dfcd	0.13073654
44	0xbdc0273b	-0.093824826
45	0x3c70c0fd	0.0146944495
46	0x3af40eb6	0.0018620107
47	0xbd27688b	-0.040871184
48	0xbd5d2d0b	-0.053998034
49	0xbd0a3a96	-0.03374728
50	0x3b21f306	0.0024711504
51	0xbd957636	-0.072979376
52	0x3c4a5a1d	0.012350586
53	0xbc16541d	-0.009175328
54	0x3bf56f87	0.0074901017
55	0x3ce61998	0.028088376
56	0xbc826db8	-0.015921459
57	0x3c4090ad	0.011753243
58	0x3b8d3de5	0.004310357
59	0xbc6280bc	-0.013824638
60	0x3c91fe5f	0.017821489
61	0xbbd61a6f	-0.006533913
62	0xbd82bff7	-0.06384271
63	0x3a08f8ef	0.0005225082
64	0xbd21f59f	-0.039540883
65	0xbd06042f	-0.032718834
66	0x3d1dc91b	0.038521867
67	0x3ce853d0	0.028360277
68	0x3d68fda2	0.056882508
69	0x3d959728	0.073042214
70	0x3cf294ee	0.02961203
71	0xbcee009c	-0.029053025
72	0xbd85040a	-0.06494911
73	0xbd76065d	-0.060064662
74	0xbda26e83	-0.07931235
75	0x3c878663	0.016543573
76	0x3cca5f24	0.02470357
77	0x3b968335	0.004593278
78	0x3b2a902d	0.0026025877
79	0xbc29f449	-0.0103731835
80	0x3d99175e	0.0747516
81	0xbc80f083	-0.015739685
82	0xbc539c3a	-0.012915665
83	0xbc9133ca	-0.01772489
84	0x3c98fd62	0.01867551
85	0xbd18cf83	-0.037307274
86	0xbc8e3c58	-0.017362759
87	0xbbf79df5	-0.0075566717
88	0xbd6b8f64	-0.057509795
89	0xbcdfb905	-0.027309904
90	0xbce2fd6c	-0.027708732
91	0xbd000522	-0.031254895
92	0xbca270a6	-0.019829106
93	0xbd2cdb84	-0.042201534
94	0xbdcc3093	-0.09970202
95	0x3ccc503a	0.024940599
96	0x3cd70d33	0.026251411
97	0xbe26242f	-0.1622474
98	0xbc0771a1	-0.008266837
99	0x3c9744a8	0.018465355
100	0xbcbb3e11	-0.022856744
101	0x3bc94c03	0.0061430945
102	0xbc731017	-0.014835379
103	0x3ca99b9b	0.020704081
104	0xbc323568	-0.010876991
105	0x3ccd1ded	0.025038684
106	0x3d1f0c6e	0.038830213
107	0x3c8f06eb	0.017459353
108	0x3b43afc9	0.0029859415
109	0x3ae69764	0.0017592725
110	0x3c97fec1	0.018554093
111	0xbcd0664a	-0.0254394
112	0x3bc99242	0.0061514685
113	0xbd62c8de	-0.055367343
114	0xbcd4fbd0	-0.02599898
115	0xbd3dc7b2	-0.046333022
116	0xbc91d30a	-0.017800827
117	0xbce01bc1	-0.027356984
118	0xbcaf85c4	-0.02142609
119	0xbd3b56ed	-0.045737196
120	0x3c0ad3ed	0.008473379
121	0xbcf3ec3c	-0.029775731
122	0xbd4d43b6	-0.050113402
123	0xbe0e2ba2	-0.13883832
124	0xbd0c963c	-0.034322962
125	0x3c0ccee0	0.008594245
126	0x3cea5e85	0.028609524
127	0xbcdd744b	-0.027032992
128	0xbc3d16e9	-0.011541107
129	0xbd0bbe1c	-0.03411685
130	0xbc82df26	-0.015975546
131	0x3d5436bb	0.051810008
132	0xbbd0371e	-0.0063542267
133	0x3ca90338	0.020631418
134	0x3d0d1f54	0.034453705
135	0x3c812b30	0.015767664
136	0x3a13d613	0.00056395045
137	0x3ca1571b	0.019694855
138	0xbb8bc265	-0.004265117
139	0x3c88d55c	0.0167033
140	0xbc0040ac	-0.007827919
141	0xbbb2f5b4	-0.005461419
142	0xbc86b7df	-0.016445098
143	0x3bdb3d98	0.006690692
144	0x3c63ef33	0.01391201
145	0x3ba6f347	0.005094919
146	0xbd05ee13	-0.03269775
147	0xbc4d4960	-0.012529701
148	0x3d1c3ad9	0.03814206
149	0x3b7a54e5	0.0038197574
150	0x3c639121	0.013889582
151	0x3bf6b5af	0.0075289826
152	0x3935e200	0.00017345697
153	0x3ca588a9	0.020206766
154	0x3cae3334	0.02126465
155	0xbd2a29b2	-0.04154367
156	0xbb82faef	-0.003997199
157	0x3cd34f60	0.025794685
158	0xbc254b7b	-0.010088797
159	0xbc89d841	-0.01682675
160	0xbc0bc83e	-0.008531628
161	0xbcacb2f1	-0.02108142
162	0x3c92d41b	0.017923405
163	0xbd9010aa	-0.070344284
164	0xbd824166	-0.0636013
165	0x3d96ab82	0.07356931
166	0xbd8c4d21	-0.06850649
167	0x3d01d7cf	0.03169995
168	0xbce3fe82	-0.02783132
169	0xbcdf9794	-0.027293958
170	0xbda6b881	-0.0814066
171	0x3c6ea6da	0.014566148
172	0xbc38421a	-0.011246229
173	0xba95fb81	-0.0011442752
174	0x3d072235	0.032991607
175	0xbd08287f	-0.033241745
176	0xbdac7752	-0.08421196
177	0x3b953601	0.004553557
178	0xbdc485b6	-0.09595816
179	0x3c954ac9	0.018224137
180	0x3bf3f707	0.0074452194
181	0xbdfb5db4	-0.12273732
182	0x3c06cd09	0.008227595
183	0x3d82deda	0.06390162
184	0xbcd2f75e	-0.02575272
185	0xbb4a7228	-0.0030890796
186	0xbc975ee7	-0.01847787
187	0x3cac106d	0.021003926
188	0x3d514682	0.051092632
189	0x3c843316	0.01613764
190	0xbc300f25	-0.010745798
191	0x3ceda4ff	0.02900934
192	0xbcd8b8d1	-0.026455315
193	0x3d246371	0.040133897
194	0x3ba835ae	0.0051333522
195	0x3b5db277	0.0033828297
196	0xbcc1b295	-0.023644725
197	0x3cb29563	0.021799749
198	0x3d42aee9	0.04753009
199	0xbd1afbc9	-0.037837777
200	0x3cadaaad	0.021199549
201	0x3c40798b	0.011747728
202	0x3cbc9d0e	0.023024108
203	0xbd219142	-0.03944517
204	0xbd35fd3d	-0.04443096
205	0x3a540144	0.0008087347
206	0x3d033d13	0.032040667
207	0x3d0672c6	0.0328243
208	0xbcb4d239	-0.022072898
209	0xbc660e8c	-0.014041554
210	0xbca946db	-0.02066367
211	0x3d09799c	0.03356324
212	0x3c6e77ad	0.0145549
213	0xbc241c6a	-0.01001654
214	0x3d224f16	0.039626203
215	0xbcca0060	-0.024658382
216	0xbc12c3ee	-0.008957846
217	0xbd206c88	-0.039166003
218	0xbc4f70c1	-0.01266116
219	0xbd2b99d5	-0.041894753
220	0xbc58ecd1	-0.013240055
221	0xbc5bd910	-0.013418451
222	0x3c7ed035	0.01555257
223	0x3d1ea7a5	0.038734097
224	0x3c243b85	0.010023956
225	0xbd5dedb7	-0.05418178
226	0xbb87960f	-0.0041377614
227	0xbc8a9927	-0.016918732
228	0x3be3a83f	0.0069475467
229	0x3b88d0ee	0.004175297
230	0xbca73a01	-0.0204134
231	0xbd7e8a6d	-0.06214373
232	0xbd04bfa9	-0.032409344
233	0xbe15ee6c	-0.14641732
234	0x3dbcd216	0.09219758
235	0xbc90bbc0	-0.017667651
236	0x3ba69e33	0.005084777
237	0x3d162a56	0.03666147
238	0x3d978e5c	0.074002
239	0x3d17f01e	0.037094228
240	0xbcf5f4ed	-0.030024016
241	0xbb8eb754	-0.0043553505
242	0xbdb6e150	-0.08929694
243	0x3ca2aee0	0.019858778
244	0xbc04cff9	-0.008106225
245	0xbcea316b	-0.028588017
246	0xbd006707	-0.031348255
247	0x3b7a8175	0.0038224135
248	0xbbbe41e0	-0.0058061928
249	0x3bcbd8ea	0.0062209265
250	0xbd695908	-0.056969672
251	0xbbd53614	-0.0065066908
252	0xbc8cecce	-0.017202761
253	0x3cbcfc13	0.023069417
254	0x3c5afcfb	0.013365979
255	0x3bcdba97	0.0062783468

dec_convtrans1.bias f4 [64]
0	0xbc715b49	-0.014731237
1	0x3acf07d5	0.0015795181
2	0x3c2c87d9	0.0105304355
3	0x3bb31e3d	0.005466251
4	0x3d17d6b2	0.037069984
5	0x3c1872c5	0.009304707
6	0xbcd9343d	-0.026514167
7	0x3cfef64d	0.031123305
8	0x3ce03c9c	0.02737265
9	0x3d488043	0.048950445
10	0xbd963192	-0.073336735
11	0x3d627f32	0.055297084
12	0xbce21ef2	-0.027602646
13	0x3cd403e2	0.025880758
14	0x3ccdb4d8	0.025110647
15	0xbc512403	-0.0127649335
16	0x3ac7c414	0.0015240931
17	0x3d230d99	0.03980789
18	0x3d8a1a44	0.06743291
19	0xbcd2d7e1	-0.025737705
20	0x3d8386be	0.064221844
21	0x3d1add60	0.037808776
22	0xbc65751e	-0.014004974
23	0x3d927bc1	0.071525104
24	0x3ce07129	0.027397709
25	0x3d107fb9	0.035278056
26	0x3d3d421c	0.046205625
27	0xbd305420	-0.043048978
28	0x3d065966	0.0328001
29	0xbd16392d	-0.03667562
30	0x3abcef1c	0.0014414522
31	0xbbb381c3	-0.0054781153
32	0xbd16852f	-0.036748108
33	0x3d2b70fe	0.041855805
34	0x3d3bade9	0.04582015
35	0xbc4605b9	-0.012086325
36	0x3cf90ea3	0.030402487
37	0x3c389541	0.011266054
38	0xbb7e6de3	-0.0038822822
39	0x3c2a8b88	0.010409243
40	0x3bb07654	0.0053851996
41	0x3d819d20	0.06328797
42	0xbc9b364c	-0.01894679
43	0xbd175d01	-0.03695393
44	0x3d022ca8	0.03178087
45	0x3d2c6789	0.042090926
46	0x3d2d5683	0.042318832
47	0x3c24be23	0.010055098
48	0x3d94dbd6	0.07268493
49	0x3d31c7de	0.0434035
50	0x3d47f118	0.04881391
51	0xbc4793a1	-0.012181194
52	0xbd3e663c	-0.046484217
53	0x3d61e406	0.0551491
54	0x3d85a276	0.065251276
55	0xbd569b5f	-0.052394267
56	0x3d8de1fc	0.06927869
57	0x3d1d00a1	0.038330678
58	0x3c1d941b	0.009617831
59	0xbd2f73de	-0.04283511
60	0xbce5c417	-0.028047604
61	0x3be94799	0.007119131
62	0x3d4d0958	0.05005774
63	0x3c8d3dd6	0.0172414

dec_conv1.weight f4 [64, 64, 3, 3]
0	0x3bbe4e72	0.0058076913
1	0x3c928bfa	0.017889012
2	0x3c82e7af	0.015979616
3	0xbd2aecaa	-0.041729607
4	0xbcbae161	-0.022812547
5	0xbcca2d6f	-0.024679868
6	0xbca55a17	-0.02018456
7	0xbc7a969a	-0.015294695
8	0x3c68f0fe	0.014217613
9	0xbc80c817	-0.01572041
10	0xbcfad679	-0.030619847
11	0xbb87c292	-0.0041430676
12	0x3cec8479	0.028871762
13	0xbc6173f1	-0.013760553
14	0x3a849600	0.0010115504
15	0x3c151766	0.009099817
16	0xbcee9ef9	-0.029128538
17	0x3c383017	0.011241934
18	0xbc04cda3	-0.008105668
19	0xbc808716	-0.015689414
20	0x3d265847	0.04061153
21	0xbbf8b5d8	-0.007590037
22	0x3bc5d1d0	0.0060369745
23	0xbc8bef7c	-0.017081968
24	0x3b6ed8e2	0.003644519
25	0x3ce15b7b	0.027509442
26	0x3cc47bd3	0.023984825
27	0xbcebe8da	-0.028797556
28	0xbd421d79	-0.04739139
29	0x3ca18f6a	0.019721705
30	0xbd2d5f09	-0.04232696
31	0xbd2f6fd9	-0.042831276
32	0x3ccd40b4	0.025055267
33	0xbcddffae	-0.027099457
34	0x3cb11c40	0.021619916
35	0xbcf812d1	-0.03028241
36	0x3d640958	0.055672973
37	0x3a655326	0.0008748047
38	0xba8cec2e	-0.0010751539
39	0x3cdd2972	0.026997302
40	0x3c84767a	0.016169775
41	0xbcd00656	-0.025393646
42	0xbb7da5d4	-0.0038703578
43	0xbca2b337	-0.019860847
44	0x3c53aeb9	0.012920075
45	0x3c4530d7	0.01203557
46	0xbd3c5ad1	-0.045985047
47	0xbd005592	-0.031331606
48	0x3d035dc1	0.032071833
49	0x3daf2676	0.08552258
50	0xbb8c4f18	-0.0042818896
51	0x3ce42671	0.027850362
52	0x3d0da358	0.034579605
53	0xbc87ee46	-0.01659311
54	0x3b8d0e19	0.004304659
55	0x3c0e0f6c	0.008670669
56	0xbb81c3b8	-0.003960099
57	0x3b1a1651	0.0023511837
58	0xbb4fd9dd	-0.003171555
59	0xb9ff86a0	-0.00048737694
60	0xbc7dfa53	-0.0155015765
61	0x3c45749a	0.012051726
62	0x3ce3fc54	0.02783028
63	0xbcc5df98	-0.02415447
64	0xbcafb762	-0.021449748
65	0xbc26aa21	-0.010172398
66	0xbbffd84f	-0.0078077684
67	0xbb3b55f7	-0.0028585175
68	0xbcea2995	-0.028584281
69	0x3ac1990d	0.0014770344
70	0xbc88a16c	-0.016678534
71	0xbc506ee4	-0.012721751
72	0x3d51aabc	0.051188216
73	0x3d05381a	0.032524206
74	0xbcda92fc	-0.026681416
75	0xbb9817ce	-0.0046415096
76	0x3c8948e5	0.016758392
77	0xbd0edfe3	-0.034881484
78	0x3aa29946	0.0012405298
79	0x3d02bcac	0.031918213
80	0x3cdca537	0.02693425
81	0xbbd1b028	-0.0063991733
82	0xbcb09bd4	-0.02155868
83	0xbcb3c8aa	-0.02194627
84	0x3ce1e79c	0.02757626
85	0x3d5a0e60	0.053236365
86	0xbcdd54b0	-0.027017921
87	0xbc19b30f	-0.00938107
88	0x3c190ef1	0.009341941
89	0xbc9314a2	-0.017954174
90	0x3b74999c	0.0037323004
91	0x3d224645	0.039617795
92	0x3d7a2dd7	0.061078873
93	0xbd004700	-0.03131771
94	0xbb99bfd4	-0.004692057
95	0x3bd86e0e	0.0066049164
96	0x3d272091	0.040802542
97	0x3d235253	0.039873432
98	0x3c249bed	0.010046941
99	0xbccce7ea	-0.025012929
100	0xbcbf1ea2	-0.023330037
101	0x3d0cbd04	0.034359947
102	0x392153a0	0.00015385309
103	0xbd3b85ee	-0.045782022
104	0xbd25121f	-0.040300485
105	0x3c9f5f2f	0.019454567
106	0x3cf01333	0.02930603
107	0xbd066549	-0.032811437
108	0x3c4ce47d	0.012505648
109	0x3c9fb742	0.019496564
110	0xbc784701	-0.015153647
111	0xbb83816f	-0.0040132324
112	0x3bcb59c3	0.006205769
113	0x3be53953	0.006995359
114	0x3cca08b6	0.024662357
115	0x3d092a24	0.033487454
116	0xbc484a77	-0.012224785
117	0xbc92e2d4	-0.017930426
118	0x3ce80ab5	0.028325418
119	0xbc7e4cf3	-0.015521276
120	0x3c6efc56	0.014586529
121	0x3c0028d3	0.007822233
122	0x3ca3308f	0.019920615
123	0xbcb9a0f1	-0.02265975
124	0xbcbc6c89	-0.023000972
125	0x3a20d16a	0.0006134721
126	0xbae341e6	-0.0017338365
127	0x3d2ecb7e	0.042674534
128	0xbae86a80	-0.0017731935
129	0x3d6e1116	0.058121763
130	0x3cb78cc1	0.022405984
131	0x3d3e0937	0.046395507
132	0x3c7aeb6a	0.015314916
133	0xbcaa7772	-0.02080891
134	0x3ce6e180	0.028183699
135	0x3c42f0a8	0.011898197
136	0xbd3f87e1	-0.046760444
137	0x3d3216ab	0.04347865
138	0xbce437a8	-0.02785857
139	0xbc5f6735	-0.013635446
140	0x3cd41e46	0.025893342
141	0x3ccf5035	0.0253068
142	0x3b059f7f	0.0020389257
143	0x3d442bef	0.04789346
144	0xbc2ebc55	-0.010665019
145	0xbb0b8b61	-0.0021292793
146	0xbce20dd1	-0.027594479
147	0xbd1959c6	-0.03743913
148	0xbc2a2a5f	-0.010386079
149	0x3cf8c5ce	0.030367758
150	0x3ab85a56	0.0014065008
151	0x3b93e456	0.0045133037
152	0x3c28289d	0.010263589
153	0x3c62313f	0.0138056865
154	0x3cd7e566	0.026354503
155	0x3d0ab078	0.0338597
156	0xbcfccda8	-0.030859783
157	0x3c809a18	0.015698478
158	0xbd06cdd4	-0.032911137
159	0x3b902dfc	0.004400013
160	0x3d201f5f	0.039092418
161	0xbcef99bc	-0.029248111
162	0x3cd49314	0.025949039
163	0xbca30c1f	-0.01990324
164	0x3cf78f34	0.030219652
165	0x3d437e2f	0.04772776
166	0x3d24cc00	0.040233612
167	0xbcf9c527	-0.030489517
168	0x3cfbcde7	0.03073783
169	0xbcc6ea40	-0.024281621
170	0xbc730de3	-0.014834854
171	0x3b344d36	0.0027511842
172	0xbcbd4135	-0.023102382
173	0xbd079798	-0.033103555
174	0x3d04b9ac	0.032403633
175	0x3c4382d6	0.011933049
176	0x3c12753b	0.008939083
177	0x3cd9a1a3	0.026566332
178	0x3d0fdc08	0.035121948
179	0x3d4a432d	0.04938047
180	0xbb923803	-0.0044622435
181	0x3d2d15e8	0.04225722
182	0x3caf1acf	0.021375088
183	0x3d8147ce	0.06312524
184	0x3cd9669c	0.026538186
185	0xbbdadb61	-0.006678984
186	0x3b9b89a1	0.0047466313
187	0x3cdd5b27	0.027021004
188	0xbd263c0e	-0.040584616
189	0x3d09e597	0.03366622
190	0x3d25896e	0.040414266
191	0xbcf82018	-0.030288741
192	0x3d7482ce	0.059695058
193	0x3d88ede9	0.06686003
194	0xbc1cd50c	-0.009572279
195	0xbc834411	-0.016023668
196	0x3ca46833	0.020069217
197	0x3ceebdc8	0.02914323
198	0x3d01d0c0	0.03169322
199	0x3c3ea798	0.011636637
200	0x3c0b4b52	0.0085018445
201	0xbb10369b	-0.0022005204
202	0x3bc01337	0.0058616656
203	0xbc9a19c8	-0.018811122
204	0xbc5256cc	-0.012838077
205	0xbd22b817	-0.039726343
206	0x3c2c61ae	0.0105213355
207	0x3cd0cd57	0.025488539
208	0x3d624bc8	0.055248052
209	0x3b51d59b	0.0032018188
210	0x3d33f93d	0.043938864
211	0xbc496f78	-0.012294643
212	0xbc19d924	-0.009390149
213	0x3bad476a	0.0052880542
214	0xbcb980e8	-0.022644475
215	0x3c54012d	0.012939733
216	0x3d4eb146	0.05046203
217	0x3c86eacb	0.01646938
218	0x3d12a9ae	0.03580635
219	0xbb84734b	-0.0040420643
220	0x39ddab74	0.00042280147
221	0x3d116584	0.035497203
222	0x3cf74170	0.03018257
223	0xbcb65ff5	-0.022262553
224	0xbbdf619e	-0.006817057
225	0x3c7dd542	0.015492739
226	0x3d472364	0.048617736
227	0x3cb88fc4	0.02252949
228	0xbb1e8a23	-0.0024191223
229	0xbbf38add	-0.0074323253
230	0xbc824ed4	-0.015906729
231	0x3d1a3627	0.0376493
232	0x3c765fb9	0.0150374705
233	0xbd039336	-0.032122813
234	0x3ced7226	0.028985094
235	0xbcd5a6c3	-0.026080495
236	0xbcb30d64	-0.021856971
237	0xbc4022d1	-0.011727051
238	0x3d05d47d	0.032673348
239	0xbcb514c1	-0.022104623
240	0x3af546e5	0.0018713145
241	0x3d336dac	0.043805763
242	0xbcca5ee8	-0.024703458
243	0xbd110525	-0.035405297
244	0x3c059408	0.008152969
245	0x3ceb9f27	0.028762413
246	0xba82fb69	-0.0009993139
247	0xbd2ed984	-0.042687908
248	0x3c91c6cc	0.017794989
249	0x3c97b710	0.018519908
250	0x3d19c979	0.037545655
251	0x3b4ca304	0.0031225095
252	0xbb8a393d	-0.004218249
253	0x3cdbfe7a	0.026854742
254	0x3d478240	0.0487082
255	0x3d2dd001	0.042434696

dec_conv1.bias f4 [64]
0	0x3d4b2103	0.04959203
1	0xbcdb1d63	-0.026747411
2	0x3d8c662b	0.068554245
3	0x3d0754c8	0.033039838
4	0x3d747d8f	0.059690055
5	0x3d865e1a	0.06560917
6	0xbb60d3b2	-0.0034305868
7	0xbd0e3f46	-0.03472831
8	0x3d23a7b5	0.03995486
9	0x3c24c3c2	0.010056438
10	0x3d1d9d4b	0.038480084
11	0x3d073797	0.033012
12	0x3d64a250	0.055818856
13	0xbcabe5b6	-0.020983558
14	0xbd45e979	-0.04831836
15	0xbc1e4b79	-0.009661549
16	0x3cf43f30	0.029815286
17	0x3d115028	0.035476834
18	0xbccb1960	-0.024792373
19	0xbc61904d	-0.013767314
20	0xbb27c554	-0.0025599794
21	0x3cf8ce9d	0.030371958
22	0x3d00c775	0.031440217
23	0xbc8fc181	-0.017548325
24	0x3d5cb41c	0.053882703
25	0x3d32b927	0.043633606
26	0x3d0e0d1b	0.034680467
27	0xbc9a91f4	-0.018868424
28	0x3ca9653d	0.020678157
29	0x3ca2890d	0.019840742
30	0x3bf7c18d	0.007560915
31	0x3d4f1aa0	0.0505625
32	0x3c982b64	0.018575378
33	0xbc156854	-0.009119112
34	0x3b98ac04	0.0046591777
35	0x3c474722	0.0121629555
36	0x3ca798d4	0.020458616
37	0xbc8441e7	-0.016144706
38	0x3d5be610	0.0536862
39	0x3d158778	0.036506146
40	0xbd2a0662	-0.041509993
41	0xbdc04583	-0.09388258
42	0xbc49abbf	-0.012309014
43	0x3b5c9b3b	0.003366186
44	0xbca24999	-0.019810485
45	0xbc8df4cc	-0.017328642
46	0xbd0b60e5	-0.034027953
47	0x3c9b5c97	0.018965049
48	0xbd3f0a01	-0.0466404
49	0xbcdd122b	-0.026986202
50	0xbcf4cdda	-0.029883314
51	0x3d33c878	0.043892354
52	0x3c98fac0	0.018674254
53	0x3d86618a	0.06561573
54	0xbd4b2072	-0.04959149
55	0x3d594362	0.053042777
56	0xbc96c5a2	-0.018404786
57	0x3cd8ed06	0.02648021
58	0xbd338c7b	-0.043835144
59	0x3c6c5b57	0.014426074
60	0xbccbdb28	-0.024884775
61	0xbce9f5c3	-0.028559571
62	0xbca2c61f	-0.019869862
63	0x3d09e54e	0.033665948
