HW4/model_state_dict.pth (torch, 627479 bytes, 60 tensors)

encoder1.weight f4 [10, 3, 10, 10]
-0.021311851 -0.019638367 -0.06494477 -0.023654254 -0.104660675 -0.028736426 -0.07243619 -0.053453512
-0.026882237 0.034239102 0.059454337 0.16228916 0.13219537 0.09831029 0.09237594 0.14763457
0.1629984 0.18098934 0.24836394 0.11986518 0.28547356 0.4180633 0.4201606 0.35031915
0.45659444 0.42378047 0.37382713 0.38455305 0.39907917 0.33397505 0.38097617 0.50768083
0.51200664 0.5146338 0.4629128 0.5189742 0.48246995 0.449485 0.4670733 0.40506402
0.40311787 0.4904676 0.5255733 0.51753724 0.4732657 0.51137394 0.4876886 0.5578714
0.53635895 0.37581778 0.40287313 0.54990846 0.5312208 0.56136715 0.521766 0.4907848
0.5078783 0.49742562 0.53784007 0.38960642 0.41252837 0.4803984 0.5396202 0.59224105
0.57606286 0.5733316 0.5999683 0.5147392 0.5248619 0.45283946 0.41478115 0.58090436
0.50996554 0.55730605 0.5415365 0.570276 0.558797 0.5698359 0.55267096 0.4598453
0.38832277 0.58438355 0.5489753 0.53416944 0.59919846 0.6129093 0.5503251 0.58823824
0.60100424 0.503621 0.41368473 0.5075535 0.56705135 0.6540912 0.5501948 0.6563452
0.641941 0.56952953 0.647107 0.4891617 -0.1505102 -0.051711615 -0.08370543 -0.21675092
-0.1442825 -0.16795747 -0.17336255 -0.09464572 -0.109829396 -0.059864216 0.020384822 0.03541289
0.0863148 0.019964492 -0.010589691 -0.02201061 0.015067063 0.1095847 0.102583535 0.049949005
0.19319561 0.28463274 0.2741681 0.30405775 0.31438687 0.33928353 0.29823244 0.36826754
0.3787821 0.14342259 0.21080305 0.37681317 0.39993274 0.44541463 0.43898645 0.3489413
0.36066395 0.451661 0.38476065 0.26046532 0.29678032 0.4246901 0.4576601 0.44046885
0.43768108 0.45080015 0.40404147 0.38795948 0.3721722 0.27260974 0.26943573 0.48051465
0.403751 0.49844643 0.4144553 0.41066825 0.41127765 0.43668032 0.4016431 0.344334
0.31161198 0.48335582 0.44755447 0.44534096 0.46485582 0.49199045 0.52126783 0.515053
0.4987104 0.2993978 0.25394678 0.48370463 0.44234744 0.48366547 0.45991746 0.47724244
0.5335189 0.47041342 0.46213913 0.32455525 0.28691587 0.4996811 0.4542628 0.49291757
0.5199842 0.52228624 0.47627354 0.44082177 0.44204825 0.3184597 0.24403958 0.40255618
0.5354729 0.43388122 0.52175593 0.5472583 0.5279454 0.45505002 0.4349103 0.3305864
-0.21872495 -0.22986348 -0.23785846 -0.17754823 -0.23908907 -0.19079609 -0.17427383 -0.16256149
-0.19495296 -0.22569007 -0.08971813 0.0146523295 -0.08062789 -0.00524309 -0.049421575 -0.083052605
0.024979131 0.0018800229 0.038712148 -0.11109022 0.05055135 0.23881812 0.2770849 0.21987055
0.2799256 0.30253404 0.21025965 0.20653416 0.26312703 0.13239032 0.098428436 0.26841226
0.3716796 0.30479893 0.36078238 0.3480268 0.26558995 0.2699901 0.326413 0.19389318
0.15053631 0.321601 0.35349962 0.29285252 0.30907995 0.38024348 0.30756748 0.40307644
0.28778318 0.25403816 0.12962379 0.3165099 0.3928643 0.42172325 0.36849397 0.37467736
00000000: 3196 aebc a4e0 a0bc c301 85bd 91c6 c1bc
00000010: 5658 d6bd a768 ebbc 6d59 94bd 12f2 5abd
00000020: 2338 dcbc 4d3e 0c3d 6486 733d 212f 263e
00000030: 395e 073e e856 c93d 992f bd3d 842d 173e
00000040: 0de9 263e 4555 393e 1e53 7e3e e07b f53d
00000050: 9729 923e 650c d63e 4a1f d73e 085d b33e
00000060: bfc6 e93e c1f9 d83e 4566 bf3e 23e4 c43e
00000070: 1b54 cc3e c7fe aa3e 4f0f c33e 5ff7 013f
00000080: de12 033f 0abf 033f e802 ed3e 7edb 043f
00000090: 4d06 f73e e622 e63e 3b24 ef3e 8d64 cf3e
000000a0: 7765 ce3e 921e fb3e f98b 063f 527d 043f
000000b0: e24f f23e 67e9 023f 52b2 f93e a9d0 0e3f
000000c0: d24e 093f 306b c03e 6345 ce3e cdc6 0c3f
000000d0: 16fe 073f c2b5 0f3f 7592 053f 2548 fb3e
000000e0: 5004 023f 92ae fe3e e3af 093f 7e7a c73e
000000f0: eb36 d33e c7f6 f53e 8d24 0a3f 1c9d 173f
00000100: db78 133f dcc5 123f 8697 193f f3c5 033f
00000110: 595d 063f 93da e73e 325e d43e 26b6 143f
00000120: 1a8d 023f 9cab 0e3f 23a2 0a3f 9cfd 113f
00000130: 520d 0f3f c4e0 113f d87b 0d3f d870 eb3e
00000140: 3ed2 c63e 299a 153f a589 0c3f 54bf 083f
00000150: 1265 193f a0e7 1c3f 1be2 0c3f c896 163f
00000160: 6adb 193f 4eed 003f 7cce d33e 07ef 013f
00000170: 472a 113f 8572 273f 91d9 0c3f 3d06 283f
00000180: 3f56 243f b0cc 113f cea8 253f 6773 fa3e
00000190: 591f 1abe 8fcf 53bd c16d abbd f4f3 5dbe
000001a0: cbbe 13be 0bfd 2bbe f485 31be 9ed5 c1bd
000001b0: 3cee e0bd 2e34 75bd 12fe a63c 1b0d 113d
000001c0: d0c5 b03d 938c a33c 6280 2dbc 984f b4bc
000001d0: d8db 763c f16d e03d 5117 d23d 5497 4c3d
000001e0: 12d5 453e 62bb 913e c35f 8c3e 75ad 9b3e
000001f0: 51f7 a03e 92b6 ad3e ecb1 983e 908d bc3e
00000200: baef c13e 5fdd 123e c1dc 573e a8ed c03e
00000210: fcc3 cc3e 630d e43e d5c2 e03e 6fa8 b23e
00000220: f2a8 b83e 1c40 e73e 59ff c43e b65b 853e
00000230: 97f3 973e fb70 d93e 6d52 ea3e 2285 e13e
00000240: bc17 e03e 47cf e63e 86de ce3e a0a2 c63e
00000250: 5b8d be3e 8193 8b3e 7bf3 893e 0406 f63e
00000260: 73b8 ce3e 5f34 ff3e 7c33 d43e 1c43 d23e
00000270: fc92 d23e 9094 df3e 2aa4 cd3e 8c4c b03e
00000280: 9b8b 9f3e 6a7a f73e dc25 e53e bb03 e43e
00000290: 9501 ee3e 2ce6 fb3e cf71 053f 83da 033f
000002a0: f856 ff3e ab4a 993e 5005 823e 22a8 f73e
000002b0: 5d7b e23e 00a3 f73e 4d7a eb3e 1f59 f43e
000002c0: b294 083f 07da f03e 809d ec3e 1b2c a63e
000002d0: a3e6 923e 33d6 ff3e 2295 e83e b15f fc3e
000002e0: af1d 053f 8db4 053f 20da f33e 64b3 e13e
000002f0: 2654 e23e 260d a33e 83e5 793e d81b ce3e
00000300: c114 093f ae25 de3e cc91 053f 1f19 0c3f
00000310: 6e27 073f 51fc e83e 90ac de3e 9f42 a93e
00000320: 6ff9 5fbe 5561 6bbe 2b91 73be 34cf 35be
00000330: c4d3 74be 0d60 43be d774 32be 8576 26be
00000340: c0a1 47be 4c1b 67be 24be b7bd 5310 703c
00000350: 3c20 a5bd 3ace abbb 476e 4abd 7c17 aabd
00000360: 09a1 cc3c 1a6b f63a a190 1e3d 4583 e3bd
00000370: ef0e 4f3d bd8c 743e 12de 8d3e bf25 613e
00000380: 6952 8f3e bee5 9a3e 4e4e 573e b17d 533e
00000390: 96b8 863e 5491 073e d994 c93d 556d 893e
000003a0: ca4c be3e 9b0e 9c3e 78b8 b83e 9230 b23e
000003b0: 68fb 873e 243c 8a3e 9b1f a73e ef8b 463e
000003c0: 3126 1a3e e3a8 a43e e7fd b43e c4f0 953e
000003d0: ba3f 9e3e 46af c23e 7c79 9d3e 0960 ce3e
000003e0: 5158 933e 4a11 823e 19bc 043e 960d a23e
000003f0: 8225 c93e 1cec d73e 3eab bc3e b6d5 bf3e

encoder1.bias f4 [10]
-0.2409149 0.11731914 -0.71195793 0.18106501 0.11881066 0.17892979 0.09192509 0.16200933
-0.06937303 -0.04558459
00000000: 65b2 76be 0445 f03d e042 36bf 1b69 393e
00000010: 0153 f33d 5f39 373e 3943 bc3d c6e5 253e
00000020: 7213 8ebd e8b6 3abd

encoder2.weight f4 [16, 10, 8, 8]
0.008499655 -0.0013156163 -0.006875345 0.010809179 0.052778095 0.03197801 -0.028320186 0.0038623721
-0.03076373 -0.007159012 -0.009916367 0.05875911 0.05691805 0.045044374 -0.019536031 -0.0071952087
-0.008563565 0.017956946 0.05647701 0.062468957 0.053357586 0.05368931 0.05196756 0.05721162
0.01993777 0.04982943 0.068920456 0.009209017 0.0077259084 0.034929316 0.038769025 -0.014669304
-0.0028413404 0.05016808 0.046825144 0.03748245 0.031862628 0.069384255 0.045237858 0.0036138
-0.028479826 0.044490725 0.01446332 0.0153884925 0.00081722194 0.06932469 0.034757283 0.032416172
0.036301013 0.02478897 0.06867334 -0.008621923 0.014981373 0.0038363517 0.014049164 0.0050484263
0.01881049 -0.004020861 0.057375252 0.0568793 0.0565165 0.020553831 -0.010183206 -0.005648545
-0.122538745 -0.13537541 -0.074949436 -0.09924821 -0.07606762 -0.013767125 -0.088638484 -0.08001896
-0.1519077 -0.15240736 -0.062631376 -0.09933099 -0.11424437 -0.10267206 -0.1459372 -0.1292322
-0.17834343 -0.2094974 -0.16399243 -0.14420003 -0.125098 -0.12060554 -0.18631472 -0.13673814
-0.1509632 -0.12637004 -0.061543122 -0.10266695 -0.10921432 -0.09128448 -0.10466128 -0.15115608
-0.08339698 -0.06032822 -0.008246698 -0.05487764 -0.036486022 -0.052660774 -0.04809513 -0.123066634
-0.09405042 -0.062074494 0.02284829 0.019864894 0.013765109 0.0052923923 -0.041318428 -0.09149868
-0.051646393 -0.10097911 -0.035095364 -0.054346077 -0.010285844 -0.03896079 -0.029655423 -0.12097389
-0.10876369 -0.060098812 -0.0382277 -0.06449066 -0.022581581 -0.03629908 -0.09543254 -0.08905137
-0.048253234 -0.042371355 0.013807015 0.0016563277 0.010031627 -0.019043338 0.0019302136 -0.019100713
0.015409123 -0.01841651 0.035332736 0.01060754 0.050289325 0.05361684 0.006867209 0.01563371
-0.011487009 -0.0023893209 0.04330596 0.033722308 0.07863582 0.028072145 0.017210202 0.018551333
0.04776117 -0.024380028 0.08075828 0.012949663 0.07316216 0.031714506 0.01295089 0.001718683
0.0140229035 -0.024021478 0.064963564 0.0481928 0.055332504 0.05252885 0.012080408 0.039806996
0.048997175 -0.007429027 0.012096522 0.012072416 0.0007495606 0.020224549 0.038651757 0.036742028
-0.019171787 -0.034403086 0.048159547 -0.0011673502 0.0428096 0.04541671 0.050123926 0.050051212
0.009395985 0.014655212 0.027250247 0.066396765 0.0010928513 -0.0014727694 0.030496966 0.04393311
-0.04641864 -0.088804625 -0.046702266 -0.07988005 -0.0631144 -0.023901757 -0.01591108 -0.07350461
-0.094534025 -0.13200964 -0.05172316 -0.108410254 -0.05849661 -0.05814571 -0.106639564 -0.14436077
-0.21839677 -0.17910942 -0.1464229 -0.17972076 -0.19064586 -0.14320877 -0.19183506 -0.19655655
-0.18625882 -0.16641407 -0.05869567 -0.11358149 -0.13485152 -0.07396504 -0.16360433 -0.11643674
-0.14529587 -0.12344914 -0.073773414 -0.0686614 -0.03375243 -0.01790185 -0.050556634 -0.13217825
-0.047808547 -0.03860386 -0.0057474105 -0.014790064 -0.02983479 0.00845711 -0.06804645 -0.10269181
-0.07796012 -0.036275882 0.01146811 0.010025771 0.018172951 -0.039007593 -0.08838523 -0.054372463
-0.082135215 -0.07418722 0.018905893 -0.03978816 -0.026528565 -0.04174545 -0.088348754 -0.11539919
00000000: 2342 0b3c c270 acba 934a e1bb fc18 313c
00000010: d82d 583d 60fb 023d bcff e7bc da1f 7d3b
00000020: 3804 fcbc 2596 eabb 4278 22bc 64ad 703d
00000030: e722 693d 7380 383d 070a a0bc c9c5 ebbb
00000040: 324e 0cbc 721a 933c 7054 673d 73df 7f3d
00000050: 7c8d 5a3d 52e9 5b3d f0db 543d bb56 6a3d
00000060: 8954 a33c f219 4c3d 2b26 8d3d 6be1 163c
00000070: 9e29 fd3b 0b12 0f3d 45cc 1e3d 8557 70bc
00000080: c835 3abb 0b7d 4d3d b9cb 3f3d 3387 193d
00000090: 6382 023d 5519 8e3d 554b 393d 81d5 6c3b
000000a0: 864e e9bc e83b 363d 90f7 6c3c 0420 7c3c
000000b0: d63a 563a 1afa 8d3d a75d 0e3d d2c6 043d
000000c0: 5fb0 143d 3d12 cb3c 9ca4 8c3d f742 0dbc
000000d0: 6f74 753c 4d6b 7b3b 772e 663c 456d a53b
000000e0: 7518 9a3c 6dc1 83bb 5002 6b3d 45fa 683d
000000f0: d87d 673d 8260 a83c 76d7 26bc 6e17 b9bb
00000100: 98f5 fabd da9f 0abe 177f 99bd a542 cbbd
00000110: 57c9 9bbd 828f 61bc 1888 b5bd fbe0 a3bd
00000120: b18d 1bbe ad10 1cbe e144 80bd 0c6e cbbd
00000130: f4f8 e9bd bb45 d2bd 9070 15be 7255 04be
00000140: a99f 36be 7d86 56be a2ed 27be 2ca9 13be
00000150: b119 00be 0a00 f7bd 49c9 3ebe 1505 0cbe
00000160: 1996 1abe 2667 01be a414 7cbd 0d43 d2bd
00000170: c2ab dfbd 5cf3 babd a758 d6bd a9c8 1abe
00000180: 09cc aabd b91a 77bd 291d 07bc 60c7 60bd
00000190: 5e72 15bd d3b2 57bd 66ff 44bd 5c0a fcbd
000001a0: 829d c0bd d341 7ebd 562c bb3c b4bb a23c
000001b0: 0d87 613c ce6b ad3b 833d 29bd a963 bbbd
000001c0: 2b8b 53bd 23ce cebd 28c0 0fbd fe99 5ebd
000001d0: f585 28bc 5995 1fbd eeef f2bc 29c1 f7bd
000001e0: 7fbf debd 2c2a 76bd a694 1cbd ae13 84bd
000001f0: 02fd b8bc 58ae 14bd 2372 c3bd 9160 b6bd
00000200: 2fa5 45bd 968d 2dbd d136 623c 2319 d93a
00000210: b15b 243c c600 9cbc 39ff fc3a 1979 9cbc
00000220: 8c76 7c3c 39de 96bc 0fb9 103d 3fcb 2d3c
00000230: 2efc 4d3d 559d 5b3d 5306 e13b 4412 803c
00000240: 0234 3cbc 2796 1cbb 9761 313d 6720 0a3d
00000250: d10b a13d 8ef7 e53c 69fc 8c3c f7f8 973c
00000260: 37a1 433d a0b8 c7bc 9964 a53d d32a 543c
00000270: 0bd6 953d 12e7 013d f82f 543c 6f45 e13a
00000280: 52c0 653c b1c8 c4bc 9e0b 853d d065 453d
00000290: 56a4 623d 7e28 573d e7ec 453c a90c 233d
000002a0: 43b1 483d 326f f3bb 7e30 463c 62cb 453c
000002b0: 297e 443a f4ad a53c 4e51 1e3d cf7e 163d
000002c0: 270e 9dbc 40ea 0cbd f242 453d c601 99ba
000002d0: 1e59 2f3d df06 3a3d bf4e 4d3d 8002 4d3d
000002e0: 9ef1 193c 6a1c 703c e93b df3c 07fb 873d
000002f0: 013e 8f3a f109 c1ba c6d4 f93c 34f3 333d
00000300: 7921 3ebd 33df b5bd e04a 3fbd 2798 a3bd
00000310: 1f42 81bd 9ecd c3bc f457 82bc 9689 96bd
00000320: 0e9b c1bd 892d 07be aadb 53bd 3206 debd
00000330: 249a 6fbd 322a 6ebd d865 dabd 4fd3 13be
00000340: 67a3 5fbe 7668 37be e2ef 15be b808 38be
00000350: ab38 43be 52a5 12be 6970 44be 1f46 49be
00000360: a2ba 3ebe 7368 2abe df6a 70bd 6a9d e8bd
00000370: 8416 0abe fc7a 97bd e587 27be 6376 eebd
00000380: 71c8 14be e7d2 fcbd 8416 97bd 599e 8cbd
00000390: fd3f 0abd e7a6 92bc 7914 4fbd bc59 07be
000003a0: e5d2 43bd 151f 1ebd c654 bcbb 0652 72bc
000003b0: 1768 f4bc b18f 0a3c f05b 8bbd 1550 d2bd
000003c0: 8ea9 9fbd 0596 14bd bde4 3b3c 2243 243c
000003d0: 71df 943c 6dc6 1fbd 5103 b5bd a9b5 5ebd
000003e0: 8236 a8bd 78ef 97bd 88e0 9a3c e9f8 22bd
000003f0: 6f52 d9bc 47fd 2abd 31f0 b4bd 6956 ecbd

encoder2.bias f4 [16]
-0.011394633 -0.0318094 -0.0060228915 -0.083181836 0.010583585 -0.0038900436 0.13995333 -0.05278807
-0.006333187 0.061577402 -0.00012420486 -0.01711298 -0.03639698 -0.049778044 0.063523 -0.014986367
00000000: 8eb0 3abc 934a 02bd ad5b c5bb 3d5b aabd
00000010: c666 2d3c 1af0 7ebb ed4f 0f3e 4e38 58bd
00000020: a086 cfbb 9638 7c3d fd3c 02b9 8530 8cbc
00000030: 0015 15bd 10e4 4bbd 5918 823d 6189 75bc

encoder4.weight f4 [8, 16, 5, 5]
0.025477953 0.010088784 0.065641776 0.08955876 0.05525859 -0.025398538 -0.032414753 -0.054918755
0.02442971 -0.018987134 -0.031099973 -0.048349943 -0.090292275 -0.039166976 -0.04193824 -0.116266765
-0.061899245 -0.13927832 -0.04754092 -0.059850328 -0.06155568 -0.061648935 -0.10430455 -0.064152636
-0.06662974 0.07215643 0.079075225 0.08044526 0.063160315 0.029107556 -0.012056728 -0.05169914
0.0419251 0.024360726 0.008453681 -0.09084139 -0.019691093 -0.06115981 -0.044038814 -0.093226604
-0.08499421 -0.12043189 -0.06508397 -0.08993203 -0.041427948 -0.06500054 -0.037354488 -0.048351888
-0.03741847 -0.041180696 0.09618608 0.024931204 0.09936233 0.00752955 0.017710403 -0.04606789
0.018744253 0.009029016 0.0063749976 -0.032266572 -0.03757711 -0.039674103 -0.06279782 -0.050000258
-0.032388307 -0.088772975 -0.072070315 -0.036712524 -0.09263687 -0.07036618 -0.14052604 -0.06829574
-0.1349445 -0.12229224 -0.084749416 0.04116507 0.05613611 0.011355542 0.084706165 0.07722688
-0.0272307 -0.031351566 -0.045607094 -0.06158019 -0.074858755 -0.075819924 -0.06607212 -0.0282866
-0.10663085 -0.115136005 -0.080708854 -0.085288905 -0.04107569 -0.03417894 -0.08089513 -0.057794206
-0.06941892 -0.06192132 -0.048711665 -0.132913 -0.014291075 -0.036292274 -0.06453942 0.011957786
-0.04433748 0.05140732 0.07559991 0.012284678 -0.007204647 0.073435284 0.038912855 0.044379614
0.018058574 -0.010118905 0.022722261 0.056025635 0.085455306 0.02046681 0.023209684 0.04904043
0.07858386 0.10864656 0.048536655 0.06810133 0.14481723 0.009370077 0.08746859 0.022653095
0.07096874 0.04532689 0.025312895 0.0031728854 -0.040280223 -0.027933748 -0.02284064 -0.053974826
-0.023608504 -0.042523965 -0.010421984 -0.054024283 -0.10913506 -0.10458119 -0.11307898 -0.058672436
-0.06819662 -0.083238915 -0.07237441 -0.103671536 -0.12685126 -0.110864095 0.009267827 -0.035580955
-0.015841622 0.006863376 0.0023024874 -0.009853229 0.043174166 0.0631381 0.074499585 0.071457945
0.09292375 0.04163087 0.020018192 0.065143734 0.055854138 0.046574928 0.09691896 0.06895652
0.1137925 0.07701939 0.06265815 0.06699831 0.04212501 0.11859998 0.107087806 0.08598911
0.03092697 0.055286895 0.0021893852 0.031923536 0.002632427 0.04033687 -0.046240143 0.010010529
0.008494928 -0.07833924 -0.029392747 -0.09745592 -0.003439233 -0.010778862 -0.10727569 -0.057103954
-0.02126247 -0.11401292 -0.019656463 -0.043676928 -0.079776965 -0.04401763 -0.02369601 -0.046809655
0.0057758978 -0.043820553 -0.04251341 0.019216327 0.02980914 0.0056082266 0.090384826 0.015902465
0.07499485 0.06908723 0.023181709 0.09049401 0.012252427 0.04660904 0.046528343 0.110310175
0.10058741 0.11502141 0.13172682 0.06675981 0.098126546 0.1497507 0.14631568 0.114909425
0.13392977 0.020487169 0.016093796 0.005837621 0.008920674 0.017276892 0.06939846 0.046233866
-0.015220015 0.030583253 0.056061838 0.0753147 0.010582239 0.06270635 0.07312618 0.052121956
0.00795727 0.04683764 0.064725 0.0852527 0.029160349 0.07712074 0.11990669 0.07066588
0.09798436 0.12021781 -0.028119922 -0.00723086 -0.0056633167 0.04150559 -0.033015165 0.00014301717
00000000: 24b7 d03c 6d4b 253c 326f 863d 956a b73d
00000010: d556 623d 9810 d0bc 55c5 04bd 7df2 60bd
00000020: d120 c83c e88a 9bbc 5fc5 febc 970a 46bd
00000030: 28eb b8bd 8d6d 20bd 6fc7 2bbd 451d eebd
00000040: 108a 7dbd fa9e 0ebe 45ba 42bd 9e25 75bd
00000050: cf21 7cbd 9883 7cbd a09d d5bd 7562 83bd
00000060: 2c75 88bd c0c6 933d 31f2 a13d 7cc0 a43d
00000070: 325a 813d f872 ee3c 9589 45bc 7ac2 53bd
00000080: a7b9 2b3d 2590 c73c 4f81 0a3c 0d0b babd
00000090: 374f a1bc b582 7abd 0b62 34bd 97ed bebd
000000a0: 7211 aebd ffa4 f6bd bf4a 85bd 492e b8bd
000000b0: 5ab0 29bd 011f 85bd 0501 19bd a10c 46bd
000000c0: 1c44 19bd 17ad 28bd 35fd c43d 863c cc3c
000000d0: 7a7e cb3d 72ba f63b 6815 913c afb1 3cbd
000000e0: 8c8d 993c 70ee 133c 5be5 d03b f429 04bd
000000f0: 75ea 19bd 5081 22bd 259c 80bd 12cd 4cbd
00000100: 9aa9 04bd 9bce b5bd 9a99 93bd df5f 16bd
00000110: 66b8 bdbd 251c 90bd 0fe6 0fbe a3de 8bbd
00000120: e42e 0abe 5b74 fabd 1a91 adbd b49c 283d
00000130: faee 653d 980c 3a3c 6d7a ad3d 2029 9e3d
00000140: eb12 dfbc 806a 00bd 81ce 3abd 823b 7cbd
00000150: 8c4f 99bd 7a47 9bbd d250 87bd 4db9 e7bc
00000160: 4661 dabd 6dcc ebbd af4a a5bd f3ab aebd
00000170: fc3e 28bd 37ff 0bbd 59ac a5bd 9eb9 6cbd
00000180: 822b 8ebd 36a1 7dbd e285 47bd 581a 08be
00000190: 1d25 6abc 35a7 14bd 3e2d 84bd 97ea 433c
000001a0: 389b 35bd 7b90 523d 20d4 9a3d ad45 493c
000001b0: f614 ecbb 3d65 963d 1663 1f3d 66c7 353d
000001c0: 93ef 933c c4c9 25bc 0924 ba3c 237b 653d
000001d0: 3103 af3d 03aa a73c 3c22 be3c 9ede 483d
000001e0: 93f0 a03d 1682 de3d 5fce 463d b678 8b3d
000001f0: f84a 143e f484 193c bb22 b33d fc92 b93c
00000200: 0f58 913d b0a8 393d fd5c cf3c 2ff0 4f3b
00000210: e0fc 24bd 51d5 e4bc 4b1c bbbc b514 5dbd
00000220: 9f66 c1bc 9c2d 2ebd f8c0 2abc 9148 5dbd
00000230: 3482 dfbd aa2e d6bd f495 e7bd 8252 70bd
00000240: abaa 8bbd 2a79 aabd 0939 94bd be51 d4bd
00000250: 4ce5 01be b70c e3bd 15d8 173c 56bd 11bd
00000260: 4ac6 81bc 2ce6 e03b 54e5 163b 706f 21bc
00000270: 65d7 303d 8c4e 813d 3d93 983d 8b58 923d
00000280: cf4e be3d 2285 2a3d 31fd a33c 146a 853d
00000290: 4fc7 643d 5ac5 3e3d 737d c63d 1339 8d3d
000002a0: 0b0c e93d 58bc 9d3d eb52 803d 6936 893d
000002b0: 468b 2c3d 8ce4 f23d da50 db3d 0f1b b03d
000002c0: 8f5a fd3c 8374 623d ca7b 0f3b 41c2 023d
000002d0: cc84 2c3b 4638 253d 4e66 3dbd 3403 243c
000002e0: 4f2e 0b3c 5370 a0bd 0fc9 f0bc f896 c7bd
000002f0: c164 61bb d399 30bc 5bb3 dbbd d6e5 69bd
00000300: a22e aebc 9b7f e9bd 9706 a1bc 94e6 32bd
00000310: 1b62 a3bd d54b 34bd 221e c2bc 7bbb 3fbd
00000320: be43 bd3b 2e7d 33bd 8b22 2ebd 8f6b 9d3c
00000330: 4c32 f43c 37c5 b73b ae1b b93d e345 823c
00000340: e696 993d 9b7d 8d3d 91e7 bd3c ec54 b93d
00000350: 67be 483c 1fe9 3e3d 8194 3e3d 4dea e13d
00000360: c600 ce3d 5890 eb3d 65e3 063e 5eb9 883d
00000370: 92f6 c83d 3f58 193e c7d3 153e a255 eb3d
00000380: e324 093e b5d4 a73c 23d7 833c 8449 bf3b
00000390: 0528 123c 4588 8d3c c820 8e3d b95f 3d3d
000003a0: 5f5d 79bc bb89 fa3c 19a1 653d 983e 9a3d
000003b0: 2161 2d3c 306c 803d 2ec3 953d d57d 553d
000003c0: 365f 023c d3d8 3f3d 8a8e 843d f898 ae3d
000003d0: afe1 ee3c 7bf1 9d3d a491 f53d 46b9 903d
000003e0: 06ac c83d c134 f63d c05b e6bc daf0 ecbb
000003f0: 5893 b9bb c401 2a3d e93a 07bd e1f6 1539

encoder4.bias f4 [8]
-0.003537976 -0.052370463 0.00019701444 0.022421116 0.03204583 0.037382822 -0.06887939 -0.057969406
00000000: 63dd 67bb 6982 56bd a995 4e39 7dac b73c
00000010: 7d42 033d bb1e 193d a310 8dbd 5471 6dbd

encoder5.weight f4 [6, 8, 5, 5]
0.044582207 0.11424258 0.07850784 0.12829334 0.12808599 0.11527434 0.18968228 0.2640486
0.18129067 0.25497013 -0.16562006 -0.19154246 -0.05793963 -0.0626499 -0.092724286 -0.24223286
-0.28030849 -0.3119998 -0.30049503 -0.33972633 -0.30516717 -0.25549877 -0.25177982 -0.29967803
-0.19356117 -0.11131925 -0.020590069 -0.113564424 -0.14449583 -0.06357833 0.07850701 -0.030303609
-0.00041289572 -0.017784743 0.07991094 0.053821504 0.1462118 0.023232132 0.005778538 0.07507916
0.2224281 0.16701995 0.23854558 0.21564113 0.18555112 0.15121189 0.20525798 0.24436276
0.16752441 0.16958502 -0.028398285 -0.01498738 -0.097172156 -0.054389544 -0.085908845 0.25350732
0.23671062 0.23962812 0.17918251 0.27518034 -0.019520478 -0.017330065 -0.054424282 -0.104354
-0.071635514 -0.068081394 -0.11755662 -0.051262032 -0.12394988 -0.03824165 0.008717493 0.014005231
-0.060059298 -0.002245177 -0.097097464 -0.17212614 -0.1927738 -0.1499517 -0.18610968 -0.041951492
0.10586909 0.07018557 -0.020185519 -0.025488509 0.05001891 0.0004768701 0.07852335 -0.046868496
0.046683095 -0.012921292 0.111537404 0.11802595 0.09549355 0.14178787 0.13697012 0.17615364
0.17309603 0.12314676 0.17634654 0.08745042 0.003431548 0.08843468 0.08486732 0.07324607
0.11679218 0.27310374 0.24994269 0.3077249 0.39103645 0.35633832 0.1655268 0.1410825
0.1909973 0.14793523 0.13237831 -0.13774832 -0.05824255 -0.033891726 -0.03321089 -0.07092504
-0.29448634 -0.23432119 -0.193125 -0.09488739 -0.168311 0.09295198 0.0822481 0.09778374
0.049937777 0.095367014 -0.05813791 -0.14680853 -0.19935052 -0.12703982 -0.09430914 -0.17135699
-0.18026686 -0.31208453 -0.19593036 -0.20358655 -0.013041474 0.007813028 -0.035628047 -0.11028392
-0.03274633 0.14050503 0.23168524 0.15669057 0.18089087 0.17696217 0.04326554 0.05912296
0.13039877 0.06217874 0.061637208 0.05308281 0.080121666 0.0552882 0.15339923 0.12220544
-0.067225344 -0.1436549 -0.21766645 -0.14546022 -0.09436191 -0.0062137214 -0.1312551 -0.05484847
-0.2032301 -0.058837634 -0.028477596 0.014303266 -0.060892202 -0.09710312 -0.07216536 -0.013456892
-0.13895549 -0.11129926 -0.11465427 -0.09061744 -0.058134433 -0.11036533 -0.20056707 -0.19954468
-0.18772805 -0.055375766 -0.053940266 -0.15530032 -0.11756735 -0.08434174 0.19497895 0.113189444
0.16946161 0.051206548 0.073438026 0.34243223 0.24526423 0.22138448 0.26933298 0.15416686
0.1194123 0.065346524 0.13251978 0.120630555 0.11545734 0.06433549 0.04114334 0.07295746
0.05160839 0.122170635 -0.06211407 -0.10384476 -0.15857199 -0.07968283 -0.07870641 -0.11944836
-0.03045897 -0.12002026 -0.001794656 -0.048470676 0.009747846 -0.032828912 -0.010019383 0.018697532
0.037559696 -0.018689103 -0.026499413 -0.008392386 -0.010784054 0.031160824 -0.024608644 -0.044783242
-0.06135001 0.06820234 -0.05721933 0.022839196 0.058010176 -7.9212215e-05 -0.023362331 -0.04658599
0.035626736 -2.758913e-05 0.09796937 0.018383978 -0.00065705384 0.00833469 0.0069650467 -0.018236233
-0.039904956 -0.027955202 -0.062535666 -0.08245561 -0.027348032 -0.039344322 -0.017068852 0.064475276
00000000: d59b 363d 04f8 e93d b8c8 a03d 545f 033e
00000010: f928 033e f414 ec3d 123c 423e 6131 873e
00000020: 43a4 393e 728b 823e 4e98 29be b523 44be
00000030: 1b52 6dbd 974e 80bd 3be6 bdbd e40b 78be
00000040: 9884 8fbe 70be 9fbe 7cda 99be 9cf0 adbe
00000050: df3e 9cbe bcd0 82be 49e9 80be 666f 99be
00000060: e634 46be 59fb e3bd 81ac a8bc 7794 e8bd
00000070: b7f6 13be 5b35 82bd 49c8 a03d 463f f8bc
00000080: ed79 d8b9 4fb1 91bc 59a8 a33d f073 5c3d
00000090: 8cb8 153e 5051 be3c e459 bd3b 1ac3 993d
000000a0: 31c4 633e 4707 2b3e 4b45 743e 07d1 5c3e
000000b0: 1d01 3e3e 4ad7 1a3e 262f 523e 3b3a 7a3e
000000c0: 858b 2b3e b2a7 2d3e 85a3 e8bc a18d 75bc
000000d0: 3202 c7bd 92c7 5ebd faf0 afbd b6cb 813e
000000e0: 4564 723e 1361 753e 9f7b 373e 70e4 8c3e
000000f0: 69e9 9fbc c8f7 8dbc ffeb 5ebd 8db7 d5bd
00000100: a4b5 92bd 426e 8bbd 86c1 f0bd 23f8 51bd
00000110: 6fd9 fdbd 47a3 1cbd d1d3 0e3c 3276 653c
00000120: bd00 76bd d223 13bb 09db c6bd d641 30be
00000130: 7f66 45be f08c 19be 8993 3ebe 54d5 2bbd
00000140: e5d1 d83d 74bd 8f3d 1a5c a5bc 47cd d0bc
00000150: a1e0 4c3d 6c04 fa39 dad0 a03d 2ef9 3fbd
00000160: c636 3f3d d4b3 53bc b96d e43d 97b7 f13d
00000170: 1f92 c33d d730 113e e541 0c3e 9f61 343e
00000180: 1640 313e 5e34 fc3d 3094 343e 3519 b33d
00000190: d2e3 603b 3e1d b53d ebce ad3d 0902 963d
000001a0: bd30 ef3d 41d4 8b3e faf0 7f3e 1e8e 9d3e
000001b0: ee35 c83e fa71 b63e dc7f 293e ee77 103e
000001c0: cc94 433e 557c 173e 2e8e 073e e50d 0dbe
000001d0: bd8f 6ebd 0dd2 0abd 2408 08bd 2641 91bd
000001e0: eac6 96be e5f1 6fbe 8fc2 45be 5254 c2bd
000001f0: b859 2cbe 9c5d be3d b171 a83d d742 c83d
00000200: 8e8b 4c3d c84f c33d 0422 6ebd fa54 16be
00000210: 8b22 4cbe ba16 02be 2725 c1bd 3578 2fbe
00000220: e097 38be 8bc9 9fbe f8a1 48be fe78 50be
00000230: e8ab 55bc 3702 003c b7ee 11bd 89dc e1bd
00000240: 0421 06bd 8de0 0f3e e53e 6d3e 7e73 203e
00000250: 753b 393e 9235 353e 3537 313d eb2a 723d
00000260: 4187 053e 22af 7e3d 4c77 7c3d 5c6d 593d
00000270: d416 a43d e175 623d b014 1d3e d946 fa3d
00000280: 71ad 89bd 451a 13be f4e3 5ebe 86f3 14be
00000290: d140 c1bd 799c cbbb bd67 06be caa8 60bd
000002a0: 8d1b 50be bbff 70bd d949 e9bc 3f58 6a3c
000002b0: 1a6a 79bd 00de c6bd 6fcb 93bd 4c7a 5cbc
000002c0: 594a 0ebe def0 e3bd dccf eabd a395 b9bd
000002d0: 5f1e 6ebd 3807 e2bd 7461 4dbe 7155 4cbe
000002e0: c83b 40be b3d1 62bd 78f0 5cbd 0c07 1fbe
000002f0: 27c7 f0bd 5dbb acbd 90a8 473e decf e73d
00000300: 5887 2d3e f5bd 513d ad66 963d 4753 af3e
00000310: 8c26 7b3e 9db2 623e 03e6 893e ebdd 1d3e
00000320: 708e f43d 66d4 853d 44b3 073e 270d f73d
00000330: e674 ec3d 53c2 833d eb85 283d b96a 953d
00000340: 5263 533d 9934 fa3d 536b 7ebd 90ac d4bd
00000350: b260 22be c030 a3bd d430 a1bd 57a1 f4bd
00000360: 1785 f9bc 2fcd f5bd aa3a ebba 3089 46bd
00000370: 6eb5 1f3c 9c77 06bd 5728 24bc 912b 993c
00000380: 32d8 193d e419 99bc 4c15 d9bc 3880 09bc
00000390: 9aaf 30bc fc44 ff3c 1198 c9bc a26e 37bd
000003a0: 264a 7bbd abad 8b3d d15e 6abd 4419 bb3c
000003b0: 149c 6d3d bc1e a6b8 5c62 bfbc f3d0 3ebd
000003c0: 57ed 113d 356f e7b7 2aa4 c83d ff99 963c
000003d0: 233e 2cba 398e 083c 0c3b e43b 2764 95bc
000003e0: 6173 23bd 4f02 e5bc b312 80bd 7dde a8bd
000003f0: fb08 e0bc 8327 21bd fad3 8bbc 9d0b 843d

encoder5.bias f4 [6]
0.08848862 0.074620225 -0.05517142 -0.011527636 -0.09978231 -0.018065143
00000000: 8639 b53d 7dd2 983d 6dfb 61bd 69de 3cbc
00000010: ab5a ccbd 5afd 93bc

encoder6.weight f4 [2, 6, 3, 3]
0.19209214 0.086804606 0.38659495 -0.14512515 -0.22010627 -0.11736469 -0.104973905 0.003984422
0.027692603 0.3947516 0.39978838 0.47934943 0.16367874 -0.07895366 0.06945736 -0.0066340887
-0.046886623 -0.02011853 0.34007496 0.41470337 0.32429823 0.3051049 0.074872665 0.11021789
0.13173789 0.2285818 0.3322633 0.45572492 0.42753923 0.48041743 0.13817133 0.10830131
0.22835751 0.043606564 0.10970203 0.15430053 0.2298592 0.43815336 0.62281615 0.22259514
0.33405313 0.44681346 0.21392383 0.24030702 0.14267665 0.34433386 -0.026757991 0.44803223
0.2219141 -0.19694532 0.23168774 0.38447335 0.40449217 0.64124006 0.33045965 0.27036646
0.497532 -0.31046692 -0.20108274 -0.26434314 -0.24639343 -0.33033073 -0.3609179 0.3675555
0.34616667 0.5141243 0.0343507 -0.13220465 0.08907329 -0.06718288 -0.106516555 -0.20606521
0.4913065 0.33421993 0.5396848 -0.11675449 -0.07411766 0.009262201 0.12388446 -0.0351636
0.17408076 0.3692238 0.39964834 0.5862307 0.12880228 0.08391745 0.2547874 0.22442214
0.1453962 0.31052083 0.41499153 0.58317333 0.44248998 0.3074986 0.35515437 0.34668386
0.08229134 0.057579532 0.17165229 0.26134205 0.10048062 0.45938063 -0.87599325 -0.9428405
-0.7777794 0.20629004 -0.4626968 -0.13986574
00000000: cdb3 443e 9dc6 b13d c6ef c53e b09b 14be
00000010: 8a63 61be e65c f0bd 8ffc d6bd c18f 823b
00000020: 99db e23c e21c ca3e 10b1 cc3e 4a6d f53e
00000030: 669b 273e 75b2 a1bd a93f 8e3d c562 d9bb
00000040: 300c 40bd 9ecf a4bc 4e1e ae3e 0054 d43e
00000050: 6b0a a63e b636 9c3e d756 993d ebb9 e13d
00000060: 4ce6 063e 5911 6a3e 6a1e aa3e c754 e93e
00000070: 6ce6 da3e 46f9 f53e c97c 0d3e 14cd dd3d
00000080: 8dd6 693e cc9c 323d 75ab e03d f500 1e3e
00000090: 3660 6b3e a355 e03e e170 1f3f fbef 633e
000000a0: 0309 ab3e bcc4 e43e d90e 5b3e 0b13 763e
000000b0: d419 123e 874c b03e 9333 dbbc 7b64 e53e
000000c0: 733d 633e 09ac 49be 8d3f 6d3e b1d9 c43e
000000d0: 9919 cf3e 4f28 243f 0232 a93e 796d 8a3e
000000e0: 84bc fe3e 85f5 9ebe a2e8 4dbe fc57 87be
000000f0: 8f4e 7cbe 1c21 a9be 3bca b8be 3c30 bc3e
00000100: c23c b13e a69d 033f 52b3 0c3d a860 07be
00000110: 0f6c b63d 2e97 89bd 5a25 dabd c202 53be
00000120: 878c fb3e e01e ab3e c828 0a3f fa1c efbd
00000130: 00cb 97bd 7dc0 173c 23b7 fd3d b507 10bd
00000140: 3a42 323e e70a bd3e b59e cc3e 3713 163f
00000150: bfe4 033e e9dc ab3d 7e73 823e ebce 653e
00000160: bee2 143e 96fc 9e3e c579 d43e d94a 153f
00000170: 0c8e e23e 7570 9d3e cbd6 b53e 8c80 b13e
00000180: 5d88 a83d 84d8 6b3d 9ec5 2f3e a0ce 853e
00000190: c9c8 cd3d f033 eb3e 1841 60bf ff5d 71bf
000001a0: 8d1c 47bf b23d 533e 98e6 ecbe f738 0fbe

encoder6.bias f4 [2]
-0.2255307 -0.3113195
00000000: 85f1 66be 4565 9fbe

decoder1.weight f4 [2, 6, 5, 5]
0.08052176 0.041351225 -0.077823 0.07944565 -0.044094194 -0.026376825 -0.057658847 -0.053864766
0.13005996 -0.0907415 0.14135607 0.22303872 0.10526905 0.2731173 0.15683107 0.40437838
0.3388601 0.32583147 0.41145536 0.33814257 0.17929526 0.22305495 0.073845245 0.2656158
0.2544202 0.1071177 0.11119404 0.118309796 0.0051968796 0.05612912 -0.028822822 0.03883344
0.052060556 -0.07065703 0.020992272 -0.08791012 -0.09975398 -0.16922739 -0.16742703 -0.21197844
0.027278408 0.15541026 0.17203398 0.14324164 0.014806915 -0.34465104 -0.2930742 -0.23886558
-0.26082984 -0.2951155 0.11010197 0.19331153 0.1496854 0.15109728 0.06302055 -0.0020492205
0.07441647 -0.042077664 0.05944763 -0.11638508 0.24080421 0.20347598 0.12856397 0.39222595
0.16334425 0.37250125 0.279015 0.27940467 0.36850622 0.22838807 -0.011330026 -0.08639397
0.002623003 0.021080429 -0.01682373 -0.029238652 0.041339014 -0.054363064 0.07747424 -0.06738868
-0.095946394 -0.06307015 -0.13975202 -0.03480461 -0.055390887 0.20154715 0.15182877 0.042594373
0.26356336 0.14779848 0.35800293 0.4383107 0.39135185 0.5367899 0.41237023 0.2777828
0.18280841 0.11445079 0.23288396 0.19809979 0.2585452 0.1955062 0.10963126 0.2315591
0.040809996 -0.047264576 0.025504889 -0.13261914 -0.0052173925 -0.0072852364 0.23832525 0.29009145
0.21611683 0.22388895 0.09484497 0.2603214 0.2056211 0.11823046 0.24815564 0.05834395
-0.14146174 -0.014327503 -0.20428616 -0.11462774 -0.15169197 0.12624298 0.07266859 0.019325256
0.12764147 0.050024964 0.031679228 -0.0038887167 -0.10097357 0.1085055 -0.017346736 0.26169166
0.1966971 0.14409854 0.3435988 0.25258806 0.29737946 0.41610035 0.31295052 0.43081823
0.33974567 0.12536913 0.16829379 0.03395807 0.21411875 0.048938952 -0.08231365 -0.0827945
-0.15562789 -0.07223789 -0.13156734 -0.0378071 -0.109531835 -0.15907498 0.086272106 -0.026417071
0.2563182 0.2933011 0.18803495 0.28749254 0.28622365 0.4109334 0.44228548 0.3365753
0.540326 0.4324669 0.29853216 0.1712241 0.11660252 0.15554395 0.26221925 0.21023494
0.31575695 0.35219052 0.20862432 0.33604792 0.00763002 0.1707722 0.09764013 0.12154469
0.12615314 -0.18542074 -0.13680376 -0.15538386 -0.0977098 -0.1588651 -0.03240821 0.035342325
0.02915812 0.024174035 -0.010189108 -0.2352351 -0.35773572 -0.33567855 -0.31737068 -0.33980975
0.1995966 0.21756522 0.12266962 0.21787962 0.0028668628 0.049333677 0.10338244 0.012170548
0.036586687 -0.023460975 0.39710584 0.3378286 0.27585363 0.37025902 0.25083408 0.33723298
0.28553417 0.296709 0.3300356 0.28494748 -0.009241537 -0.08649098 -0.023910955 0.053183973
-0.08396282 -0.052263048 -0.042360574 -0.071103744 -0.005001392 -0.15502745 -0.065797776 -0.06409235
-0.12579434 0.050448596 -0.05945853 0.225022 0.2303764 0.21632057 0.19030032 0.1235284
0.4134678 0.37760973 0.34120348 0.4931492 0.4172238 0.20237458 0.17056495 0.18844321
0.35185316 0.32210004 0.3661685 0.34803882 0.21120669 0.3664554 0.14972316 0.25456804
00000000: 98e8 a43d e75f 293d aa61 9fbd 67b4 a23d
00000010: 1d9c 34bd 3614 d8bc af2b 6cbd 4da1 5cbd
00000020: 702e 053e aed6 b9bd a5bf 103e 4364 643e
00000030: 4d97 d73d 08d6 8b3e 5398 203e af0a cf3e
00000040: 127f ad3e 62d3 a63e 47aa d23e 0621 ad3e
00000050: 2d99 373e 8468 643e 2d3c 973d cbfe 873e
00000060: 5d43 823e 8660 db3d b3b9 e33d 684c f23d
00000070: 964a aa3b a6e7 653d d71d ecbc d00f 1f3d
00000080: 733d 553d a2b4 90bd fcf7 ab3c 390a b4bd
00000090: d14b ccbd f249 2dbe fe71 2bbe e010 59be
000000a0: f876 df3c de23 1f3e ad29 303e f0ad 123e
000000b0: b498 723c 1a76 b0be d20d 96be 2e99 74be
000000c0: 7d8b 85be 6119 97be 247d e13d 75f3 453e
000000d0: 2147 193e 3fb9 1a3e eb10 813d 374c 06bb
000000e0: aa67 983d a159 2cbd 5c7f 733d 4d5b eebd
000000f0: 6195 763e 025c 503e 46a6 033e d7d1 c83e
00000100: b743 273e 7cb8 be3e 0edb 8e3e 210e 8f3e
00000110: d9ac bc3e 90de 693e 93a1 39bc 52ef b0bd
00000120: b0e6 2b3b ddb0 ac3c ebd1 89bc e685 efbc
00000130: 1953 293d ceab 5ebd d0aa 9e3d 1403 8abd
00000140: 8b7f c4bd ec2a 81bd 271b 0fbe 478f 0ebd
00000150: 8ee1 62bd 6062 4e3e 0079 1b3e 7077 2e3d
00000160: c7f1 863e 7c58 173e 294c b73e 436a e03e
00000170: 455f c83e 106b 093f 3122 d33e 8c39 8e3e
00000180: 2132 3b3e 2d65 ea3d 2279 6e3e acda 4a3e
00000190: 0960 843e c732 483e 5b86 e03d d41d 6d3e
000001a0: 6228 273d 8098 41bd a1ef d03c 50cd 07be
000001b0: a9f6 aabb feb8 eebb 890b 743e de86 943e
000001c0: bb4d 5d3e 2543 653e 143e c23d d948 853e
000001d0: 568e 523e d022 f23d 831c 7e3e 11fa 6e3d
000001e0: 59db 10be e7bd 6abc 6430 51be f3c1 eabd
000001f0: 2455 1bbe d745 013e 45d3 943d 0050 9e3c
00000200: 72b4 023e fae6 4c3d 14c2 013d d7d9 7ebb
00000210: 3bcb cebd 2238 de3d be1a 8ebc 73fc 853e
00000220: f76a 493e 918e 133e 2fec af3e 3953 813e
00000230: 1f42 983e 1b0b d53e 0d3b a03e 3594 dc3e
00000240: 25f3 ad3e c460 003e 3555 2c3e 9e17 0b3d
00000250: f241 5b3e 3674 483d 0f94 a8bd 2a90 a9bd
00000260: eb5c 1fbe 75f1 93bd 97b9 06be 9edb 1abd
00000270: 3a52 e0bd 8de4 22be 6eaf b03d 9d68 d8bc
00000280: 243c 833e 902b 963e 3c8c 403e 3932 933e
00000290: e88b 923e dd65 d23e 3e73 e23e 9953 ac3e
000002a0: ce52 0a3f 4d6c dd3e 35d9 983e 5f55 2f3e
000002b0: 4dcd ee3d ea46 1f3e 9a41 863e d447 573e
000002c0: e5aa a13e 5152 b43e 9da1 553e 790e ac3e
000002d0: 3f05 fa3b e8de 2e3e 8cf7 c73d 6cec f83d
000002e0: 4a2e 013e efde 3dbe 4916 0cbe f21c 1fbe
000002f0: 131c c8bd 88ad 22be 79be 04bd 1dc3 103d
00000300: 02dd ee3c a008 c63c 37f0 26bc 78e1 70be
00000310: 2329 b7be 0fde abbe 697e a2be 8bfb adbe
00000320: 0d63 4c3e 6bc9 5e3e 363a fb3d d61b 5f3e
00000330: fae1 3b3b 1c12 4a3d 2cba d33d fa66 473c
00000340: ecdb 153d 3b31 c0bc 7551 cb3e dff7 ac3e
00000350: b03c 8d3e 9792 bd3e 536d 803e cda9 ac3e
00000360: 8931 923e 3eea 973e 6dfa a83e a3e4 913e
00000370: d169 17bc 2f22 b1bd e8e0 c3bc 70d7 593d
00000380: b3f4 abbd c711 56bd 4882 2dbd d79e 91bd
00000390: b8e2 a3bb 84bf 1ebe fcc0 86bd da42 83bd
000003a0: 3bd0 00be 30a3 4e3d ca8a 73bd 2b6c 663e
000003b0: cae7 6b3e 2483 5d3e 16de 423e 75fc fc3d
000003c0: 0db2 d33e 1056 c13e 39b2 ae3e 0d7e fc3e
000003d0: 5c9e d53e 483b 4f3e 94a8 2e3e 42f7 403e
000003e0: 1926 b43e 4cea a43e 707a bb3e 2532 b23e
000003f0: 9146 583e 0ba0 bb3e 0751 193e be56 823e

decoder1.bias f4 [6]
-0.43094257 0.42389116 -0.28483218 -0.32295176 -0.33365262 -0.37795922
00000000: 81a4 dcbe 4308 d93e 86d5 91be ef59 a5be
00000010: 84d4 aabe df83 c1be

decoder2.weight f4 [6, 10, 4, 4]
0.021340707 0.022492973 0.084261015 0.05302413 0.026861425 -0.06690339 0.037436098 -0.018846165
0.31696528 0.27347186 0.36336672 0.3675726 0.2746473 0.2654148 0.24238889 0.2688029
0.12206662 0.007447552 0.075681634 0.14413004 0.07276331 -0.040824883 0.0471731 0.054592766
0.2798645 0.23374572 0.24136154 0.2082993 0.20298046 0.20992483 0.18322964 0.23957682
0.054930102 -0.042305544 0.019634446 0.19675152 -0.08343934 -0.057648458 0.044534266 0.060229924
0.32611817 0.20397647 0.22074671 0.38453823 0.23179448 0.2535408 0.33082354 0.30345005
0.1233403 0.008467491 0.08815063 0.08254142 -0.021537894 0.041569658 0.07707568 0.039593693
0.20356269 0.2744878 0.22580698 0.29024947 0.22152162 0.18218836 0.23368883 0.198136
0.08081578 0.11891649 0.12875986 0.16643736 -0.027229872 -0.08922168 0.01336934 0.07206583
0.28976813 0.2790937 0.21573283 0.35496244 0.21094663 0.21057688 0.26162428 0.27768362
0.05629791 0.04036587 0.07516883 0.15262268 -0.0081943525 -0.05708868 0.025413236 -0.014265811
0.36476177 0.2785476 0.38724363 0.2999709 0.28145838 0.27605796 0.31022373 0.35258037
0.17296769 -0.0016781706 0.19417241 0.12449985 0.0011120399 -0.06557112 -0.025810136 0.0031192156
0.35512787 0.31048954 0.31771383 0.3434518 0.28497854 0.26443985 0.26079482 0.33217007
0.06946465 0.046883825 -0.0013775305 0.18320522 0.0071660583 -0.035997104 0.103286915 -0.014643699
0.3406479 0.3168639 0.33513343 0.29087877 0.32359067 0.30701697 0.33264 0.34407136
-0.0034400078 -0.07954935 0.11210497 0.097634986 -0.029321898 -0.081889726 0.033150773 -0.058448773
0.20650615 0.2936945 0.2954515 0.38372013 0.28349277 0.27345508 0.22511603 0.25892422
0.18041025 0.07065296 0.10069578 0.13929544 0.01147925 -0.04139629 0.07648657 0.100090705
0.23516719 0.22697014 0.3649868 0.41755977 0.34872872 0.27863258 0.35606325 0.36768147
-0.24912216 -0.38284135 -0.37201872 -0.33038664 -0.2501156 -0.25162092 -0.3863259 -0.3177639
-0.2348702 -0.28116262 -0.18120435 -0.17619109 -0.16242993 -0.1505787 -0.14505385 -0.034989763
-0.27435923 -0.27778322 -0.31998432 -0.2705941 -0.31935424 -0.27167726 -0.34711534 -0.2858486
-0.14241031 -0.21159342 -0.14251433 -0.0755787 0.0021264968 -0.11410506 -0.13466863 0.03301462
-0.34841573 -0.4092278 -0.3766839 -0.18724908 -0.21251716 -0.3402674 -0.2525332 -0.26256177
-0.18873136 -0.19980854 -0.18749672 -0.05478112 -0.0609639 -0.2026382 -0.13829437 -0.06755708
-0.078879274 -0.16908044 -0.07466223 0.0475967 -0.17625938 -0.17751825 -0.19520096 -0.014215925
0.15246361 0.12668686 0.16601412 0.13830411 0.18842693 0.07325631 0.20577124 0.11850892
-0.42153314 -0.46405745 -0.33568016 -0.37665012 -0.38101545 -0.3623047 -0.32149628 -0.23233978
-0.19973028 -0.39288852 -0.30247563 -0.107377976 -0.20658864 -0.16215618 -0.08880386 -0.032747734
-0.2892541 -0.33017993 -0.37830934 -0.28472534 -0.33493492 -0.2609416 -0.25188532 -0.25019443
-0.23960562 -0.27902117 -0.1791744 -0.05484008 -0.10807665 -0.15524025 -0.117052175 0.019550167
00000000: b5d2 ae3c 2f43 b83c 0a91 ac3d d52f 593d
00000010: 7e0c dc3c a504 89bd 9856 193d 4663 9abc
00000020: 4649 a23e 8104 8c3e 340b ba3e 7a32 bc3e
00000030: 929e 8c3e 73e4 873e cb34 783e 89a0 893e
00000040: 10fe f93d 980a f43b f9fe 9a3d d396 133e
00000050: ee04 953d fe37 27bd 9538 413d aa9c 5f3d
00000060: 664a 8f3e 0a5b 6f3e 7b27 773e 694c 553e
00000070: 1cda 4f3e 89f6 563e 8da0 3b3e a053 753e
00000080: 63fe 603d 9448 2dbd 6bd8 a03c 3b79 493e
00000090: 3fe2 aabd ca20 6cbd 9069 363d a7b3 763d
000000a0: f6f8 a63e 35df 503e 6d0b 623e 32e2 c43e
000000b0: 885b 6d3e 1ad0 813e b461 a93e ce5d 9b3e
000000c0: d799 fc3d 3bbb 0a3c 5188 b43d 7a0b a93d
000000d0: 3d70 b0bc f244 2a3d dbd9 9d3d ff2c 223d
000000e0: bd72 503e aa89 8c3e f239 673e 949b 943e
000000f0: 90d6 623e 968f 3a3e 204c 6f3e 2ae4 4a3e
00000100: be82 a53d 7d8a f33d a0d9 033e 8e6e 2a3e
00000110: 2e11 dfbc dbb9 b6bd 140b 5b3c 4097 933d
00000120: 7d5c 943e 5fe5 8e3e 11e9 5c3e a3bd b53e
00000130: 6502 583e 77a1 573e 9ef3 853e 8c2c 8e3e
00000140: a398 663d af56 253d 1ef2 993d 1f49 1c3e
00000150: 9b41 06bc d2d5 69bd 6b2f d03c 26bb 69bc
00000160: 0ec2 ba3e cb9d 8e3e cc44 c63e c995 993e
00000170: 501b 903e 7857 8d3e a5d5 9e3e 6a85 b43e
00000180: 711e 313e 10f6 dbba 22d5 463e c7f9 fe3d
00000190: dec1 913a 274a 86bd c76f d3bc c16b 4c3b
000001a0: 52d3 b53e 7cf8 9e3e 63ab a23e ead8 af3e
000001b0: b5e8 913e a964 873e e686 853e 3212 aa3e
000001c0: 7b43 8e3d 4109 403d 418e b4ba 269a 3b3e
000001d0: 41d1 ea3b b371 13bd 1788 d33d 20ec 6fbc
000001e0: 6769 ae3e fc3b a23e 9c96 ab3e 10ee 943e
000001f0: adad a53e 5431 9d3e ca4f aa3e 1f2a b03e
00000200: c171 61bb c5ea a2bd 4a97 e53d daf4 c73d
00000210: 7a34 f0bc cdb5 a7bd 1bc9 073d fb67 6fbd
00000220: 5976 533e 205f 963e 6b45 973e f776 c43e
00000230: f725 913e 4e02 8c3e d184 663e b791 843e
00000240: 77bd 383e 80b2 903d 9739 ce3d 77a3 0e3e
00000250: 7713 3c3c 288f 29bd fea4 9c3d 5bfc cc3d
00000260: abcf 703e dc6a 683e 8ddf ba3e 65ca d53e
00000270: 928c b23e eea8 8e3e ec4d b63e bf40 bc3e
00000280: e119 7fbe c803 c4be 3d79 bebe 7028 a9be
00000290: 270f 80be 75d4 80be 82cc c5be f3b1 a2be
000002a0: d081 70be 8cf4 8fbe a28d 39be 706b 34be
000002b0: 0854 26be 4d31 1abe ff88 14be 6d51 0fbd
000002c0: d078 8cbe 9a39 8ebe fcd4 a3be 4f8b 8abe
000002d0: 6682 a3be 4819 8bbe 1ab9 b1be bf5a 92be
000002e0: 02d4 11be f2ab 58be 47ef 11be 01c9 9abd
000002f0: b25c 0b3b eaaf e9bd 93e6 09be 573a 073d
00000300: 8c63 b2be 4e86 d1be b6dc c0be 39be 3fbe
00000310: 199e 59be 8737 aebe 084c 81be 7f6e 86be
00000320: cb42 41be 9c9a 4cbe 24ff 3fbe 2b62 60bd
00000330: 48b5 79bd 6380 4fbe 0a9d 0dbe 5e5b 8abd
00000340: 758b a1bd 6c23 2dbe 83e8 98bd c2f4 423d
00000350: 577d 34be 58c7 35be c3e2 47be e9e9 68bc
00000360: 6c1f 1c3e 33ba 013e 9bff 293e 989f 0d3e
00000370: fdf2 403e 6707 963d b2b5 523e ceb4 f23d
00000380: 31d3 d7be f098 edbe 45de abbe 49d8 c0be
00000390: 7514 c3be 0080 b9be 299b a4be 7bea 6dbe
000003a0: 1886 4cbe af28 c9be 16de 9abe fce8 dbbd
000003b0: f98b 53be 450c 26be ccde b5bd 7d22 06bd
000003c0: 1d19 94be 580d a9be c3b1 c1be 85c7 91be
000003d0: 977c abbe 239a 85be 1df7 80be 7c19 80be
000003e0: 2d5b 75be dddb 8ebe 7e79 37be fe9f 60bd
000003f0: 4a57 ddbd 4df7 1ebe 0db9 efbd ac27 a03c

decoder2.bias f4 [10]
-0.22732326 -0.31814048 -0.2729578 -0.032572825 -0.2982487 -0.33103326 -0.26323238 -0.32923555
-0.23562267 -0.32765383
00000000: 6ec7 68be 4fe3 a2be 20c1 8bbe 156b 05bd
00000010: 0eb4 98be 317d a9be 65c6 86be 9091 a8be
00000020: 1247 71be 3ec2 a7be

decoder4.weight f4 [8, 10, 15, 15]
-0.0060770763 -0.015247539 0.010783778 -0.014623646 0.00396449 0.014258043 -0.020373605 -0.02430006
0.000599786 0.011980012 -0.020491244 -0.02283063 0.0050568916 -0.006470297 -0.028071234 -0.013593975
0.017701196 -0.02053 0.0033805596 0.007095681 0.0116834305 -0.014611528 -0.00064306235 -0.02091707
0.018474601 -0.0018111744 -0.008310546 -0.010872402 -0.011892045 -0.012618056 0.0006028931 0.005944071
-0.008766784 -0.008723485 0.003147583 -0.010056488 0.013719188 0.0050062365 -0.005507807 -0.005045881
-0.019473655 -0.0004644422 0.016318377 -0.014749492 -0.01678355 0.0018955865 0.006158946 -0.0006975673
0.021867253 0.01397728 -0.01725087 0.008584746 0.003046962 0.001727967 0.009036471 -0.013187529
-0.004156227 -0.0094272 -0.020027183 0.005715534 -0.014904582 -0.005060713 0.015315018 0.015756562
0.014975773 0.005327367 0.0036703649 -0.0007193515 -0.014649348 0.004405972 -0.00024957696 0.00883123
-0.0067281895 -0.022926657 -0.014156485 0.018738696 0.003607473 0.021775208 0.0029911364 0.02321212
0.016823368 0.011070096 -0.0036636065 -0.007824729 0.018972652 -0.0085765235 0.017427253 -0.019121874
-0.022775346 -0.0141043225 -0.00028384436 -0.015171117 0.00276505 0.0021591373 0.011327109 0.004114395
-0.0020863276 -0.00030260097 0.0146110235 -0.004966914 0.016673144 0.010005044 0.018625455 0.0026409954
0.0028222895 0.0038959682 -0.014938108 -0.012639667 -0.012113388 0.022799388 0.015742693 0.022314213
0.020501366 0.012863634 0.020954896 -0.009448342 -0.01833436 0.01173954 0.0031863737 -0.021232586
0.00086447736 0.0035784636 0.013838521 0.003298507 -0.0048301034 -0.004040647 -0.0015915364 0.0058531854
0.022799475 -0.0013046355 0.016517946 0.0046559796 0.0028362991 -0.0036733395 -0.0006731416 -0.0068715415
0.023550928 -0.0030524894 0.0150981005 0.018757273 0.01506543 0.02350195 0.0008412207 -0.0075199893
0.004287945 0.019800197 0.012173834 0.018611401 -0.0074579855 -0.01485221 -0.012752114 0.019153727
0.02485171 0.009477472 0.022267707 -0.00059061515 -0.004077153 -0.012908133 0.0056677647 0.020193808
0.022299448 -0.0034942816 -0.017135939 0.004868373 -0.008627013 0.00978897 0.024750115 -0.011401375
-0.0021371413 -0.0042893975 -0.0073656524 0.012796856 -0.007528655 0.006277331 0.014264561 -0.015835682
0.011449892 -0.009136886 -0.017234186 0.0018878672 -0.007993178 -0.010586905 -0.008938227 -0.0061682765
-0.008085757 0.014873296 0.011187265 0.0039626793 0.006114566 0.014787983 -0.0017787693 0.010605805
0.00627949 0.019274008 0.0048338245 -0.007999199 -0.008395119 0.0029467342 -0.00015526832 0.026388919
-0.0049278913 -0.0070360145 0.008440171 0.0075949784 -0.005886682 0.02555695 0.023370272 -0.0006297415
-0.009766451 0.02201974 0.0022928698 0.016189981 -0.010755136 0.019498747 0.013339097 0.00035412828
0.0021590933 0.021405071 -0.007889589 0.015840808 -0.005852766 0.021111371 0.017700251 0.017203763
-0.0035970267 -0.020426095 -0.017326467 0.007629125 -0.02395744 -0.02012685 0.012653415 -0.009119689
-0.010753888 -0.023837496 0.0088862255 -0.0028389068 -0.012662595 -0.014121204 -0.005369878 -0.01928866
0.004229613 -0.0069350363 -0.011524121 0.006841427 0.0014580301 -0.01747513 0.0012170036 0.009095052
0.014491673 0.005574716 0.0035737827 0.015355116 -0.02532391 0.0062367204 -0.021471804 -0.021464216
00000000: 3622 c7bb d0d0 79bc 71ae 303c 0498 6fbc
00000010: 8de8 813b 919a 693c 8ce6 a6bc eb10 c7bc
00000020: f53a 1d3a d047 443c 41dd a7bc 4d07 bbbc
00000030: 48b4 a53b c904 d4bb a5f5 e5bc 44b9 5ebc
00000040: 1902 913c 882e a8bc 618c 5d3b e382 e83b
00000050: dc6b 3f3c 3165 6fbc 2f93 28ba 465a abbc
00000060: 0c58 973c ee64 edba f528 08bc 2922 32bc
00000070: dad6 42bc f6bb 4ebc 790b 1e3a 7bc6 c23b
00000080: 8fa2 0fbc f3ec 0ebc ae47 4e3b f8c3 24bc
00000090: 72c6 603c 5b0b a43b d57a b4bb eb57 a5bb
000000a0: 3787 9fbc 6080 f3b9 1eae 853c daa7 71bc
000000b0: a87d 89bc 5475 f83a fcd0 c93b f3dc 36ba
000000c0: f422 b33c f600 653c b251 8dbc 09a7 0c3c
000000d0: 8aaf 473b f47c e23a b50d 143c 8110 58bc
000000e0: f630 88bb 8b74 1abc 0c10 a4bc 6049 bb3b
000000f0: 5932 74bc 56d4 a5bb d7eb 7a3c e813 813c
00000100: f25c 753c 3291 ae3b 818a 703b dd92 3cba
00000110: d203 70bc f95f 903b a7d9 82b9 ddb0 103c
00000120: 2578 dcbb afd0 bbbc 9af0 67bc e581 993c
00000130: 5b6b 6c3b ec61 b23c f106 443b 5827 be3c
00000140: 29d1 893c 595f 353c 1e19 70bb 4b33 00bc
00000150: 896c 9b3c 8c84 0cbc 99c3 8e3c 7aa5 9cbc
00000160: 5d93 babc d115 67bc f2d0 94b9 4790 78bc
00000170: d735 353b 5080 0d3b 5795 393c 0cd2 863b
00000180: c5ba 08bb 6aa6 9eb9 1363 6f3c 7fc1 a2bb
00000190: 1e96 883c 32ec 233c 6994 983c 8d14 2d3b
000001a0: 29f6 383b 8053 7f3b f7be 74bc 9b16 4fbc
000001b0: 3b77 46bc c8c5 ba3c d2f6 803c 4ccc b63c
000001c0: 7bf2 a73c fec1 523c 9aa9 ab3c 38cd 1abc
000001d0: f131 96bc 3357 403c 7bd2 503b f6ef adbc
000001e0: 189e 623a a884 6a3b f7ba 623c c42b 583b
000001f0: d845 9ebb 6767 84bb 1a9b d0ba 14cc bf3b
00000200: f7c5 ba3c 4e00 abba a550 873c 3091 983b
00000210: 34e1 393b 69bc 70bb c575 30ba ab2a e1bb
00000220: e0ed c03c 460c 48bb 065e 773c daa8 993c
00000230: fed4 763c 2987 c03c 5e85 5c3a 3e6a f6bb
00000240: e481 8c3b 0634 a23c c374 473c f076 983c
00000250: 1e62 f4bb af56 73bc 3eee 50bc 47e8 9c3c
00000260: d095 cb3c 6647 1b3c c46a b63c 83d3 1aba
00000270: a399 85bb a27c 53bc a8b8 b93b 7c6d a53c
00000280: 55ad b63c 5100 65bb ab60 8cbc df86 9f3b
00000290: 5158 0dbc eb61 203c c1c0 ca3c d5cc 3abc
000002a0: 480f 0cbb 138e 8cbb 925b f1bb e8a9 513c
000002b0: f0b2 f6bb 12b2 cd3b e8b5 693c d5b9 81bc
000002c0: 5498 3b3c e1b2 15bc b52e 8dbc 5072 f73a
000002d0: d2f5 02bc b374 2dbc a471 12bc 411f cabb
000002e0: 1f7a 04bc 20af 733c ca4a 373c 5dd9 813b
000002f0: b25c c83b 4c49 723c 9825 e9ba f8c3 2d3c
00000300: 2ec4 cd3b 86e4 9d3c 0f65 9e3b 130f 03bc
00000310: ae8b 09bc ff1d 413b 86cf 22b9 932d d83c
00000320: 267a a1bb 5e8e e6bb a548 0a3c 4cdf f83b
00000330: 11e5 c0bb cf5c d13c 0373 bf3c 3d15 25ba
00000340: 7703 20bc be62 b43c f943 163b daa0 843c
00000350: 4f36 30bc d6bb 9f3c 3a8c 5a3c 4baa b939
00000360: 937f 0d3b b059 af3c 5643 01bc 95c4 813c
00000370: 8fc8 bfbb c1f1 ac3c 1e00 913c e8ee 8c3c
00000380: 18bc 6bbb a054 a7bc 3cf0 8dbc bdfd f93b
00000390: 6542 c4bc 10e1 a4bc 4550 4f3c c06a 15bc
000003a0: 1331 30bc da46 c3bc 8897 113c f40c 3abb
000003b0: c676 4fbc 9f5c 67bc cdf5 afbb 4003 9ebc
000003c0: 9198 8a3b 4d3f e3bb abcf 3cbc 0d2e e03b
000003d0: 5f1b bf3a 0128 8fbc dd83 9f3a 6a03 153c
000003e0: 7b6e 6d3c 1bac b63b 2036 6a3b 0694 7b3c
000003f0: 1774 cfbc 675d cc3b a3e5 afbc b9d5 afbc

decoder4.bias f4 [8]
-0.032518324 0.05091704 0.039220545 0.01980071 -0.0040322035 -0.019405058 0.03941737 -0.011037025
00000000: ef31 05bd 638e 503d b9a5 203d 1935 a23c
00000010: 9320 84bb 5bf7 9ebc 1c74 213d a3d4 34bc
